…
I1115 21:20:11.878542  6025 upgrade_proto.cpp:67] Attempting to upgrade input file specified using deprecated input fields: /media/scs4450/hard/luyi/GPU/face-demo-master/models/m8_deploy_nobn.prototxt
I1115 21:20:11.878674  6025 upgrade_proto.cpp:70] Successfully upgraded file specified using deprecated input fields.
W1115 21:20:11.878680  6025 upgrade_proto.cpp:72] Note that future Caffe releases will only support input layers and not input fields.
I1115 21:20:11.879405  6025 net.cpp:53] Initializing net from parameters: 
name: "FaceBoxes"
state {
  phase: TEST
  level: 0
}
layer {
  name: "input"
  type: "Input"
  top: "data"
  input_param {
    shape {
      dim: 1
      dim: 3
      dim: 384
      dim: 384
    }
  }
}
layer {
  name: "conv1"
  type: "Convolution"
  bottom: "data"
  top: "conv1"
  param {
    lr_mult: 1
    decay_mult: 1
  }
  param {
    lr_mult: 2
    decay_mult: 0
  }
  convolution_param {
    num_output: 16
    pad: 0
    kernel_size: 3
    stride: 2
    weight_filler {
      type: "xavier"
    }
    bias_filler {
      type: "constant"
      value: 0
    }
  }
}
layer {
  name: "conv1/relu"
  type: "ReLU"
  bottom: "conv1"
  top: "conv1"
}
layer {
  name: "conv2-1"
  type: "Convolution"
  bottom: "conv1"
  top: "conv2-1"
  param {
    lr_mult: 1
    decay_mult: 1
  }
  param {
    lr_mult: 2
    decay_mult: 0
  }
  convolution_param {
    num_output: 16
    pad: 0
    kernel_size: 3
    stride: 2
    weight_filler {
      type: "xavier"
    }
    bias_filler {
      type: "constant"
      value: 0
    }
  }
}
layer {
  name: "conv2-1/relu"
  type: "ReLU"
  bottom: "conv2-1"
  top: "conv2-1"
}
layer {
  name: "conv2-2"
  type: "Convolution"
  bottom: "conv2-1"
  top: "conv2-2"
  param {
    lr_mult: 1
    decay_mult: 1
  }
  param {
    lr_mult: 2
    decay_mult: 0
  }
  convolution_param {
    num_output: 32
    pad: 0
    kernel_size: 3
    stride: 2
    weight_filler {
      type: "xavier"
    }
    bias_filler {
      type: "constant"
      value: 0
    }
  }
}
layer {
  name: "conv2-2/relu"
  type: "ReLU"
  bottom: "conv2-2"
  top: "conv2-2"
}
layer {
  name: "pool2"
  type: "Pooling"
  bottom: "conv2-2"
  top: "pool2"
  pooling_param {
    pool: MAX
    kernel_size: 3
    stride: 2
  }
}
layer {
  name: "conv3/incep0/conv"
  type: "Convolution"
  bottom: "pool2"
  top: "conv3/incep0/conv"
  param {
    lr_mult: 1
    decay_mult: 1
  }
  convolution_param {
    num_output: 24
    pad: 0
    kernel_size: 1
    stride: 1
    weight_filler {
      type: "xavier"
    }
    bias_filler {
      type: "constant"
      value: 0
    }
  }
}
layer {
  name: "conv3/incep0/relu"
  type: "ReLU"
  bottom: "conv3/incep0/conv"
  top: "conv3/incep0/conv"
}
layer {
  name: "conv3/incep1/conv1"
  type: "Convolution"
  bottom: "pool2"
  top: "conv3/incep1/conv1"
  param {
    lr_mult: 1
    decay_mult: 1
  }
  convolution_param {
    num_output: 16
    pad: 0
    kernel_size: 1
    stride: 1
    weight_filler {
      type: "xavier"
    }
    bias_filler {
      type: "constant"
      value: 0
    }
  }
}
layer {
  name: "conv3/incep1/relu1"
  type: "ReLU"
  bottom: "conv3/incep1/conv1"
  top: "conv3/incep1/conv1"
}
layer {
  name: "conv3/incep1/conv2"
  type: "Convolution"
  bottom: "conv3/incep1/conv1"
  top: "conv3/incep1/conv2"
  param {
    lr_mult: 1
    decay_mult: 1
  }
  convolution_param {
    num_output: 24
    pad: 1
    kernel_size: 3
    stride: 1
    weight_filler {
      type: "xavier"
    }
    bias_filler {
      type: "constant"
      value: 0
    }
  }
}
layer {
  name: "conv3/incep1/relu2"
  type: "ReLU"
  bottom: "conv3/incep1/conv2"
  top: "conv3/incep1/conv2"
}
layer {
  name: "conv3/incep2/conv1"
  type: "Convolution"
  bottom: "pool2"
  top: "conv3/incep2/conv1"
  param {
    lr_mult: 1
    decay_mult: 1
  }
  convolution_param {
    num_output: 16
    pad: 0
    kernel_size: 1
    stride: 1
    weight_filler {
      type: "xavier"
    }
    bias_filler {
      type: "constant"
      value: 0
    }
  }
}
layer {
  name: "conv3/incep2/relu1"
  type: "ReLU"
  bottom: "conv3/incep2/conv1"
  top: "conv3/incep2/conv1"
}
layer {
  name: "conv3/incep2/conv2"
  type: "Convolution"
  bottom: "conv3/incep2/conv1"
  top: "conv3/incep2/conv2"
  param {
    lr_mult: 1
    decay_mult: 1
  }
  convolution_param {
    num_output: 24
    pad: 1
    kernel_size: 3
    stride: 1
    weight_filler {
      type: "xavier"
    }
    bias_filler {
      type: "constant"
      value: 0
    }
  }
}
layer {
  name: "conv3/incep2/relu2"
  type: "ReLU"
  bottom: "conv3/incep2/conv2"
  top: "conv3/incep2/conv2"
}
layer {
  name: "conv3/incep2/conv3"
  type: "Convolution"
  bottom: "conv3/incep2/conv2"
  top: "conv3/incep2/conv3"
  param {
    lr_mult: 1
    decay_mult: 1
  }
  convolution_param {
    num_output: 24
    pad: 1
    kernel_size: 3
    stride: 1
    weight_filler {
      type: "xavier"
    }
    bias_filler {
      type: "constant"
      value: 0
    }
  }
}
layer {
  name: "conv3/incep2/relu3"
  type: "ReLU"
  bottom: "conv3/incep2/conv3"
  top: "conv3/incep2/conv3"
}
layer {
  name: "conv3/incep"
  type: "Concat"
  bottom: "conv3/incep0/conv"
  bottom: "conv3/incep1/conv2"
  bottom: "conv3/incep2/conv3"
  top: "conv3/incep"
}
layer {
  name: "conv5/incep0/conv"
  type: "Convolution"
  bottom: "conv3/incep"
  top: "conv5/incep0/conv"
  param {
    lr_mult: 1
    decay_mult: 1
  }
  convolution_param {
    num_output: 24
    pad: 0
    kernel_size: 1
    stride: 1
    weight_filler {
      type: "xavier"
    }
    bias_filler {
      type: "constant"
      value: 0
    }
  }
}
layer {
  name: "conv5/incep0/relu"
  type: "ReLU"
  bottom: "conv5/incep0/conv"
  top: "conv5/incep0/conv"
}
layer {
  name: "conv5/incep1/conv1"
  type: "Convolution"
  bottom: "conv3/incep"
  top: "conv5/incep1/conv1"
  param {
    lr_mult: 1
    decay_mult: 1
  }
  convolution_param {
    num_output: 16
    pad: 0
    kernel_size: 1
    stride: 1
    weight_filler {
      type: "xavier"
    }
    bias_filler {
      type: "constant"
      value: 0
    }
  }
}
layer {
  name: "conv5/incep1/relu1"
  type: "ReLU"
  bottom: "conv5/incep1/conv1"
  top: "conv5/incep1/conv1"
}
layer {
  name: "conv5/incep1/conv2"
  type: "Convolution"
  bottom: "conv5/incep1/conv1"
  top: "conv5/incep1/conv2"
  param {
    lr_mult: 1
    decay_mult: 1
  }
  convolution_param {
    num_output: 24
    pad: 1
    kernel_size: 3
    stride: 1
    weight_filler {
      type: "xavier"
    }
    bias_filler {
      type: "constant"
      value: 0
    }
  }
}
layer {
  name: "conv5/incep1/relu2"
  type: "ReLU"
  bottom: "conv5/incep1/conv2"
  top: "conv5/incep1/conv2"
}
layer {
  name: "conv5/incep2/conv1"
  type: "Convolution"
  bottom: "conv3/incep"
  top: "conv5/incep2/conv1"
  param {
    lr_mult: 1
    decay_mult: 1
  }
  convolution_param {
    num_output: 16
    pad: 0
    kernel_size: 1
    stride: 1
    weight_filler {
      type: "xavier"
    }
    bias_filler {
      type: "constant"
      value: 0
    }
  }
}
layer {
  name: "conv5/incep2/relu1"
  type: "ReLU"
  bottom: "conv5/incep2/conv1"
  top: "conv5/incep2/conv1"
}
layer {
  name: "conv5/incep2/conv2"
  type: "Convolution"
  bottom: "conv5/incep2/conv1"
  top: "conv5/incep2/conv2"
  param {
    lr_mult: 1
    decay_mult: 1
  }
  convolution_param {
    num_output: 24
    pad: 1
    kernel_size: 3
    stride: 1
    weight_filler {
      type: "xavier"
    }
    bias_filler {
      type: "constant"
      value: 0
    }
  }
}
layer {
  name: "conv5/incep2/relu2"
  type: "ReLU"
  bottom: "conv5/incep2/conv2"
  top: "conv5/incep2/conv2"
}
layer {
  name: "conv5/incep2/conv3"
  type: "Convolution"
  bottom: "conv5/incep2/conv2"
  top: "conv5/incep2/conv3"
  param {
    lr_mult: 1
    decay_mult: 1
  }
  convolution_param {
    num_output: 24
    pad: 1
    kernel_size: 3
    stride: 1
    weight_filler {
      type: "xavier"
    }
    bias_filler {
      type: "constant"
      value: 0
    }
  }
}
layer {
  name: "conv5/incep2/relu3"
  type: "ReLU"
  bottom: "conv5/incep2/conv3"
  top: "conv5/incep2/conv3"
}
layer {
  name: "conv5/incep"
  type: "Concat"
  bottom: "conv5/incep0/conv"
  bottom: "conv5/incep1/conv2"
  bottom: "conv5/incep2/conv3"
  top: "conv5/incep"
}
layer {
  name: "Inception3/conv/loc1"
  type: "Convolution"
  bottom: "conv5/incep"
  top: "Inception3/conv/loc1"
  param {
    lr_mult: 1
    decay_mult: 1
  }
  param {
    lr_mult: 2
    decay_mult: 0
  }
  convolution_param {
    num_output: 4
    pad: 1
    kernel_size: 3
    stride: 1
    weight_filler {
      type: "xavier"
    }
    bias_filler {
      type: "constant"
      value: 0
    }
  }
}
layer {
  name: "Inception3/conv/loc1/perm"
  type: "Permute"
  bottom: "Inception3/conv/loc1"
  top: "Inception3/conv/loc1/perm"
  permute_param {
    order: 0
    order: 2
    order: 3
    order: 1
  }
}
layer {
  name: "Inception3/conv/loc1/flat"
  type: "Flatten"
  bottom: "Inception3/conv/loc1/perm"
  top: "Inception3/conv/loc1/flat"
  flatten_param {
    axis: 1
  }
}
layer {
  name: "Inception3/conv/conf1"
  type: "Convolution"
  bottom: "conv5/incep"
  top: "Inception3/conv/conf1"
  param {
    lr_mult: 1
    decay_mult: 1
  }
  param {
    lr_mult: 2
    decay_mult: 0
  }
  convolution_param {
    num_output: 2
    pad: 1
    kernel_size: 3
    stride: 1
    weight_filler {
      type: "xavier"
    }
    bias_filler {
      type: "constant"
      value: 0
    }
  }
}
layer {
  name: "Inception3/conv/conf1/perm"
  type: "Permute"
  bottom: "Inception3/conv/conf1"
  top: "Inception3/conv/conf1/perm"
  permute_param {
    order: 0
    order: 2
    order: 3
    order: 1
  }
}
layer {
  name: "Inception3/conv/conf1/flat"
  type: "Flatten"
  bottom: "Inception3/conv/conf1/perm"
  top: "Inception3/conv/conf1/flat"
  flatten_param {
    axis: 1
  }
}
layer {
  name: "Inception3/conv/priorbox1"
  type: "PriorBox"
  bottom: "conv5/incep"
  bottom: "data"
  top: "Inception3/conv/priorbox1"
  prior_box_param {
    min_size: 12
    aspect_ratio: 1
    flip: true
    clip: true
    variance: 0.1
    variance: 0.1
    variance: 0.2
    variance: 0.2
  }
}
layer {
  name: "Inception3/conv/loc2"
  type: "Convolution"
  bottom: "conv5/incep"
  top: "Inception3/conv/loc2"
  param {
    lr_mult: 1
    decay_mult: 1
  }
  param {
    lr_mult: 2
    decay_mult: 0
  }
  convolution_param {
    num_output: 4
    pad: 1
    kernel_size: 3
    stride: 1
    weight_filler {
      type: "xavier"
    }
    bias_filler {
      type: "constant"
      value: 0
    }
  }
}
layer {
  name: "Inception3/conv/loc2/perm"
  type: "Permute"
  bottom: "Inception3/conv/loc2"
  top: "Inception3/conv/loc2/perm"
  permute_param {
    order: 0
    order: 2
    order: 3
    order: 1
  }
}
layer {
  name: "Inception3/conv/loc2/flat"
  type: "Flatten"
  bottom: "Inception3/conv/loc2/perm"
  top: "Inception3/conv/loc2/flat"
  flatten_param {
    axis: 1
  }
}
layer {
  name: "Inception3/conv/conf2"
  type: "Convolution"
  bottom: "conv5/incep"
  top: "Inception3/conv/conf2"
  param {
    lr_mult: 1
    decay_mult: 1
  }
  param {
    lr_mult: 2
    decay_mult: 0
  }
  convolution_param {
    num_output: 2
    pad: 1
    kernel_size: 3
    stride: 1
    weight_filler {
      type: "xavier"
    }
    bias_filler {
      type: "constant"
      value: 0
    }
  }
}
layer {
  name: "Inception3/conv/conf2/perm"
  type: "Permute"
  bottom: "Inception3/conv/conf2"
  top: "Inception3/conv/conf2/perm"
  permute_param {
    order: 0
    order: 2
    order: 3
    order: 1
  }
}
layer {
  name: "Inception3/conv/conf2/flat"
  type: "Flatten"
  bottom: "Inception3/conv/conf2/perm"
  top: "Inception3/conv/conf2/flat"
  flatten_param {
    axis: 1
  }
}
layer {
  name: "Inception3/conv/priorbox2"
  type: "PriorBox"
  bottom: "conv5/incep"
  bottom: "data"
  top: "Inception3/conv/priorbox2"
  prior_box_param {
    min_size: 24
    aspect_ratio: 1
    flip: true
    clip: true
    variance: 0.1
    variance: 0.1
    variance: 0.2
    variance: 0.2
  }
}
layer {
  name: "Inception3/conv/loc3"
  type: "Convolution"
  bottom: "conv5/incep"
  top: "Inception3/conv/loc3"
  param {
    lr_mult: 1
    decay_mult: 1
  }
  param {
    lr_mult: 2
    decay_mult: 0
  }
  convolution_param {
    num_output: 4
    pad: 1
    kernel_size: 3
    stride: 1
    weight_filler {
      type: "xavier"
    }
    bias_filler {
      type: "constant"
      value: 0
    }
  }
}
layer {
  name: "Inception3/conv/loc3/perm"
  type: "Permute"
  bottom: "Inception3/conv/loc3"
  top: "Inception3/conv/loc3/perm"
  permute_param {
    order: 0
    order: 2
    order: 3
    order: 1
  }
}
layer {
  name: "Inception3/conv/loc3/flat"
  type: "Flatten"
  bottom: "Inception3/conv/loc3/perm"
  top: "Inception3/conv/loc3/flat"
  flatten_param {
    axis: 1
  }
}
layer {
  name: "Inception3/conv/conf3"
  type: "Convolution"
  bottom: "conv5/incep"
  top: "Inception3/conv/conf3"
  param {
    lr_mult: 1
    decay_mult: 1
  }
  param {
    lr_mult: 2
    decay_mult: 0
  }
  convolution_param {
    num_output: 2
    pad: 1
    kernel_size: 3
    stride: 1
    weight_filler {
      type: "xavier"
    }
    bias_filler {
      type: "constant"
      value: 0
    }
  }
}
layer {
  name: "Inception3/conv/conf3/perm"
  type: "Permute"
  bottom: "Inception3/conv/conf3"
  top: "Inception3/conv/conf3/perm"
  permute_param {
    order: 0
    order: 2
    order: 3
    order: 1
  }
}
layer {
  name: "Inception3/conv/conf3/flat"
  type: "Flatten"
  bottom: "Inception3/conv/conf3/perm"
  top: "Inception3/conv/conf3/flat"
  flatten_param {
    axis: 1
  }
}
layer {
  name: "Inception3/conv/priorbox3"
  type: "PriorBox"
  bottom: "conv5/incep"
  bottom: "data"
  top: "Inception3/conv/priorbox3"
  prior_box_param {
    min_size: 48
    aspect_ratio: 1
    flip: true
    clip: true
    variance: 0.1
    variance: 0.1
    variance: 0.2
    variance: 0.2
  }
}
layer {
  name: "conv6_1"
  type: "Convolution"
  bottom: "conv5/incep"
  top: "conv6_1"
  param {
    lr_mult: 1
    decay_mult: 1
  }
  convolution_param {
    num_output: 24
    pad: 0
    kernel_size: 1
    stride: 1
    weight_filler {
      type: "xavier"
    }
    bias_filler {
      type: "constant"
      value: 0
    }
  }
}
layer {
  name: "conv6/relu1"
  type: "ReLU"
  bottom: "conv6_1"
  top: "conv6_1"
}
layer {
  name: "conv6_2"
  type: "Convolution"
  bottom: "conv6_1"
  top: "conv6_2"
  param {
    lr_mult: 1
    decay_mult: 1
  }
  convolution_param {
    num_output: 48
    pad: 1
    kernel_size: 3
    stride: 2
    weight_filler {
      type: "xavier"
    }
    bias_filler {
      type: "constant"
      value: 0
    }
  }
}
layer {
  name: "conv6/relu2"
  type: "ReLU"
  bottom: "conv6_2"
  top: "conv6_2"
}
layer {
  name: "conv6/loc"
  type: "Convolution"
  bottom: "conv6_2"
  top: "conv6/loc"
  param {
    lr_mult: 1
    decay_mult: 1
  }
  param {
    lr_mult: 2
    decay_mult: 0
  }
  convolution_param {
    num_output: 4
    pad: 1
    kernel_size: 3
    stride: 1
    weight_filler {
      type: "xavier"
    }
    bias_filler {
      type: "constant"
      value: 0
    }
  }
}
layer {
  name: "conv6/loc/perm"
  type: "Permute"
  bottom: "conv6/loc"
  top: "conv6/loc/perm"
  permute_param {
    order: 0
    order: 2
    order: 3
    order: 1
  }
}
layer {
  name: "conv6/loc/perm/flat"
  type: "Flatten"
  bottom: "conv6/loc/perm"
  top: "conv6/loc/perm/flat"
  flatten_param {
    axis: 1
  }
}
layer {
  name: "conv6/conf"
  type: "Convolution"
  bottom: "conv6_2"
  top: "conv6/conf"
  param {
    lr_mult: 1
    decay_mult: 1
  }
  param {
    lr_mult: 2
    decay_mult: 0
  }
  convolution_param {
    num_output: 2
    pad: 1
    kernel_size: 3
    stride: 1
    weight_filler {
      type: "xavier"
    }
    bias_filler {
      type: "constant"
      value: 0
    }
  }
}
layer {
  name: "conv6/conf/perm"
  type: "Permute"
  bottom: "conv6/conf"
  top: "conv6/conf/perm"
  permute_param {
    order: 0
    order: 2
    order: 3
    order: 1
  }
}
layer {
  name: "conv6/conf/perm/flat"
  type: "Flatten"
  bottom: "conv6/conf/perm"
  top: "conv6/conf/perm/flat"
  flatten_param {
    axis: 1
  }
}
layer {
  name: "conv6/priorbox"
  type: "PriorBox"
  bottom: "conv6_2"
  bottom: "data"
  top: "conv6/priorbox"
  prior_box_param {
    min_size: 96
    aspect_ratio: 1
    flip: true
    clip: true
    variance: 0.1
    variance: 0.1
    variance: 0.2
    variance: 0.2
  }
}
layer {
  name: "conv7_1"
  type: "Convolution"
  bottom: "conv6_2"
  top: "conv7_1"
  param {
    lr_mult: 1
    decay_mult: 1
  }
  convolution_param {
    num_output: 32
    pad: 0
    kernel_size: 1
    stride: 1
    weight_filler {
      type: "xavier"
    }
    bias_filler {
      type: "constant"
      value: 0
    }
  }
}
layer {
  name: "conv7/relu1"
  type: "ReLU"
  bottom: "conv7_1"
  top: "conv7_1"
}
layer {
  name: "conv7_2"
  type: "Convolution"
  bottom: "conv7_1"
  top: "conv7_2"
  param {
    lr_mult: 1
    decay_mult: 1
  }
  convolution_param {
    num_output: 64
    pad: 1
    kernel_size: 3
    stride: 2
    weight_filler {
      type: "xavier"
    }
    bias_filler {
      type: "constant"
      value: 0
    }
  }
}
layer {
  name: "conv7/relu2"
  type: "ReLU"
  bottom: "conv7_2"
  top: "conv7_2"
}
layer {
  name: "conv7/loc"
  type: "Convolution"
  bottom: "conv7_2"
  top: "conv7/loc"
  param {
    lr_mult: 1
    decay_mult: 1
  }
  param {
    lr_mult: 2
    decay_mult: 0
  }
  convolution_param {
    num_output: 4
    pad: 1
    kernel_size: 3
    stride: 1
    weight_filler {
      type: "xavier"
    }
    bias_filler {
      type: "constant"
      value: 0
    }
  }
}
layer {
  name: "conv7/loc/perm"
  type: "Permute"
  bottom: "conv7/loc"
  top: "conv7/loc/perm"
  permute_param {
    order: 0
    order: 2
    order: 3
    order: 1
  }
}
layer {
  name: "conv7/loc/perm/flat"
  type: "Flatten"
  bottom: "conv7/loc/perm"
  top: "conv7/loc/perm/flat"
  flatten_param {
    axis: 1
  }
}
layer {
  name: "conv7/conf"
  type: "Convolution"
  bottom: "conv7_2"
  top: "conv7/conf"
  param {
    lr_mult: 1
    decay_mult: 1
  }
  param {
    lr_mult: 2
    decay_mult: 0
  }
  convolution_param {
    num_output: 2
    pad: 1
    kernel_size: 3
    stride: 1
    weight_filler {
      type: "xavier"
    }
    bias_filler {
      type: "constant"
      value: 0
    }
  }
}
layer {
  name: "conv7/conf/perm"
  type: "Permute"
  bottom: "conv7/conf"
  top: "conv7/conf/perm"
  permute_param {
    order: 0
    order: 2
    order: 3
    order: 1
  }
}
layer {
  name: "conv7/conf/perm/flat"
  type: "Flatten"
  bottom: "conv7/conf/perm"
  top: "conv7/conf/perm/flat"
  flatten_param {
    axis: 1
  }
}
layer {
  name: "conv7/priorbox"
  type: "PriorBox"
  bottom: "conv7_2"
  bottom: "data"
  top: "conv7/priorbox"
  prior_box_param {
    min_size: 192
    aspect_ratio: 1
    flip: true
    clip: true
    variance: 0.1
    variance: 0.1
    variance: 0.2
    variance: 0.2
  }
}
layer {
  name: "mbox_loc"
  type: "Concat"
  bottom: "Inception3/conv/loc1/flat"
  bottom: "Inception3/conv/loc2/flat"
  bottom: "Inception3/conv/loc3/flat"
  bottom: "conv6/loc/perm/flat"
  bottom: "conv7/loc/perm/flat"
  top: "mbox_loc"
  concat_param {
    axis: 1
  }
}
layer {
  name: "mbox_conf"
  type: "Concat"
  bottom: "Inception3/conv/conf1/flat"
  bottom: "Inception3/conv/conf2/flat"
  bottom: "Inception3/conv/conf3/flat"
  bottom: "conv6/conf/perm/flat"
  bottom: "conv7/conf/perm/flat"
  top: "mbox_conf"
  concat_param {
    axis: 1
  }
}
layer {
  name: "mbox_priorbox"
  type: "Concat"
  bottom: "Inception3/conv/priorbox1"
  bottom: "Inception3/conv/priorbox2"
  bottom: "Inception3/conv/priorbox3"
  bottom: "conv6/priorbox"
  bottom: "conv7/priorbox"
  top: "mbox_priorbox"
  concat_param {
    axis: 2
  }
}
layer {
  name: "detection_out"
  type: "DetectionOutput"
  bottom: "mbox_loc"
  bottom: "mbox_conf"
  bottom: "mbox_priorbox"
  top: "detection_out"
  include {
    phase: TEST
  }
  detection_output_param {
    num_classes: 2
    share_location: true
    background_label_id: 0
    nms_param {
      nms_threshold: 0.45
      top_k: 100
    }
    code_type: CENTER_SIZE
    keep_top_k: 100
    confidence_threshold: 0.5
  }
}
I1115 21:20:11.879849  6025 layer_factory.hpp:77] Creating layer input
I1115 21:20:11.879865  6025 net.cpp:86] Creating Layer input
I1115 21:20:11.879873  6025 net.cpp:382] input -> data
I1115 21:20:11.879922  6025 net.cpp:124] Setting up input
I1115 21:20:11.879930  6025 net.cpp:131] Top shape: 1 3 384 384 (442368)
I1115 21:20:11.879932  6025 net.cpp:139] Memory required for data: 1769472
I1115 21:20:11.879937  6025 layer_factory.hpp:77] Creating layer data_input_0_split
I1115 21:20:11.879945  6025 net.cpp:86] Creating Layer data_input_0_split
I1115 21:20:11.879951  6025 net.cpp:408] data_input_0_split <- data
I1115 21:20:11.879959  6025 net.cpp:382] data_input_0_split -> data_input_0_split_0
I1115 21:20:11.879966  6025 net.cpp:382] data_input_0_split -> data_input_0_split_1
I1115 21:20:11.879972  6025 net.cpp:382] data_input_0_split -> data_input_0_split_2
I1115 21:20:11.879978  6025 net.cpp:382] data_input_0_split -> data_input_0_split_3
I1115 21:20:11.879984  6025 net.cpp:382] data_input_0_split -> data_input_0_split_4
I1115 21:20:11.879989  6025 net.cpp:382] data_input_0_split -> data_input_0_split_5
I1115 21:20:11.879998  6025 net.cpp:124] Setting up data_input_0_split
I1115 21:20:11.880002  6025 net.cpp:131] Top shape: 1 3 384 384 (442368)
I1115 21:20:11.880005  6025 net.cpp:131] Top shape: 1 3 384 384 (442368)
I1115 21:20:11.880009  6025 net.cpp:131] Top shape: 1 3 384 384 (442368)
I1115 21:20:11.880012  6025 net.cpp:131] Top shape: 1 3 384 384 (442368)
I1115 21:20:11.880015  6025 net.cpp:131] Top shape: 1 3 384 384 (442368)
I1115 21:20:11.880019  6025 net.cpp:131] Top shape: 1 3 384 384 (442368)
I1115 21:20:11.880022  6025 net.cpp:139] Memory required for data: 12386304
I1115 21:20:11.880023  6025 layer_factory.hpp:77] Creating layer conv1
I1115 21:20:11.880038  6025 net.cpp:86] Creating Layer conv1
I1115 21:20:11.880040  6025 net.cpp:408] conv1 <- data_input_0_split_0
I1115 21:20:11.880051  6025 net.cpp:382] conv1 -> conv1
I1115 21:20:11.880290  6025 net.cpp:124] Setting up conv1
I1115 21:20:11.880297  6025 net.cpp:131] Top shape: 1 16 191 191 (583696)
I1115 21:20:11.880300  6025 net.cpp:139] Memory required for data: 14721088
I1115 21:20:11.880319  6025 layer_factory.hpp:77] Creating layer conv1/relu
I1115 21:20:11.880327  6025 net.cpp:86] Creating Layer conv1/relu
I1115 21:20:11.880331  6025 net.cpp:408] conv1/relu <- conv1
I1115 21:20:11.880334  6025 net.cpp:369] conv1/relu -> conv1 (in-place)
I1115 21:20:11.880340  6025 net.cpp:124] Setting up conv1/relu
I1115 21:20:11.880344  6025 net.cpp:131] Top shape: 1 16 191 191 (583696)
I1115 21:20:11.880347  6025 net.cpp:139] Memory required for data: 17055872
I1115 21:20:11.880349  6025 layer_factory.hpp:77] Creating layer conv2-1
I1115 21:20:11.880358  6025 net.cpp:86] Creating Layer conv2-1
I1115 21:20:11.880360  6025 net.cpp:408] conv2-1 <- conv1
I1115 21:20:11.880373  6025 net.cpp:382] conv2-1 -> conv2-1
I1115 21:20:11.880430  6025 net.cpp:124] Setting up conv2-1
I1115 21:20:11.880445  6025 net.cpp:131] Top shape: 1 16 95 95 (144400)
I1115 21:20:11.880447  6025 net.cpp:139] Memory required for data: 17633472
I1115 21:20:11.880456  6025 layer_factory.hpp:77] Creating layer conv2-1/relu
I1115 21:20:11.880460  6025 net.cpp:86] Creating Layer conv2-1/relu
I1115 21:20:11.880463  6025 net.cpp:408] conv2-1/relu <- conv2-1
I1115 21:20:11.880470  6025 net.cpp:369] conv2-1/relu -> conv2-1 (in-place)
I1115 21:20:11.880475  6025 net.cpp:124] Setting up conv2-1/relu
I1115 21:20:11.880477  6025 net.cpp:131] Top shape: 1 16 95 95 (144400)
I1115 21:20:11.880481  6025 net.cpp:139] Memory required for data: 18211072
I1115 21:20:11.880482  6025 layer_factory.hpp:77] Creating layer conv2-2
I1115 21:20:11.880488  6025 net.cpp:86] Creating Layer conv2-2
I1115 21:20:11.880491  6025 net.cpp:408] conv2-2 <- conv2-1
I1115 21:20:11.880497  6025 net.cpp:382] conv2-2 -> conv2-2
I1115 21:20:11.880550  6025 net.cpp:124] Setting up conv2-2
I1115 21:20:11.880555  6025 net.cpp:131] Top shape: 1 32 47 47 (70688)
I1115 21:20:11.880558  6025 net.cpp:139] Memory required for data: 18493824
I1115 21:20:11.880564  6025 layer_factory.hpp:77] Creating layer conv2-2/relu
I1115 21:20:11.880571  6025 net.cpp:86] Creating Layer conv2-2/relu
I1115 21:20:11.880574  6025 net.cpp:408] conv2-2/relu <- conv2-2
I1115 21:20:11.880579  6025 net.cpp:369] conv2-2/relu -> conv2-2 (in-place)
I1115 21:20:11.880584  6025 net.cpp:124] Setting up conv2-2/relu
I1115 21:20:11.880587  6025 net.cpp:131] Top shape: 1 32 47 47 (70688)
I1115 21:20:11.880590  6025 net.cpp:139] Memory required for data: 18776576
I1115 21:20:11.880592  6025 layer_factory.hpp:77] Creating layer pool2
I1115 21:20:11.880599  6025 net.cpp:86] Creating Layer pool2
I1115 21:20:11.880602  6025 net.cpp:408] pool2 <- conv2-2
I1115 21:20:11.880605  6025 net.cpp:382] pool2 -> pool2
I1115 21:20:11.880630  6025 net.cpp:124] Setting up pool2
I1115 21:20:11.880635  6025 net.cpp:131] Top shape: 1 32 23 23 (16928)
I1115 21:20:11.880636  6025 net.cpp:139] Memory required for data: 18844288
I1115 21:20:11.880638  6025 layer_factory.hpp:77] Creating layer pool2_pool2_0_split
I1115 21:20:11.880643  6025 net.cpp:86] Creating Layer pool2_pool2_0_split
I1115 21:20:11.880645  6025 net.cpp:408] pool2_pool2_0_split <- pool2
I1115 21:20:11.880651  6025 net.cpp:382] pool2_pool2_0_split -> pool2_pool2_0_split_0
I1115 21:20:11.880657  6025 net.cpp:382] pool2_pool2_0_split -> pool2_pool2_0_split_1
I1115 21:20:11.880663  6025 net.cpp:382] pool2_pool2_0_split -> pool2_pool2_0_split_2
I1115 21:20:11.880671  6025 net.cpp:124] Setting up pool2_pool2_0_split
I1115 21:20:11.880674  6025 net.cpp:131] Top shape: 1 32 23 23 (16928)
I1115 21:20:11.880678  6025 net.cpp:131] Top shape: 1 32 23 23 (16928)
I1115 21:20:11.880681  6025 net.cpp:131] Top shape: 1 32 23 23 (16928)
I1115 21:20:11.880683  6025 net.cpp:139] Memory required for data: 19047424
I1115 21:20:11.880686  6025 layer_factory.hpp:77] Creating layer conv3/incep0/conv
I1115 21:20:11.880695  6025 net.cpp:86] Creating Layer conv3/incep0/conv
I1115 21:20:11.880698  6025 net.cpp:408] conv3/incep0/conv <- pool2_pool2_0_split_0
I1115 21:20:11.880705  6025 net.cpp:382] conv3/incep0/conv -> conv3/incep0/conv
I1115 21:20:11.880731  6025 net.cpp:124] Setting up conv3/incep0/conv
I1115 21:20:11.880736  6025 net.cpp:131] Top shape: 1 24 23 23 (12696)
I1115 21:20:11.880738  6025 net.cpp:139] Memory required for data: 19098208
I1115 21:20:11.880743  6025 layer_factory.hpp:77] Creating layer conv3/incep0/relu
I1115 21:20:11.880748  6025 net.cpp:86] Creating Layer conv3/incep0/relu
I1115 21:20:11.880749  6025 net.cpp:408] conv3/incep0/relu <- conv3/incep0/conv
I1115 21:20:11.880753  6025 net.cpp:369] conv3/incep0/relu -> conv3/incep0/conv (in-place)
I1115 21:20:11.880760  6025 net.cpp:124] Setting up conv3/incep0/relu
I1115 21:20:11.880764  6025 net.cpp:131] Top shape: 1 24 23 23 (12696)
I1115 21:20:11.880766  6025 net.cpp:139] Memory required for data: 19148992
I1115 21:20:11.880769  6025 layer_factory.hpp:77] Creating layer conv3/incep1/conv1
I1115 21:20:11.880774  6025 net.cpp:86] Creating Layer conv3/incep1/conv1
I1115 21:20:11.880779  6025 net.cpp:408] conv3/incep1/conv1 <- pool2_pool2_0_split_1
I1115 21:20:11.880784  6025 net.cpp:382] conv3/incep1/conv1 -> conv3/incep1/conv1
I1115 21:20:11.880805  6025 net.cpp:124] Setting up conv3/incep1/conv1
I1115 21:20:11.880810  6025 net.cpp:131] Top shape: 1 16 23 23 (8464)
I1115 21:20:11.880811  6025 net.cpp:139] Memory required for data: 19182848
I1115 21:20:11.880818  6025 layer_factory.hpp:77] Creating layer conv3/incep1/relu1
I1115 21:20:11.880822  6025 net.cpp:86] Creating Layer conv3/incep1/relu1
I1115 21:20:11.880825  6025 net.cpp:408] conv3/incep1/relu1 <- conv3/incep1/conv1
I1115 21:20:11.880831  6025 net.cpp:369] conv3/incep1/relu1 -> conv3/incep1/conv1 (in-place)
I1115 21:20:11.880836  6025 net.cpp:124] Setting up conv3/incep1/relu1
I1115 21:20:11.880839  6025 net.cpp:131] Top shape: 1 16 23 23 (8464)
I1115 21:20:11.880842  6025 net.cpp:139] Memory required for data: 19216704
I1115 21:20:11.880844  6025 layer_factory.hpp:77] Creating layer conv3/incep1/conv2
I1115 21:20:11.880851  6025 net.cpp:86] Creating Layer conv3/incep1/conv2
I1115 21:20:11.880853  6025 net.cpp:408] conv3/incep1/conv2 <- conv3/incep1/conv1
I1115 21:20:11.880857  6025 net.cpp:382] conv3/incep1/conv2 -> conv3/incep1/conv2
I1115 21:20:11.880900  6025 net.cpp:124] Setting up conv3/incep1/conv2
I1115 21:20:11.880905  6025 net.cpp:131] Top shape: 1 24 23 23 (12696)
I1115 21:20:11.880908  6025 net.cpp:139] Memory required for data: 19267488
I1115 21:20:11.880913  6025 layer_factory.hpp:77] Creating layer conv3/incep1/relu2
I1115 21:20:11.880918  6025 net.cpp:86] Creating Layer conv3/incep1/relu2
I1115 21:20:11.880921  6025 net.cpp:408] conv3/incep1/relu2 <- conv3/incep1/conv2
I1115 21:20:11.880925  6025 net.cpp:369] conv3/incep1/relu2 -> conv3/incep1/conv2 (in-place)
I1115 21:20:11.880929  6025 net.cpp:124] Setting up conv3/incep1/relu2
I1115 21:20:11.880933  6025 net.cpp:131] Top shape: 1 24 23 23 (12696)
I1115 21:20:11.880935  6025 net.cpp:139] Memory required for data: 19318272
I1115 21:20:11.880937  6025 layer_factory.hpp:77] Creating layer conv3/incep2/conv1
I1115 21:20:11.880946  6025 net.cpp:86] Creating Layer conv3/incep2/conv1
I1115 21:20:11.880949  6025 net.cpp:408] conv3/incep2/conv1 <- pool2_pool2_0_split_2
I1115 21:20:11.880954  6025 net.cpp:382] conv3/incep2/conv1 -> conv3/incep2/conv1
I1115 21:20:11.880983  6025 net.cpp:124] Setting up conv3/incep2/conv1
I1115 21:20:11.880991  6025 net.cpp:131] Top shape: 1 16 23 23 (8464)
I1115 21:20:11.880993  6025 net.cpp:139] Memory required for data: 19352128
I1115 21:20:11.880997  6025 layer_factory.hpp:77] Creating layer conv3/incep2/relu1
I1115 21:20:11.881003  6025 net.cpp:86] Creating Layer conv3/incep2/relu1
I1115 21:20:11.881006  6025 net.cpp:408] conv3/incep2/relu1 <- conv3/incep2/conv1
I1115 21:20:11.881012  6025 net.cpp:369] conv3/incep2/relu1 -> conv3/incep2/conv1 (in-place)
I1115 21:20:11.881017  6025 net.cpp:124] Setting up conv3/incep2/relu1
I1115 21:20:11.881021  6025 net.cpp:131] Top shape: 1 16 23 23 (8464)
I1115 21:20:11.881023  6025 net.cpp:139] Memory required for data: 19385984
I1115 21:20:11.881026  6025 layer_factory.hpp:77] Creating layer conv3/incep2/conv2
I1115 21:20:11.881031  6025 net.cpp:86] Creating Layer conv3/incep2/conv2
I1115 21:20:11.881033  6025 net.cpp:408] conv3/incep2/conv2 <- conv3/incep2/conv1
I1115 21:20:11.881041  6025 net.cpp:382] conv3/incep2/conv2 -> conv3/incep2/conv2
I1115 21:20:11.881080  6025 net.cpp:124] Setting up conv3/incep2/conv2
I1115 21:20:11.881084  6025 net.cpp:131] Top shape: 1 24 23 23 (12696)
I1115 21:20:11.881086  6025 net.cpp:139] Memory required for data: 19436768
I1115 21:20:11.881091  6025 layer_factory.hpp:77] Creating layer conv3/incep2/relu2
I1115 21:20:11.881096  6025 net.cpp:86] Creating Layer conv3/incep2/relu2
I1115 21:20:11.881099  6025 net.cpp:408] conv3/incep2/relu2 <- conv3/incep2/conv2
I1115 21:20:11.881103  6025 net.cpp:369] conv3/incep2/relu2 -> conv3/incep2/conv2 (in-place)
I1115 21:20:11.881108  6025 net.cpp:124] Setting up conv3/incep2/relu2
I1115 21:20:11.881111  6025 net.cpp:131] Top shape: 1 24 23 23 (12696)
I1115 21:20:11.881114  6025 net.cpp:139] Memory required for data: 19487552
I1115 21:20:11.881115  6025 layer_factory.hpp:77] Creating layer conv3/incep2/conv3
I1115 21:20:11.881120  6025 net.cpp:86] Creating Layer conv3/incep2/conv3
I1115 21:20:11.881124  6025 net.cpp:408] conv3/incep2/conv3 <- conv3/incep2/conv2
I1115 21:20:11.881129  6025 net.cpp:382] conv3/incep2/conv3 -> conv3/incep2/conv3
I1115 21:20:11.881181  6025 net.cpp:124] Setting up conv3/incep2/conv3
I1115 21:20:11.881186  6025 net.cpp:131] Top shape: 1 24 23 23 (12696)
I1115 21:20:11.881188  6025 net.cpp:139] Memory required for data: 19538336
I1115 21:20:11.881196  6025 layer_factory.hpp:77] Creating layer conv3/incep2/relu3
I1115 21:20:11.881201  6025 net.cpp:86] Creating Layer conv3/incep2/relu3
I1115 21:20:11.881204  6025 net.cpp:408] conv3/incep2/relu3 <- conv3/incep2/conv3
I1115 21:20:11.881208  6025 net.cpp:369] conv3/incep2/relu3 -> conv3/incep2/conv3 (in-place)
I1115 21:20:11.881212  6025 net.cpp:124] Setting up conv3/incep2/relu3
I1115 21:20:11.881217  6025 net.cpp:131] Top shape: 1 24 23 23 (12696)
I1115 21:20:11.881219  6025 net.cpp:139] Memory required for data: 19589120
I1115 21:20:11.881222  6025 layer_factory.hpp:77] Creating layer conv3/incep
I1115 21:20:11.881225  6025 net.cpp:86] Creating Layer conv3/incep
I1115 21:20:11.881228  6025 net.cpp:408] conv3/incep <- conv3/incep0/conv
I1115 21:20:11.881232  6025 net.cpp:408] conv3/incep <- conv3/incep1/conv2
I1115 21:20:11.881234  6025 net.cpp:408] conv3/incep <- conv3/incep2/conv3
I1115 21:20:11.881238  6025 net.cpp:382] conv3/incep -> conv3/incep
I1115 21:20:11.881245  6025 net.cpp:124] Setting up conv3/incep
I1115 21:20:11.881249  6025 net.cpp:131] Top shape: 1 72 23 23 (38088)
I1115 21:20:11.881252  6025 net.cpp:139] Memory required for data: 19741472
I1115 21:20:11.881253  6025 layer_factory.hpp:77] Creating layer conv3/incep_conv3/incep_0_split
I1115 21:20:11.881258  6025 net.cpp:86] Creating Layer conv3/incep_conv3/incep_0_split
I1115 21:20:11.881260  6025 net.cpp:408] conv3/incep_conv3/incep_0_split <- conv3/incep
I1115 21:20:11.881268  6025 net.cpp:382] conv3/incep_conv3/incep_0_split -> conv3/incep_conv3/incep_0_split_0
I1115 21:20:11.881274  6025 net.cpp:382] conv3/incep_conv3/incep_0_split -> conv3/incep_conv3/incep_0_split_1
I1115 21:20:11.881279  6025 net.cpp:382] conv3/incep_conv3/incep_0_split -> conv3/incep_conv3/incep_0_split_2
I1115 21:20:11.881287  6025 net.cpp:124] Setting up conv3/incep_conv3/incep_0_split
I1115 21:20:11.881291  6025 net.cpp:131] Top shape: 1 72 23 23 (38088)
I1115 21:20:11.881294  6025 net.cpp:131] Top shape: 1 72 23 23 (38088)
I1115 21:20:11.881299  6025 net.cpp:131] Top shape: 1 72 23 23 (38088)
I1115 21:20:11.881300  6025 net.cpp:139] Memory required for data: 20198528
I1115 21:20:11.881302  6025 layer_factory.hpp:77] Creating layer conv5/incep0/conv
I1115 21:20:11.881310  6025 net.cpp:86] Creating Layer conv5/incep0/conv
I1115 21:20:11.881314  6025 net.cpp:408] conv5/incep0/conv <- conv3/incep_conv3/incep_0_split_0
I1115 21:20:11.881319  6025 net.cpp:382] conv5/incep0/conv -> conv5/incep0/conv
I1115 21:20:11.881350  6025 net.cpp:124] Setting up conv5/incep0/conv
I1115 21:20:11.881355  6025 net.cpp:131] Top shape: 1 24 23 23 (12696)
I1115 21:20:11.881356  6025 net.cpp:139] Memory required for data: 20249312
I1115 21:20:11.881361  6025 layer_factory.hpp:77] Creating layer conv5/incep0/relu
I1115 21:20:11.881366  6025 net.cpp:86] Creating Layer conv5/incep0/relu
I1115 21:20:11.881369  6025 net.cpp:408] conv5/incep0/relu <- conv5/incep0/conv
I1115 21:20:11.881373  6025 net.cpp:369] conv5/incep0/relu -> conv5/incep0/conv (in-place)
I1115 21:20:11.881377  6025 net.cpp:124] Setting up conv5/incep0/relu
I1115 21:20:11.881381  6025 net.cpp:131] Top shape: 1 24 23 23 (12696)
I1115 21:20:11.881383  6025 net.cpp:139] Memory required for data: 20300096
I1115 21:20:11.881386  6025 layer_factory.hpp:77] Creating layer conv5/incep1/conv1
I1115 21:20:11.881393  6025 net.cpp:86] Creating Layer conv5/incep1/conv1
I1115 21:20:11.881397  6025 net.cpp:408] conv5/incep1/conv1 <- conv3/incep_conv3/incep_0_split_1
I1115 21:20:11.881402  6025 net.cpp:382] conv5/incep1/conv1 -> conv5/incep1/conv1
I1115 21:20:11.881424  6025 net.cpp:124] Setting up conv5/incep1/conv1
I1115 21:20:11.881429  6025 net.cpp:131] Top shape: 1 16 23 23 (8464)
I1115 21:20:11.881431  6025 net.cpp:139] Memory required for data: 20333952
I1115 21:20:11.881435  6025 layer_factory.hpp:77] Creating layer conv5/incep1/relu1
I1115 21:20:11.881441  6025 net.cpp:86] Creating Layer conv5/incep1/relu1
I1115 21:20:11.881443  6025 net.cpp:408] conv5/incep1/relu1 <- conv5/incep1/conv1
I1115 21:20:11.881448  6025 net.cpp:369] conv5/incep1/relu1 -> conv5/incep1/conv1 (in-place)
I1115 21:20:11.881451  6025 net.cpp:124] Setting up conv5/incep1/relu1
I1115 21:20:11.881455  6025 net.cpp:131] Top shape: 1 16 23 23 (8464)
I1115 21:20:11.881458  6025 net.cpp:139] Memory required for data: 20367808
I1115 21:20:11.881460  6025 layer_factory.hpp:77] Creating layer conv5/incep1/conv2
I1115 21:20:11.881465  6025 net.cpp:86] Creating Layer conv5/incep1/conv2
I1115 21:20:11.881469  6025 net.cpp:408] conv5/incep1/conv2 <- conv5/incep1/conv1
I1115 21:20:11.881474  6025 net.cpp:382] conv5/incep1/conv2 -> conv5/incep1/conv2
I1115 21:20:11.881518  6025 net.cpp:124] Setting up conv5/incep1/conv2
I1115 21:20:11.881526  6025 net.cpp:131] Top shape: 1 24 23 23 (12696)
I1115 21:20:11.881528  6025 net.cpp:139] Memory required for data: 20418592
I1115 21:20:11.881533  6025 layer_factory.hpp:77] Creating layer conv5/incep1/relu2
I1115 21:20:11.881542  6025 net.cpp:86] Creating Layer conv5/incep1/relu2
I1115 21:20:11.881544  6025 net.cpp:408] conv5/incep1/relu2 <- conv5/incep1/conv2
I1115 21:20:11.881548  6025 net.cpp:369] conv5/incep1/relu2 -> conv5/incep1/conv2 (in-place)
I1115 21:20:11.881553  6025 net.cpp:124] Setting up conv5/incep1/relu2
I1115 21:20:11.881557  6025 net.cpp:131] Top shape: 1 24 23 23 (12696)
I1115 21:20:11.881559  6025 net.cpp:139] Memory required for data: 20469376
I1115 21:20:11.881561  6025 layer_factory.hpp:77] Creating layer conv5/incep2/conv1
I1115 21:20:11.881567  6025 net.cpp:86] Creating Layer conv5/incep2/conv1
I1115 21:20:11.881569  6025 net.cpp:408] conv5/incep2/conv1 <- conv3/incep_conv3/incep_0_split_2
I1115 21:20:11.881577  6025 net.cpp:382] conv5/incep2/conv1 -> conv5/incep2/conv1
I1115 21:20:11.881602  6025 net.cpp:124] Setting up conv5/incep2/conv1
I1115 21:20:11.881606  6025 net.cpp:131] Top shape: 1 16 23 23 (8464)
I1115 21:20:11.881608  6025 net.cpp:139] Memory required for data: 20503232
I1115 21:20:11.881613  6025 layer_factory.hpp:77] Creating layer conv5/incep2/relu1
I1115 21:20:11.881616  6025 net.cpp:86] Creating Layer conv5/incep2/relu1
I1115 21:20:11.881619  6025 net.cpp:408] conv5/incep2/relu1 <- conv5/incep2/conv1
I1115 21:20:11.881625  6025 net.cpp:369] conv5/incep2/relu1 -> conv5/incep2/conv1 (in-place)
I1115 21:20:11.881629  6025 net.cpp:124] Setting up conv5/incep2/relu1
I1115 21:20:11.881633  6025 net.cpp:131] Top shape: 1 16 23 23 (8464)
I1115 21:20:11.881635  6025 net.cpp:139] Memory required for data: 20537088
I1115 21:20:11.881638  6025 layer_factory.hpp:77] Creating layer conv5/incep2/conv2
I1115 21:20:11.881649  6025 net.cpp:86] Creating Layer conv5/incep2/conv2
I1115 21:20:11.881652  6025 net.cpp:408] conv5/incep2/conv2 <- conv5/incep2/conv1
I1115 21:20:11.881657  6025 net.cpp:382] conv5/incep2/conv2 -> conv5/incep2/conv2
I1115 21:20:11.881697  6025 net.cpp:124] Setting up conv5/incep2/conv2
I1115 21:20:11.881701  6025 net.cpp:131] Top shape: 1 24 23 23 (12696)
I1115 21:20:11.881703  6025 net.cpp:139] Memory required for data: 20587872
I1115 21:20:11.881708  6025 layer_factory.hpp:77] Creating layer conv5/incep2/relu2
I1115 21:20:11.881713  6025 net.cpp:86] Creating Layer conv5/incep2/relu2
I1115 21:20:11.881716  6025 net.cpp:408] conv5/incep2/relu2 <- conv5/incep2/conv2
I1115 21:20:11.881721  6025 net.cpp:369] conv5/incep2/relu2 -> conv5/incep2/conv2 (in-place)
I1115 21:20:11.881724  6025 net.cpp:124] Setting up conv5/incep2/relu2
I1115 21:20:11.881728  6025 net.cpp:131] Top shape: 1 24 23 23 (12696)
I1115 21:20:11.881731  6025 net.cpp:139] Memory required for data: 20638656
I1115 21:20:11.881732  6025 layer_factory.hpp:77] Creating layer conv5/incep2/conv3
I1115 21:20:11.881738  6025 net.cpp:86] Creating Layer conv5/incep2/conv3
I1115 21:20:11.881741  6025 net.cpp:408] conv5/incep2/conv3 <- conv5/incep2/conv2
I1115 21:20:11.881747  6025 net.cpp:382] conv5/incep2/conv3 -> conv5/incep2/conv3
I1115 21:20:11.881798  6025 net.cpp:124] Setting up conv5/incep2/conv3
I1115 21:20:11.881803  6025 net.cpp:131] Top shape: 1 24 23 23 (12696)
I1115 21:20:11.881805  6025 net.cpp:139] Memory required for data: 20689440
I1115 21:20:11.881809  6025 layer_factory.hpp:77] Creating layer conv5/incep2/relu3
I1115 21:20:11.881814  6025 net.cpp:86] Creating Layer conv5/incep2/relu3
I1115 21:20:11.881816  6025 net.cpp:408] conv5/incep2/relu3 <- conv5/incep2/conv3
I1115 21:20:11.881819  6025 net.cpp:369] conv5/incep2/relu3 -> conv5/incep2/conv3 (in-place)
I1115 21:20:11.881824  6025 net.cpp:124] Setting up conv5/incep2/relu3
I1115 21:20:11.881827  6025 net.cpp:131] Top shape: 1 24 23 23 (12696)
I1115 21:20:11.881830  6025 net.cpp:139] Memory required for data: 20740224
I1115 21:20:11.881832  6025 layer_factory.hpp:77] Creating layer conv5/incep
I1115 21:20:11.881836  6025 net.cpp:86] Creating Layer conv5/incep
I1115 21:20:11.881839  6025 net.cpp:408] conv5/incep <- conv5/incep0/conv
I1115 21:20:11.881841  6025 net.cpp:408] conv5/incep <- conv5/incep1/conv2
I1115 21:20:11.881845  6025 net.cpp:408] conv5/incep <- conv5/incep2/conv3
I1115 21:20:11.881851  6025 net.cpp:382] conv5/incep -> conv5/incep
I1115 21:20:11.881857  6025 net.cpp:124] Setting up conv5/incep
I1115 21:20:11.881860  6025 net.cpp:131] Top shape: 1 72 23 23 (38088)
I1115 21:20:11.881863  6025 net.cpp:139] Memory required for data: 20892576
I1115 21:20:11.881865  6025 layer_factory.hpp:77] Creating layer conv5/incep_conv5/incep_0_split
I1115 21:20:11.881870  6025 net.cpp:86] Creating Layer conv5/incep_conv5/incep_0_split
I1115 21:20:11.881873  6025 net.cpp:408] conv5/incep_conv5/incep_0_split <- conv5/incep
I1115 21:20:11.881880  6025 net.cpp:382] conv5/incep_conv5/incep_0_split -> conv5/incep_conv5/incep_0_split_0
…
I1115 21:20:11.881919  6025 net.cpp:382] conv5/incep_conv5/incep_0_split -> conv5/incep_conv5/incep_0_split_5
I1115 21:20:11.881925  6025 net.cpp:382] conv5/incep_conv5/incep_0_split -> conv5/incep_conv5/incep_0_split_6
I1115 21:20:11.881932  6025 net.cpp:382] conv5/incep_conv5/incep_0_split -> conv5/incep_conv5/incep_0_split_7
I1115 21:20:11.881937  6025 net.cpp:382] conv5/incep_conv5/incep_0_split -> conv5/incep_conv5/incep_0_split_8
I1115 21:20:11.881945  6025 net.cpp:382] conv5/incep_conv5/incep_0_split -> conv5/incep_conv5/incep_0_split_9
I1115 21:20:11.881953  6025 net.cpp:124] Setting up conv5/incep_conv5/incep_0_split
I1115 21:20:11.881958  6025 net.cpp:131] Top shape: 1 72 23 23 (38088)
I1115 21:20:11.881961  6025 net.cpp:131] Top shape: 1 72 23 23 (38088)
I1115 21:20:11.881964  6025 net.cpp:131] Top shape: 1 72 23 23 (38088)
I1115 21:20:11.881968  6025 net.cpp:131] Top shape: 1 72 23 23 (38088)
I1115 21:20:11.881971  6025 net.cpp:131] Top shape: 1 72 23 23 (38088)
I1115 21:20:11.881974  6025 net.cpp:131] Top shape: 1 72 23 23 (38088)
I1115 21:20:11.881978  6025 net.cpp:131] Top shape: 1 72 23 23 (38088)
I1115 21:20:11.881981  6025 net.cpp:131] Top shape: 1 72 23 23 (38088)
I1115 21:20:11.881984  6025 net.cpp:131] Top shape: 1 72 23 23 (38088)
I1115 21:20:11.881988  6025 net.cpp:131] Top shape: 1 72 23 23 (38088)
I1115 21:20:11.881990  6025 net.cpp:139] Memory required for data: 22416096
I1115 21:20:11.881992  6025 layer_factory.hpp:77] Creating layer Inception3/conv/loc1
I1115 21:20:11.882001  6025 net.cpp:86] Creating Layer Inception3/conv/loc1
I1115 21:20:11.882004  6025 net.cpp:408] Inception3/conv/loc1 <- conv5/incep_conv5/incep_0_split_0
I1115 21:20:11.882009  6025 net.cpp:382] Inception3/conv/loc1 -> Inception3/conv/loc1
I1115 21:20:11.882047  6025 net.cpp:124] Setting up Inception3/conv/loc1
I1115 21:20:11.882055  6025 net.cpp:131] Top shape: 1 4 23 23 (2116)
I1115 21:20:11.882057  6025 net.cpp:139] Memory required for data: 22424560
I1115 21:20:11.882062  6025 layer_factory.hpp:77] Creating layer Inception3/conv/loc1/perm
I1115 21:20:11.882067  6025 net.cpp:86] Creating Layer Inception3/conv/loc1/perm
I1115 21:20:11.882071  6025 net.cpp:408] Inception3/conv/loc1/perm <- Inception3/conv/loc1
I1115 21:20:11.882076  6025 net.cpp:382] Inception3/conv/loc1/perm -> Inception3/conv/loc1/perm
I1115 21:20:11.882091  6025 net.cpp:124] Setting up Inception3/conv/loc1/perm
I1115 21:20:11.882095  6025 net.cpp:131] Top shape: 1 23 23 4 (2116)
I1115 21:20:11.882098  6025 net.cpp:139] Memory required for data: 22433024
I1115 21:20:11.882100  6025 layer_factory.hpp:77] Creating layer Inception3/conv/loc1/flat
I1115 21:20:11.882104  6025 net.cpp:86] Creating Layer Inception3/conv/loc1/flat
I1115 21:20:11.882107  6025 net.cpp:408] Inception3/conv/loc1/flat <- Inception3/conv/loc1/perm
I1115 21:20:11.882113  6025 net.cpp:382] Inception3/conv/loc1/flat -> Inception3/conv/loc1/flat
I1115 21:20:11.882122  6025 net.cpp:124] Setting up Inception3/conv/loc1/flat
I1115 21:20:11.882125  6025 net.cpp:131] Top shape: 1 2116 (2116)
I1115 21:20:11.882128  6025 net.cpp:139] Memory required for data: 22441488
I1115 21:20:11.882130  6025 layer_factory.hpp:77] Creating layer Inception3/conv/conf1
I1115 21:20:11.882136  6025 net.cpp:86] Creating Layer Inception3/conv/conf1
I1115 21:20:11.882139  6025 net.cpp:408] Inception3/conv/conf1 <- conv5/incep_conv5/incep_0_split_1
I1115 21:20:11.882144  6025 net.cpp:382] Inception3/conv/conf1 -> Inception3/conv/conf1
I1115 21:20:11.882171  6025 net.cpp:124] Setting up Inception3/conv/conf1
I1115 21:20:11.882177  6025 net.cpp:131] Top shape: 1 2 23 23 (1058)
I1115 21:20:11.882179  6025 net.cpp:139] Memory required for data: 22445720
I1115 21:20:11.882194  6025 layer_factory.hpp:77] Creating layer Inception3/conv/conf1/perm
I1115 21:20:11.882199  6025 net.cpp:86] Creating Layer Inception3/conv/conf1/perm
I1115 21:20:11.882202  6025 net.cpp:408] Inception3/conv/conf1/perm <- Inception3/conv/conf1
I1115 21:20:11.882207  6025 net.cpp:382] Inception3/conv/conf1/perm -> Inception3/conv/conf1/perm
I1115 21:20:11.882215  6025 net.cpp:124] Setting up Inception3/conv/conf1/perm
I1115 21:20:11.882220  6025 net.cpp:131] Top shape: 1 23 23 2 (1058)
I1115 21:20:11.882221  6025 net.cpp:139] Memory required for data: 22449952
I1115 21:20:11.882223  6025 layer_factory.hpp:77] Creating layer Inception3/conv/conf1/flat
I1115 21:20:11.882230  6025 net.cpp:86] Creating Layer Inception3/conv/conf1/flat
I1115 21:20:11.882231  6025 net.cpp:408] Inception3/conv/conf1/flat <- Inception3/conv/conf1/perm
I1115 21:20:11.882236  6025 net.cpp:382] Inception3/conv/conf1/flat -> Inception3/conv/conf1/flat
I1115 21:20:11.882241  6025 net.cpp:124] Setting up Inception3/conv/conf1/flat
I1115 21:20:11.882244  6025 net.cpp:131] Top shape: 1 1058 (1058)
I1115 21:20:11.882246  6025 net.cpp:139] Memory required for data: 22454184
I1115 21:20:11.882248  6025 layer_factory.hpp:77] Creating layer Inception3/conv/priorbox1
I1115 21:20:11.882253  6025 net.cpp:86] Creating Layer Inception3/conv/priorbox1
I1115 21:20:11.882256  6025 net.cpp:408] Inception3/conv/priorbox1 <- conv5/incep_conv5/incep_0_split_2
I1115 21:20:11.882259  6025 net.cpp:408] Inception3/conv/priorbox1 <- data_input_0_split_1
I1115 21:20:11.882266  6025 net.cpp:382] Inception3/conv/priorbox1 -> Inception3/conv/priorbox1
I1115 21:20:11.882277  6025 net.cpp:124] Setting up Inception3/conv/priorbox1
I1115 21:20:11.882280  6025 net.cpp:131] Top shape: 1 2 2116 (4232)
I1115 21:20:11.882282  6025 net.cpp:139] Memory required for data: 22471112
I1115 21:20:11.882284  6025 layer_factory.hpp:77] Creating layer Inception3/conv/loc2
I1115 21:20:11.882290  6025 net.cpp:86] Creating Layer Inception3/conv/loc2
I1115 21:20:11.882293  6025 net.cpp:408] Inception3/conv/loc2 <- conv5/incep_conv5/incep_0_split_3
I1115 21:20:11.882300  6025 net.cpp:382] Inception3/conv/loc2 -> Inception3/conv/loc2
I1115 21:20:11.882336  6025 net.cpp:124] Setting up Inception3/conv/loc2
I1115 21:20:11.882341  6025 net.cpp:131] Top shape: 1 4 23 23 (2116)
I1115 21:20:11.882344  6025 net.cpp:139] Memory required for data: 22479576
I1115 21:20:11.882349  6025 layer_factory.hpp:77] Creating layer Inception3/conv/loc2/perm
I1115 21:20:11.882355  6025 net.cpp:86] Creating Layer Inception3/conv/loc2/perm
I1115 21:20:11.882359  6025 net.cpp:408] Inception3/conv/loc2/perm <- Inception3/conv/loc2
I1115 21:20:11.882364  6025 net.cpp:382] Inception3/conv/loc2/perm -> Inception3/conv/loc2/perm
I1115 21:20:11.882371  6025 net.cpp:124] Setting up Inception3/conv/loc2/perm
I1115 21:20:11.882375  6025 net.cpp:131] Top shape: 1 23 23 4 (2116)
I1115 21:20:11.882377  6025 net.cpp:139] Memory required for data: 22488040
I1115 21:20:11.882380  6025 layer_factory.hpp:77] Creating layer Inception3/conv/loc2/flat
I1115 21:20:11.882383  6025 net.cpp:86] Creating Layer Inception3/conv/loc2/flat
I1115 21:20:11.882386  6025 net.cpp:408] Inception3/conv/loc2/flat <- Inception3/conv/loc2/perm
I1115 21:20:11.882392  6025 net.cpp:382] Inception3/conv/loc2/flat -> Inception3/conv/loc2/flat
I1115 21:20:11.882398  6025 net.cpp:124] Setting up Inception3/conv/loc2/flat
I1115 21:20:11.882401  6025 net.cpp:131] Top shape: 1 2116 (2116)
I1115 21:20:11.882403  6025 net.cpp:139] Memory required for data: 22496504
I1115 21:20:11.882406  6025 layer_factory.hpp:77] Creating layer Inception3/conv/conf2
I1115 21:20:11.882411  6025 net.cpp:86] Creating Layer Inception3/conv/conf2
I1115 21:20:11.882414  6025 net.cpp:408] Inception3/conv/conf2 <- conv5/incep_conv5/incep_0_split_4
I1115 21:20:11.882421  6025 net.cpp:382] Inception3/conv/conf2 -> Inception3/conv/conf2
I1115 21:20:11.882447  6025 net.cpp:124] Setting up Inception3/conv/conf2
I1115 21:20:11.882452  6025 net.cpp:131] Top shape: 1 2 23 23 (1058)
I1115 21:20:11.882454  6025 net.cpp:139] Memory required for data: 22500736
I1115 21:20:11.882458  6025 layer_factory.hpp:77] Creating layer Inception3/conv/conf2/perm
I1115 21:20:11.882462  6025 net.cpp:86] Creating Layer Inception3/conv/conf2/perm
I1115 21:20:11.882465  6025 net.cpp:408] Inception3/conv/conf2/perm <- Inception3/conv/conf2
I1115 21:20:11.882472  6025 net.cpp:382] Inception3/conv/conf2/perm -> Inception3/conv/conf2/perm
I1115 21:20:11.882479  6025 net.cpp:124] Setting up Inception3/conv/conf2/perm
I1115 21:20:11.882483  6025 net.cpp:131] Top shape: 1 23 23 2 (1058)
I1115 21:20:11.882485  6025 net.cpp:139] Memory required for data: 22504968
I1115 21:20:11.882488  6025 layer_factory.hpp:77] Creating layer Inception3/conv/conf2/flat
I1115 21:20:11.882493  6025 net.cpp:86] Creating Layer Inception3/conv/conf2/flat
I1115 21:20:11.882496  6025 net.cpp:408] Inception3/conv/conf2/flat <- Inception3/conv/conf2/perm
I1115 21:20:11.882500  6025 net.cpp:382] Inception3/conv/conf2/flat -> Inception3/conv/conf2/flat
I1115 21:20:11.882506  6025 net.cpp:124] Setting up Inception3/conv/conf2/flat
I1115 21:20:11.882509  6025 net.cpp:131] Top shape: 1 1058 (1058)
I1115 21:20:11.882511  6025 net.cpp:139] Memory required for data: 22509200
I1115 21:20:11.882513  6025 layer_factory.hpp:77] Creating layer Inception3/conv/priorbox2
I1115 21:20:11.882520  6025 net.cpp:86] Creating Layer Inception3/conv/priorbox2
I1115 21:20:11.882522  6025 net.cpp:408] Inception3/conv/priorbox2 <- conv5/incep_conv5/incep_0_split_5
I1115 21:20:11.882526  6025 net.cpp:408] Inception3/conv/priorbox2 <- data_input_0_split_2
I1115 21:20:11.882531  6025 net.cpp:382] Inception3/conv/priorbox2 -> Inception3/conv/priorbox2
I1115 21:20:11.882537  6025 net.cpp:124] Setting up Inception3/conv/priorbox2
I1115 21:20:11.882541  6025 net.cpp:131] Top shape: 1 2 2116 (4232)
I1115 21:20:11.882544  6025 net.cpp:139] Memory required for data: 22526128
I1115 21:20:11.882545  6025 layer_factory.hpp:77] Creating layer Inception3/conv/loc3
I1115 21:20:11.882553  6025 net.cpp:86] Creating Layer Inception3/conv/loc3
I1115 21:20:11.882556  6025 net.cpp:408] Inception3/conv/loc3 <- conv5/incep_conv5/incep_0_split_6
I1115 21:20:11.882561  6025 net.cpp:382] Inception3/conv/loc3 -> Inception3/conv/loc3
I1115 21:20:11.882596  6025 net.cpp:124] Setting up Inception3/conv/loc3
I1115 21:20:11.882599  6025 net.cpp:131] Top shape: 1 4 23 23 (2116)
I1115 21:20:11.882602  6025 net.cpp:139] Memory required for data: 22534592
I1115 21:20:11.882606  6025 layer_factory.hpp:77] Creating layer Inception3/conv/loc3/perm
I1115 21:20:11.882611  6025 net.cpp:86] Creating Layer Inception3/conv/loc3/perm
I1115 21:20:11.882613  6025 net.cpp:408] Inception3/conv/loc3/perm <- Inception3/conv/loc3
I1115 21:20:11.882617  6025 net.cpp:382] Inception3/conv/loc3/perm -> Inception3/conv/loc3/perm
I1115 21:20:11.882627  6025 net.cpp:124] Setting up Inception3/conv/loc3/perm
I1115 21:20:11.882632  6025 net.cpp:131] Top shape: 1 23 23 4 (2116)
I1115 21:20:11.882634  6025 net.cpp:139] Memory required for data: 22543056
I1115 21:20:11.882637  6025 layer_factory.hpp:77] Creating layer Inception3/conv/loc3/flat
I1115 21:20:11.882640  6025 net.cpp:86] Creating Layer Inception3/conv/loc3/flat
I1115 21:20:11.882643  6025 net.cpp:408] Inception3/conv/loc3/flat <- Inception3/conv/loc3/perm
I1115 21:20:11.882647  6025 net.cpp:382] Inception3/conv/loc3/flat -> Inception3/conv/loc3/flat
I1115 21:20:11.882652  6025 net.cpp:124] Setting up Inception3/conv/loc3/flat
I1115 21:20:11.882655  6025 net.cpp:131] Top shape: 1 2116 (2116)
I1115 21:20:11.882658  6025 net.cpp:139] Memory required for data: 22551520
I1115 21:20:11.882660  6025 layer_factory.hpp:77] Creating layer Inception3/conv/conf3
I1115 21:20:11.882669  6025 net.cpp:86] Creating Layer Inception3/conv/conf3
I1115 21:20:11.882675  6025 net.cpp:408] Inception3/conv/conf3 <- conv5/incep_conv5/incep_0_split_7
I1115 21:20:11.882680  6025 net.cpp:382] Inception3/conv/conf3 -> Inception3/conv/conf3
I1115 21:20:11.882707  6025 net.cpp:124] Setting up Inception3/conv/conf3
I1115 21:20:11.882711  6025 net.cpp:131] Top shape: 1 2 23 23 (1058)
I1115 21:20:11.882714  6025 net.cpp:139] Memory required for data: 22555752
I1115 21:20:11.882719  6025 layer_factory.hpp:77] Creating layer Inception3/conv/conf3/perm
I1115 21:20:11.882725  6025 net.cpp:86] Creating Layer Inception3/conv/conf3/perm
I1115 21:20:11.882727  6025 net.cpp:408] Inception3/conv/conf3/perm <- Inception3/conv/conf3
I1115 21:20:11.882733  6025 net.cpp:382] Inception3/conv/conf3/perm -> Inception3/conv/conf3/perm
I1115 21:20:11.882741  6025 net.cpp:124] Setting up Inception3/conv/conf3/perm
I1115 21:20:11.882745  6025 net.cpp:131] Top shape: 1 23 23 2 (1058)
I1115 21:20:11.882747  6025 net.cpp:139] Memory required for data: 22559984
I1115 21:20:11.882750  6025 layer_factory.hpp:77] Creating layer Inception3/conv/conf3/flat
I1115 21:20:11.882755  6025 net.cpp:86] Creating Layer Inception3/conv/conf3/flat
I1115 21:20:11.882758  6025 net.cpp:408] Inception3/conv/conf3/flat <- Inception3/conv/conf3/perm
I1115 21:20:11.882762  6025 net.cpp:382] Inception3/conv/conf3/flat -> Inception3/conv/conf3/flat
I1115 21:20:11.882768  6025 net.cpp:124] Setting up Inception3/conv/conf3/flat
I1115 21:20:11.882771  6025 net.cpp:131] Top shape: 1 1058 (1058)
I1115 21:20:11.882773  6025 net.cpp:139] Memory required for data: 22564216
I1115 21:20:11.882776  6025 layer_factory.hpp:77] Creating layer Inception3/conv/priorbox3
I1115 21:20:11.882781  6025 net.cpp:86] Creating Layer Inception3/conv/priorbox3
I1115 21:20:11.882784  6025 net.cpp:408] Inception3/conv/priorbox3 <- conv5/incep_conv5/incep_0_split_8
I1115 21:20:11.882788  6025 net.cpp:408] Inception3/conv/priorbox3 <- data_input_0_split_3
I1115 21:20:11.882792  6025 net.cpp:382] Inception3/conv/priorbox3 -> Inception3/conv/priorbox3
I1115 21:20:11.882800  6025 net.cpp:124] Setting up Inception3/conv/priorbox3
I1115 21:20:11.882804  6025 net.cpp:131] Top shape: 1 2 2116 (4232)
I1115 21:20:11.882807  6025 net.cpp:139] Memory required for data: 22581144
I1115 21:20:11.882808  6025 layer_factory.hpp:77] Creating layer conv6_1
I1115 21:20:11.882814  6025 net.cpp:86] Creating Layer conv6_1
I1115 21:20:11.882817  6025 net.cpp:408] conv6_1 <- conv5/incep_conv5/incep_0_split_9
I1115 21:20:11.882822  6025 net.cpp:382] conv6_1 -> conv6_1
I1115 21:20:11.882850  6025 net.cpp:124] Setting up conv6_1
I1115 21:20:11.882855  6025 net.cpp:131] Top shape: 1 24 23 23 (12696)
I1115 21:20:11.882858  6025 net.cpp:139] Memory required for data: 22631928
I1115 21:20:11.882863  6025 layer_factory.hpp:77] Creating layer conv6/relu1
I1115 21:20:11.882866  6025 net.cpp:86] Creating Layer conv6/relu1
I1115 21:20:11.882869  6025 net.cpp:408] conv6/relu1 <- conv6_1
I1115 21:20:11.882874  6025 net.cpp:369] conv6/relu1 -> conv6_1 (in-place)
I1115 21:20:11.882879  6025 net.cpp:124] Setting up conv6/relu1
I1115 21:20:11.882882  6025 net.cpp:131] Top shape: 1 24 23 23 (12696)
I1115 21:20:11.882885  6025 net.cpp:139] Memory required for data: 22682712
I1115 21:20:11.882887  6025 layer_factory.hpp:77] Creating layer conv6_2
I1115 21:20:11.882892  6025 net.cpp:86] Creating Layer conv6_2
I1115 21:20:11.882895  6025 net.cpp:408] conv6_2 <- conv6_1
I1115 21:20:11.882899  6025 net.cpp:382] conv6_2 -> conv6_2
I1115 21:20:11.882987  6025 net.cpp:124] Setting up conv6_2
I1115 21:20:11.882993  6025 net.cpp:131] Top shape: 1 48 12 12 (6912)
I1115 21:20:11.882995  6025 net.cpp:139] Memory required for data: 22710360
I1115 21:20:11.882999  6025 layer_factory.hpp:77] Creating layer conv6/relu2
I1115 21:20:11.883005  6025 net.cpp:86] Creating Layer conv6/relu2
I1115 21:20:11.883008  6025 net.cpp:408] conv6/relu2 <- conv6_2
I1115 21:20:11.883011  6025 net.cpp:369] conv6/relu2 -> conv6_2 (in-place)
I1115 21:20:11.883015  6025 net.cpp:124] Setting up conv6/relu2
I1115 21:20:11.883019  6025 net.cpp:131] Top shape: 1 48 12 12 (6912)
I1115 21:20:11.883021  6025 net.cpp:139] Memory required for data: 22738008
I1115 21:20:11.883023  6025 layer_factory.hpp:77] Creating layer conv6_2_conv6/relu2_0_split
I1115 21:20:11.883029  6025 net.cpp:86] Creating Layer conv6_2_conv6/relu2_0_split
I1115 21:20:11.883033  6025 net.cpp:408] conv6_2_conv6/relu2_0_split <- conv6_2
I1115 21:20:11.883036  6025 net.cpp:382] conv6_2_conv6/relu2_0_split -> conv6_2_conv6/relu2_0_split_0
I1115 21:20:11.883051  6025 net.cpp:382] conv6_2_conv6/relu2_0_split -> conv6_2_conv6/relu2_0_split_1
I1115 21:20:11.883059  6025 net.cpp:382] conv6_2_conv6/relu2_0_split -> conv6_2_conv6/relu2_0_split_2
I1115 21:20:11.883064  6025 net.cpp:382] conv6_2_conv6/relu2_0_split -> conv6_2_conv6/relu2_0_split_3
I1115 21:20:11.883070  6025 net.cpp:124] Setting up conv6_2_conv6/relu2_0_split
I1115 21:20:11.883074  6025 net.cpp:131] Top shape: 1 48 12 12 (6912)
I1115 21:20:11.883077  6025 net.cpp:131] Top shape: 1 48 12 12 (6912)
I1115 21:20:11.883080  6025 net.cpp:131] Top shape: 1 48 12 12 (6912)
I1115 21:20:11.883083  6025 net.cpp:131] Top shape: 1 48 12 12 (6912)
I1115 21:20:11.883085  6025 net.cpp:139] Memory required for data: 22848600
I1115 21:20:11.883088  6025 layer_factory.hpp:77] Creating layer conv6/loc
I1115 21:20:11.883105  6025 net.cpp:86] Creating Layer conv6/loc
I1115 21:20:11.883111  6025 net.cpp:408] conv6/loc <- conv6_2_conv6/relu2_0_split_0
I1115 21:20:11.883116  6025 net.cpp:382] conv6/loc -> conv6/loc
I1115 21:20:11.883147  6025 net.cpp:124] Setting up conv6/loc
I1115 21:20:11.883152  6025 net.cpp:131] Top shape: 1 4 12 12 (576)
I1115 21:20:11.883154  6025 net.cpp:139] Memory required for data: 22850904
I1115 21:20:11.883158  6025 layer_factory.hpp:77] Creating layer conv6/loc/perm
I1115 21:20:11.883162  6025 net.cpp:86] Creating Layer conv6/loc/perm
I1115 21:20:11.883165  6025 net.cpp:408] conv6/loc/perm <- conv6/loc
I1115 21:20:11.883169  6025 net.cpp:382] conv6/loc/perm -> conv6/loc/perm
I1115 21:20:11.883177  6025 net.cpp:124] Setting up conv6/loc/perm
I1115 21:20:11.883182  6025 net.cpp:131] Top shape: 1 12 12 4 (576)
I1115 21:20:11.883183  6025 net.cpp:139] Memory required for data: 22853208
I1115 21:20:11.883185  6025 layer_factory.hpp:77] Creating layer conv6/loc/perm/flat
I1115 21:20:11.883190  6025 net.cpp:86] Creating Layer conv6/loc/perm/flat
I1115 21:20:11.883193  6025 net.cpp:408] conv6/loc/perm/flat <- conv6/loc/perm
I1115 21:20:11.883198  6025 net.cpp:382] conv6/loc/perm/flat -> conv6/loc/perm/flat
I1115 21:20:11.883203  6025 net.cpp:124] Setting up conv6/loc/perm/flat
I1115 21:20:11.883205  6025 net.cpp:131] Top shape: 1 576 (576)
I1115 21:20:11.883208  6025 net.cpp:139] Memory required for data: 22855512
I1115 21:20:11.883210  6025 layer_factory.hpp:77] Creating layer conv6/conf
I1115 21:20:11.883216  6025 net.cpp:86] Creating Layer conv6/conf
I1115 21:20:11.883219  6025 net.cpp:408] conv6/conf <- conv6_2_conv6/relu2_0_split_1
I1115 21:20:11.883226  6025 net.cpp:382] conv6/conf -> conv6/conf
I1115 21:20:11.883249  6025 net.cpp:124] Setting up conv6/conf
I1115 21:20:11.883253  6025 net.cpp:131] Top shape: 1 2 12 12 (288)
I1115 21:20:11.883255  6025 net.cpp:139] Memory required for data: 22856664
I1115 21:20:11.883260  6025 layer_factory.hpp:77] Creating layer conv6/conf/perm
I1115 21:20:11.883265  6025 net.cpp:86] Creating Layer conv6/conf/perm
I1115 21:20:11.883267  6025 net.cpp:408] conv6/conf/perm <- conv6/conf
I1115 21:20:11.883271  6025 net.cpp:382] conv6/conf/perm -> conv6/conf/perm
I1115 21:20:11.883280  6025 net.cpp:124] Setting up conv6/conf/perm
I1115 21:20:11.883282  6025 net.cpp:131] Top shape: 1 12 12 2 (288)
I1115 21:20:11.883285  6025 net.cpp:139] Memory required for data: 22857816
I1115 21:20:11.883286  6025 layer_factory.hpp:77] Creating layer conv6/conf/perm/flat
I1115 21:20:11.883291  6025 net.cpp:86] Creating Layer conv6/conf/perm/flat
I1115 21:20:11.883294  6025 net.cpp:408] conv6/conf/perm/flat <- conv6/conf/perm
I1115 21:20:11.883298  6025 net.cpp:382] conv6/conf/perm/flat -> conv6/conf/perm/flat
I1115 21:20:11.883303  6025 net.cpp:124] Setting up conv6/conf/perm/flat
I1115 21:20:11.883306  6025 net.cpp:131] Top shape: 1 288 (288)
I1115 21:20:11.883308  6025 net.cpp:139] Memory required for data: 22858968
I1115 21:20:11.883311  6025 layer_factory.hpp:77] Creating layer conv6/priorbox
I1115 21:20:11.883316  6025 net.cpp:86] Creating Layer conv6/priorbox
I1115 21:20:11.883317  6025 net.cpp:408] conv6/priorbox <- conv6_2_conv6/relu2_0_split_2
I1115 21:20:11.883322  6025 net.cpp:408] conv6/priorbox <- data_input_0_split_4
I1115 21:20:11.883327  6025 net.cpp:382] conv6/priorbox -> conv6/priorbox
I1115 21:20:11.883333  6025 net.cpp:124] Setting up conv6/priorbox
I1115 21:20:11.883337  6025 net.cpp:131] Top shape: 1 2 576 (1152)
I1115 21:20:11.883338  6025 net.cpp:139] Memory required for data: 22863576
I1115 21:20:11.883342  6025 layer_factory.hpp:77] Creating layer conv7_1
I1115 21:20:11.883347  6025 net.cpp:86] Creating Layer conv7_1
I1115 21:20:11.883350  6025 net.cpp:408] conv7_1 <- conv6_2_conv6/relu2_0_split_3
I1115 21:20:11.883355  6025 net.cpp:382] conv7_1 -> conv7_1
I1115 21:20:11.883380  6025 net.cpp:124] Setting up conv7_1
I1115 21:20:11.883385  6025 net.cpp:131] Top shape: 1 32 12 12 (4608)
I1115 21:20:11.883388  6025 net.cpp:139] Memory required for data: 22882008
I1115 21:20:11.883391  6025 layer_factory.hpp:77] Creating layer conv7/relu1
I1115 21:20:11.883395  6025 net.cpp:86] Creating Layer conv7/relu1
I1115 21:20:11.883397  6025 net.cpp:408] conv7/relu1 <- conv7_1
I1115 21:20:11.883401  6025 net.cpp:369] conv7/relu1 -> conv7_1 (in-place)
I1115 21:20:11.883405  6025 net.cpp:124] Setting up conv7/relu1
I1115 21:20:11.883409  6025 net.cpp:131] Top shape: 1 32 12 12 (4608)
I1115 21:20:11.883411  6025 net.cpp:139] Memory required for data: 22900440
I1115 21:20:11.883414  6025 layer_factory.hpp:77] Creating layer conv7_2
I1115 21:20:11.883419  6025 net.cpp:86] Creating Layer conv7_2
I1115 21:20:11.883422  6025 net.cpp:408] conv7_2 <- conv7_1
I1115 21:20:11.883426  6025 net.cpp:382] conv7_2 -> conv7_2
I1115 21:20:11.883576  6025 net.cpp:124] Setting up conv7_2
I1115 21:20:11.883584  6025 net.cpp:131] Top shape: 1 64 6 6 (2304)
I1115 21:20:11.883585  6025 net.cpp:139] Memory required for data: 22909656
I1115 21:20:11.883590  6025 layer_factory.hpp:77] Creating layer conv7/relu2
I1115 21:20:11.883594  6025 net.cpp:86] Creating Layer conv7/relu2
I1115 21:20:11.883599  6025 net.cpp:408] conv7/relu2 <- conv7_2
I1115 21:20:11.883602  6025 net.cpp:369] conv7/relu2 -> conv7_2 (in-place)
I1115 21:20:11.883606  6025 net.cpp:124] Setting up conv7/relu2
I1115 21:20:11.883610  6025 net.cpp:131] Top shape: 1 64 6 6 (2304)
I1115 21:20:11.883611  6025 net.cpp:139] Memory required for data: 22918872
I1115 21:20:11.883615  6025 layer_factory.hpp:77] Creating layer conv7_2_conv7/relu2_0_split
I1115 21:20:11.884601  6025 net.cpp:86] Creating Layer conv7_2_conv7/relu2_0_split
I1115 21:20:11.884608  6025 net.cpp:408] conv7_2_conv7/relu2_0_split <- conv7_2
I1115 21:20:11.884614  6025 net.cpp:382] conv7_2_conv7/relu2_0_split -> conv7_2_conv7/relu2_0_split_0
I1115 21:20:11.884621  6025 net.cpp:382] conv7_2_conv7/relu2_0_split -> conv7_2_conv7/relu2_0_split_1
I1115 21:20:11.884626  6025 net.cpp:382] conv7_2_conv7/relu2_0_split -> conv7_2_conv7/relu2_0_split_2
I1115 21:20:11.884634  6025 net.cpp:124] Setting up conv7_2_conv7/relu2_0_split
I1115 21:20:11.884639  6025 net.cpp:131] Top shape: 1 64 6 6 (2304)
I1115 21:20:11.884641  6025 net.cpp:131] Top shape: 1 64 6 6 (2304)
I1115 21:20:11.884644  6025 net.cpp:131] Top shape: 1 64 6 6 (2304)
I1115 21:20:11.884646  6025 net.cpp:139] Memory required for data: 22946520
I1115 21:20:11.884649  6025 layer_factory.hpp:77] Creating layer conv7/loc
I1115 21:20:11.884657  6025 net.cpp:86] Creating Layer conv7/loc
I1115 21:20:11.884660  6025 net.cpp:408] conv7/loc <- conv7_2_conv7/relu2_0_split_0
I1115 21:20:11.884665  6025 net.cpp:382] conv7/loc -> conv7/loc
I1115 21:20:11.884701  6025 net.cpp:124] Setting up conv7/loc
I1115 21:20:11.884704  6025 net.cpp:131] Top shape: 1 4 6 6 (144)
I1115 21:20:11.884706  6025 net.cpp:139] Memory required for data: 22947096
I1115 21:20:11.884711  6025 layer_factory.hpp:77] Creating layer conv7/loc/perm
I1115 21:20:11.884717  6025 net.cpp:86] Creating Layer conv7/loc/perm
I1115 21:20:11.884719  6025 net.cpp:408] conv7/loc/perm <- conv7/loc
I1115 21:20:11.884723  6025 net.cpp:382] conv7/loc/perm -> conv7/loc/perm
I1115 21:20:11.884732  6025 net.cpp:124] Setting up conv7/loc/perm
I1115 21:20:11.884737  6025 net.cpp:131] Top shape: 1 6 6 4 (144)
I1115 21:20:11.884737  6025 net.cpp:139] Memory required for data: 22947672
I1115 21:20:11.884740  6025 layer_factory.hpp:77] Creating layer conv7/loc/perm/flat
I1115 21:20:11.884747  6025 net.cpp:86] Creating Layer conv7/loc/perm/flat
I1115 21:20:11.884749  6025 net.cpp:408] conv7/loc/perm/flat <- conv7/loc/perm
I1115 21:20:11.884754  6025 net.cpp:382] conv7/loc/perm/flat -> conv7/loc/perm/flat
I1115 21:20:11.884760  6025 net.cpp:124] Setting up conv7/loc/perm/flat
I1115 21:20:11.884763  6025 net.cpp:131] Top shape: 1 144 (144)
I1115 21:20:11.884765  6025 net.cpp:139] Memory required for data: 22948248
I1115 21:20:11.884768  6025 layer_factory.hpp:77] Creating layer conv7/conf
I1115 21:20:11.884775  6025 net.cpp:86] Creating Layer conv7/conf
I1115 21:20:11.884778  6025 net.cpp:408] conv7/conf <- conv7_2_conv7/relu2_0_split_1
I1115 21:20:11.884783  6025 net.cpp:382] conv7/conf -> conv7/conf
I1115 21:20:11.884806  6025 net.cpp:124] Setting up conv7/conf
I1115 21:20:11.884810  6025 net.cpp:131] Top shape: 1 2 6 6 (72)
I1115 21:20:11.884812  6025 net.cpp:139] Memory required for data: 22948536
I1115 21:20:11.884816  6025 layer_factory.hpp:77] Creating layer conv7/conf/perm
I1115 21:20:11.884820  6025 net.cpp:86] Creating Layer conv7/conf/perm
I1115 21:20:11.884822  6025 net.cpp:408] conv7/conf/perm <- conv7/conf
I1115 21:20:11.884827  6025 net.cpp:382] conv7/conf/perm -> conv7/conf/perm
I1115 21:20:11.884836  6025 net.cpp:124] Setting up conv7/conf/perm
I1115 21:20:11.884840  6025 net.cpp:131] Top shape: 1 6 6 2 (72)
I1115 21:20:11.884842  6025 net.cpp:139] Memory required for data: 22948824
I1115 21:20:11.884845  6025 layer_factory.hpp:77] Creating layer conv7/conf/perm/flat
I1115 21:20:11.884847  6025 net.cpp:86] Creating Layer conv7/conf/perm/flat
I1115 21:20:11.884850  6025 net.cpp:408] conv7/conf/perm/flat <- conv7/conf/perm
I1115 21:20:11.884855  6025 net.cpp:382] conv7/conf/perm/flat -> conv7/conf/perm/flat
I1115 21:20:11.884861  6025 net.cpp:124] Setting up conv7/conf/perm/flat
I1115 21:20:11.884865  6025 net.cpp:131] Top shape: 1 72 (72)
I1115 21:20:11.884866  6025 net.cpp:139] Memory required for data: 22949112
I1115 21:20:11.884868  6025 layer_factory.hpp:77] Creating layer conv7/priorbox
I1115 21:20:11.884872  6025 net.cpp:86] Creating Layer conv7/priorbox
I1115 21:20:11.884876  6025 net.cpp:408] conv7/priorbox <- conv7_2_conv7/relu2_0_split_2
I1115 21:20:11.884879  6025 net.cpp:408] conv7/priorbox <- data_input_0_split_5
I1115 21:20:11.884886  6025 net.cpp:382] conv7/priorbox -> conv7/priorbox
I1115 21:20:11.884891  6025 net.cpp:124] Setting up conv7/priorbox
I1115 21:20:11.884894  6025 net.cpp:131] Top shape: 1 2 144 (288)
I1115 21:20:11.884896  6025 net.cpp:139] Memory required for data: 22950264
I1115 21:20:11.884898  6025 layer_factory.hpp:77] Creating layer mbox_loc
I1115 21:20:11.884908  6025 net.cpp:86] Creating Layer mbox_loc
I1115 21:20:11.884912  6025 net.cpp:408] mbox_loc <- Inception3/conv/loc1/flat
I1115 21:20:11.884914  6025 net.cpp:408] mbox_loc <- Inception3/conv/loc2/flat
I1115 21:20:11.884917  6025 net.cpp:408] mbox_loc <- Inception3/conv/loc3/flat
I1115 21:20:11.884920  6025 net.cpp:408] mbox_loc <- conv6/loc/perm/flat
I1115 21:20:11.884923  6025 net.cpp:408] mbox_loc <- conv7/loc/perm/flat
I1115 21:20:11.884928  6025 net.cpp:382] mbox_loc -> mbox_loc
I1115 21:20:11.884937  6025 net.cpp:124] Setting up mbox_loc
I1115 21:20:11.884940  6025 net.cpp:131] Top shape: 1 7068 (7068)
I1115 21:20:11.884943  6025 net.cpp:139] Memory required for data: 22978536
I1115 21:20:11.884944  6025 layer_factory.hpp:77] Creating layer mbox_conf
I1115 21:20:11.884948  6025 net.cpp:86] Creating Layer mbox_conf
I1115 21:20:11.884950  6025 net.cpp:408] mbox_conf <- Inception3/conv/conf1/flat
I1115 21:20:11.884954  6025 net.cpp:408] mbox_conf <- Inception3/conv/conf2/flat
I1115 21:20:11.884958  6025 net.cpp:408] mbox_conf <- Inception3/conv/conf3/flat
I1115 21:20:11.884961  6025 net.cpp:408] mbox_conf <- conv6/conf/perm/flat
I1115 21:20:11.884963  6025 net.cpp:408] mbox_conf <- conv7/conf/perm/flat
I1115 21:20:11.884970  6025 net.cpp:382] mbox_conf -> mbox_conf
I1115 21:20:11.884976  6025 net.cpp:124] Setting up mbox_conf
I1115 21:20:11.884979  6025 net.cpp:131] Top shape: 1 3534 (3534)
I1115 21:20:11.884981  6025 net.cpp:139] Memory required for data: 22992672
I1115 21:20:11.884984  6025 layer_factory.hpp:77] Creating layer mbox_priorbox
I1115 21:20:11.884987  6025 net.cpp:86] Creating Layer mbox_priorbox
I1115 21:20:11.884990  6025 net.cpp:408] mbox_priorbox <- Inception3/conv/priorbox1
I1115 21:20:11.884994  6025 net.cpp:408] mbox_priorbox <- Inception3/conv/priorbox2
I1115 21:20:11.884996  6025 net.cpp:408] mbox_priorbox <- Inception3/conv/priorbox3
I1115 21:20:11.884999  6025 net.cpp:408] mbox_priorbox <- conv6/priorbox
I1115 21:20:11.885002  6025 net.cpp:408] mbox_priorbox <- conv7/priorbox
I1115 21:20:11.885006  6025 net.cpp:382] mbox_priorbox -> mbox_priorbox
I1115 21:20:11.885011  6025 net.cpp:124] Setting up mbox_priorbox
I1115 21:20:11.885015  6025 net.cpp:131] Top shape: 1 2 7068 (14136)
I1115 21:20:11.885017  6025 net.cpp:139] Memory required for data: 23049216
I1115 21:20:11.885020  6025 layer_factory.hpp:77] Creating layer detection_out
I1115 21:20:11.885030  6025 net.cpp:86] Creating Layer detection_out
I1115 21:20:11.885033  6025 net.cpp:408] detection_out <- mbox_loc
I1115 21:20:11.885036  6025 net.cpp:408] detection_out <- mbox_conf
I1115 21:20:11.885040  6025 net.cpp:408] detection_out <- mbox_priorbox
I1115 21:20:11.885043  6025 net.cpp:382] detection_out -> detection_out
I1115 21:20:11.885059  6025 net.cpp:124] Setting up detection_out
I1115 21:20:11.885063  6025 net.cpp:131] Top shape: 1 1 1 7 (7)
I1115 21:20:11.885066  6025 net.cpp:139] Memory required for data: 23049244
I1115 21:20:11.885068  6025 net.cpp:202] detection_out does not need backward computation.
I1115 21:20:11.885074  6025 net.cpp:202] mbox_priorbox does not need backward computation.
I1115 21:20:11.885078  6025 net.cpp:202] mbox_conf does not need backward computation.
I1115 21:20:11.885083  6025 net.cpp:202] mbox_loc does not need backward computation.
…
I1115 21:20:11.907582  6025 upgrade_proto.cpp:67] Attempting to upgrade input file specified using deprecated input fields: /media/scs4450/hard/luyi/GPU/face-demo-master/models/LightenedCNN_B_deploy.prototxt
I1115 21:20:11.907591  6025 upgrade_proto.cpp:70] Successfully upgraded file specified using deprecated input fields.
W1115 21:20:11.907596  6025 upgrade_proto.cpp:72] Note that future Caffe releases will only support input layers and not input fields.
I1115 21:20:11.907860  6025 net.cpp:53] Initializing net from parameters: 
name: "DeepFace_set003_net"
state {
  phase: TEST
  level: 0
}
layer {
  name: "input"
  type: "Input"
  top: "data"
  input_param {
    shape {
      dim: 1
      dim: 1
      dim: 128
      dim: 128
    }
  }
}
layer {
  name: "conv1"
  type: "Convolution"
  bottom: "data"
  top: "conv1"
  param {
    lr_mult: 1
    decay_mult: 1
  }
  param {
    lr_mult: 2
    decay_mult: 0
  }
  convolution_param {
    num_output: 96
    pad: 2
    kernel_size: 5
    stride: 1
    weight_filler {
      type: "xavier"
    }
    bias_filler {
      type: "constant"
      value: 0.1
    }
  }
}
layer {
  name: "slice1"
  type: "Slice"
  bottom: "conv1"
  top: "slice1_1"
  top: "slice1_2"
  slice_param {
    slice_dim: 1
  }
}
layer {
  name: "etlwise1"
  type: "Eltwise"
  bottom: "slice1_1"
  bottom: "slice1_2"
  top: "eltwise1"
  eltwise_param {
    operation: MAX
  }
}
layer {
  name: "pool1"
  type: "Pooling"
  bottom: "eltwise1"
  top: "pool1"
  pooling_param {
    pool: MAX
    kernel_size: 2
    stride: 2
  }
}
layer {
  name: "conv2a"
  type: "Convolution"
  bottom: "pool1"
  top: "conv2a"
  param {
    lr_mult: 1
    decay_mult: 1
  }
  param {
    lr_mult: 2
    decay_mult: 0
  }
  convolution_param {
    num_output: 96
    kernel_size: 1
    stride: 1
    weight_filler {
      type: "xavier"
    }
    bias_filler {
      type: "constant"
      value: 0.1
    }
  }
}
layer {
  name: "slice2a"
  type: "Slice"
  bottom: "conv2a"
  top: "slice2a_1"
  top: "slice2a_2"
  slice_param {
    slice_dim: 1
  }
}
layer {
  name: "etlwise2a"
  type: "Eltwise"
  bottom: "slice2a_1"
  bottom: "slice2a_2"
  top: "eltwise2a"
  eltwise_param {
    operation: MAX
  }
}
layer {
  name: "conv2"
  type: "Convolution"
  bottom: "eltwise2a"
  top: "conv2"
  param {
    lr_mult: 1
    decay_mult: 1
  }
  param {
    lr_mult: 2
    decay_mult: 0
  }
  convolution_param {
    num_output: 192
    pad: 1
    kernel_size: 3
    stride: 1
    weight_filler {
      type: "xavier"
    }
    bias_filler {
      type: "constant"
      value: 0.1
    }
  }
}
layer {
  name: "slice2"
  type: "Slice"
  bottom: "conv2"
  top: "slice2_1"
  top: "slice2_2"
  slice_param {
    slice_dim: 1
  }
}
layer {
  name: "etlwise2"
  type: "Eltwise"
  bottom: "slice2_1"
  bottom: "slice2_2"
  top: "eltwise2"
  eltwise_param {
    operation: MAX
  }
}
layer {
  name: "pool2"
  type: "Pooling"
  bottom: "eltwise2"
  top: "pool2"
  pooling_param {
    pool: MAX
    kernel_size: 2
    stride: 2
  }
}
layer {
  name: "conv3a"
  type: "Convolution"
  bottom: "pool2"
  top: "conv3a"
  param {
    lr_mult: 1
    decay_mult: 1
  }
  param {
    lr_mult: 2
    decay_mult: 0
  }
  convolution_param {
    num_output: 192
    kernel_size: 1
    stride: 1
    weight_filler {
      type: "xavier"
    }
    bias_filler {
      type: "constant"
      value: 0.1
    }
  }
}
layer {
  name: "slice3a"
  type: "Slice"
  bottom: "conv3a"
  top: "slice3a_1"
  top: "slice3a_2"
  slice_param {
    slice_dim: 1
  }
}
layer {
  name: "etlwise3a"
  type: "Eltwise"
  bottom: "slice3a_1"
  bottom: "slice3a_2"
  top: "eltwise3a"
  eltwise_param {
    operation: MAX
  }
}
layer {
  name: "conv3"
  type: "Convolution"
  bottom: "eltwise3a"
  top: "conv3"
  param {
    lr_mult: 1
    decay_mult: 1
  }
  param {
    lr_mult: 2
    decay_mult: 0
  }
  convolution_param {
    num_output: 384
    pad: 1
    kernel_size: 3
    stride: 1
    weight_filler {
      type: "xavier"
    }
    bias_filler {
      type: "constant"
      value: 0.1
    }
  }
}
layer {
  name: "slice3"
  type: "Slice"
  bottom: "conv3"
  top: "slice3_1"
  top: "slice3_2"
  slice_param {
    slice_dim: 1
  }
}
layer {
  name: "etlwise3"
  type: "Eltwise"
  bottom: "slice3_1"
  bottom: "slice3_2"
  top: "eltwise3"
  eltwise_param {
    operation: MAX
  }
}
layer {
  name: "pool3"
  type: "Pooling"
  bottom: "eltwise3"
  top: "pool3"
  pooling_param {
    pool: MAX
    kernel_size: 2
    stride: 2
  }
}
layer {
  name: "conv4a"
  type: "Convolution"
  bottom: "pool3"
  top: "conv4a"
  param {
    lr_mult: 1
    decay_mult: 1
  }
  param {
    lr_mult: 2
    decay_mult: 0
  }
  convolution_param {
    num_output: 384
    kernel_size: 1
    stride: 1
    weight_filler {
      type: "xavier"
    }
    bias_filler {
      type: "constant"
      value: 0.1
    }
  }
}
layer {
  name: "slice4a"
  type: "Slice"
  bottom: "conv4a"
  top: "slice4a_1"
  top: "slice4a_2"
  slice_param {
    slice_dim: 1
  }
}
layer {
  name: "etlwise4a"
  type: "Eltwise"
  bottom: "slice4a_1"
  bottom: "slice4a_2"
  top: "eltwise4a"
  eltwise_param {
    operation: MAX
  }
}
layer {
  name: "conv4"
  type: "Convolution"
  bottom: "eltwise4a"
  top: "conv4"
  param {
    lr_mult: 1
    decay_mult: 1
  }
  param {
    lr_mult: 2
    decay_mult: 0
  }
  convolution_param {
    num_output: 256
    pad: 1
    kernel_size: 3
    stride: 1
    weight_filler {
      type: "xavier"
    }
    bias_filler {
      type: "constant"
      value: 0.1
    }
  }
}
layer {
  name: "slice4"
  type: "Slice"
  bottom: "conv4"
  top: "slice4_1"
  top: "slice4_2"
  slice_param {
    slice_dim: 1
  }
}
layer {
  name: "etlwise4"
  type: "Eltwise"
  bottom: "slice4_1"
  bottom: "slice4_2"
  top: "eltwise4"
  eltwise_param {
    operation: MAX
  }
}
layer {
  name: "conv5a"
  type: "Convolution"
  bottom: "eltwise4"
  top: "conv5a"
  param {
    lr_mult: 1
    decay_mult: 1
  }
  param {
    lr_mult: 2
    decay_mult: 0
  }
  convolution_param {
    num_output: 256
    kernel_size: 1
    stride: 1
    weight_filler {
      type: "xavier"
    }
    bias_filler {
      type: "constant"
      value: 0.1
    }
  }
}
layer {
  name: "slice5a"
  type: "Slice"
  bottom: "conv5a"
  top: "slice5a_1"
  top: "slice5a_2"
  slice_param {
    slice_dim: 1
  }
}
layer {
  name: "etlwise5a"
  type: "Eltwise"
  bottom: "slice5a_1"
  bottom: "slice5a_2"
  top: "eltwise5a"
  eltwise_param {
    operation: MAX
  }
}
layer {
  name: "conv5"
  type: "Convolution"
  bottom: "eltwise5a"
  top: "conv5"
  param {
    lr_mult: 1
    decay_mult: 1
  }
  param {
    lr_mult: 2
    decay_mult: 0
  }
  convolution_param {
    num_output: 256
    pad: 1
    kernel_size: 3
    stride: 1
    weight_filler {
      type: "xavier"
    }
    bias_filler {
      type: "constant"
      value: 0.1
    }
  }
}
layer {
  name: "slice5"
  type: "Slice"
  bottom: "conv5"
  top: "slice5_1"
  top: "slice5_2"
  slice_param {
    slice_dim: 1
  }
}
layer {
  name: "etlwise5"
  type: "Eltwise"
  bottom: "slice5_1"
  bottom: "slice5_2"
  top: "eltwise5"
  eltwise_param {
    operation: MAX
  }
}
layer {
  name: "pool4"
  type: "Pooling"
  bottom: "eltwise5"
  top: "pool4"
  pooling_param {
    pool: MAX
    kernel_size: 2
    stride: 2
  }
}
layer {
  name: "fc1"
  type: "InnerProduct"
  bottom: "pool4"
  top: "fc1"
  param {
    lr_mult: 1
    decay_mult: 1
  }
  param {
    lr_mult: 2
    decay_mult: 0
  }
  inner_product_param {
    num_output: 512
    weight_filler {
      type: "xavier"
    }
    bias_filler {
      type: "constant"
      value: 0.1
    }
  }
}
layer {
  name: "slice_fc1"
  type: "Slice"
  bottom: "fc1"
  top: "slice_fc1_1"
  top: "slice_fc1_2"
  slice_param {
    slice_dim: 1
  }
}
layer {
  name: "etlwise_fc1"
  type: "Eltwise"
  bottom: "slice_fc1_1"
  bottom: "slice_fc1_2"
  top: "eltwise_fc1"
  eltwise_param {
    operation: MAX
  }
}
layer {
  name: "drop1"
  type: "Dropout"
  bottom: "eltwise_fc1"
  top: "eltwise_fc1"
  dropout_param {
    dropout_ratio: 0.75
  }
}
layer {
  name: "fc2"
  type: "InnerProduct"
  bottom: "eltwise_fc1"
  top: "fc2"
  inner_product_param {
    num_output: 10575
    weight_filler {
      type: "xavier"
    }
    bias_filler {
      type: "constant"
      value: 0.1
    }
  }
}
layer {
  name: "softmax"
  type: "Softmax"
  bottom: "fc2"
  top: "prob"
  include {
    phase: TEST
  }
}
I1115 21:20:11.907974  6025 layer_factory.hpp:77] Creating layer input
I1115 21:20:11.907985  6025 net.cpp:86] Creating Layer input
I1115 21:20:11.907990  6025 net.cpp:382] input -> data
I1115 21:20:11.908002  6025 net.cpp:124] Setting up input
I1115 21:20:11.908010  6025 net.cpp:131] Top shape: 1 1 128 128 (16384)
I1115 21:20:11.908012  6025 net.cpp:139] Memory required for data: 65536
I1115 21:20:11.908015  6025 layer_factory.hpp:77] Creating layer conv1
I1115 21:20:11.908025  6025 net.cpp:86] Creating Layer conv1
I1115 21:20:11.908027  6025 net.cpp:408] conv1 <- data
I1115 21:20:11.908032  6025 net.cpp:382] conv1 -> conv1
I1115 21:20:11.908099  6025 net.cpp:124] Setting up conv1
I1115 21:20:11.908107  6025 net.cpp:131] Top shape: 1 96 128 128 (1572864)
I1115 21:20:11.908108  6025 net.cpp:139] Memory required for data: 6356992
I1115 21:20:11.908118  6025 layer_factory.hpp:77] Creating layer slice1
I1115 21:20:11.908124  6025 net.cpp:86] Creating Layer slice1
I1115 21:20:11.908128  6025 net.cpp:408] slice1 <- conv1
I1115 21:20:11.908133  6025 net.cpp:382] slice1 -> slice1_1
I1115 21:20:11.908138  6025 net.cpp:382] slice1 -> slice1_2
I1115 21:20:11.908145  6025 net.cpp:124] Setting up slice1
I1115 21:20:11.908149  6025 net.cpp:131] Top shape: 1 48 128 128 (786432)
I1115 21:20:11.908152  6025 net.cpp:131] Top shape: 1 48 128 128 (786432)
I1115 21:20:11.908154  6025 net.cpp:139] Memory required for data: 12648448
I1115 21:20:11.908156  6025 layer_factory.hpp:77] Creating layer etlwise1
I1115 21:20:11.908161  6025 net.cpp:86] Creating Layer etlwise1
I1115 21:20:11.908165  6025 net.cpp:408] etlwise1 <- slice1_1
I1115 21:20:11.908169  6025 net.cpp:408] etlwise1 <- slice1_2
I1115 21:20:11.908174  6025 net.cpp:382] etlwise1 -> eltwise1
I1115 21:20:11.908181  6025 net.cpp:124] Setting up etlwise1
I1115 21:20:11.908185  6025 net.cpp:131] Top shape: 1 48 128 128 (786432)
I1115 21:20:11.908188  6025 net.cpp:139] Memory required for data: 15794176
I1115 21:20:11.908190  6025 layer_factory.hpp:77] Creating layer pool1
I1115 21:20:11.908196  6025 net.cpp:86] Creating Layer pool1
I1115 21:20:11.908200  6025 net.cpp:408] pool1 <- eltwise1
I1115 21:20:11.908202  6025 net.cpp:382] pool1 -> pool1
I1115 21:20:11.908210  6025 net.cpp:124] Setting up pool1
I1115 21:20:11.908215  6025 net.cpp:131] Top shape: 1 48 64 64 (196608)
I1115 21:20:11.908218  6025 net.cpp:139] Memory required for data: 16580608
I1115 21:20:11.908221  6025 layer_factory.hpp:77] Creating layer conv2a
I1115 21:20:11.908226  6025 net.cpp:86] Creating Layer conv2a
I1115 21:20:11.908228  6025 net.cpp:408] conv2a <- pool1
I1115 21:20:11.908234  6025 net.cpp:382] conv2a -> conv2a
I1115 21:20:11.908289  6025 net.cpp:124] Setting up conv2a
I1115 21:20:11.908293  6025 net.cpp:131] Top shape: 1 96 64 64 (393216)
I1115 21:20:11.908296  6025 net.cpp:139] Memory required for data: 18153472
I1115 21:20:11.908303  6025 layer_factory.hpp:77] Creating layer slice2a
I1115 21:20:11.908308  6025 net.cpp:86] Creating Layer slice2a
I1115 21:20:11.908309  6025 net.cpp:408] slice2a <- conv2a
I1115 21:20:11.908314  6025 net.cpp:382] slice2a -> slice2a_1
I1115 21:20:11.908319  6025 net.cpp:382] slice2a -> slice2a_2
I1115 21:20:11.908326  6025 net.cpp:124] Setting up slice2a
I1115 21:20:11.908330  6025 net.cpp:131] Top shape: 1 48 64 64 (196608)
I1115 21:20:11.908336  6025 net.cpp:131] Top shape: 1 48 64 64 (196608)
I1115 21:20:11.908339  6025 net.cpp:139] Memory required for data: 19726336
I1115 21:20:11.908340  6025 layer_factory.hpp:77] Creating layer etlwise2a
I1115 21:20:11.908344  6025 net.cpp:86] Creating Layer etlwise2a
I1115 21:20:11.908347  6025 net.cpp:408] etlwise2a <- slice2a_1
I1115 21:20:11.908350  6025 net.cpp:408] etlwise2a <- slice2a_2
I1115 21:20:11.908354  6025 net.cpp:382] etlwise2a -> eltwise2a
I1115 21:20:11.908360  6025 net.cpp:124] Setting up etlwise2a
I1115 21:20:11.908363  6025 net.cpp:131] Top shape: 1 48 64 64 (196608)
I1115 21:20:11.908377  6025 net.cpp:139] Memory required for data: 20512768
I1115 21:20:11.908380  6025 layer_factory.hpp:77] Creating layer conv2
I1115 21:20:11.908390  6025 net.cpp:86] Creating Layer conv2
I1115 21:20:11.908394  6025 net.cpp:408] conv2 <- eltwise2a
I1115 21:20:11.908399  6025 net.cpp:382] conv2 -> conv2
I1115 21:20:11.909029  6025 net.cpp:124] Setting up conv2
I1115 21:20:11.909035  6025 net.cpp:131] Top shape: 1 192 64 64 (786432)
I1115 21:20:11.909037  6025 net.cpp:139] Memory required for data: 23658496
I1115 21:20:11.909044  6025 layer_factory.hpp:77] Creating layer slice2
I1115 21:20:11.909051  6025 net.cpp:86] Creating Layer slice2
I1115 21:20:11.909054  6025 net.cpp:408] slice2 <- conv2
I1115 21:20:11.909059  6025 net.cpp:382] slice2 -> slice2_1
I1115 21:20:11.909063  6025 net.cpp:382] slice2 -> slice2_2
I1115 21:20:11.909068  6025 net.cpp:124] Setting up slice2
I1115 21:20:11.909072  6025 net.cpp:131] Top shape: 1 96 64 64 (393216)
I1115 21:20:11.909075  6025 net.cpp:131] Top shape: 1 96 64 64 (393216)
I1115 21:20:11.909078  6025 net.cpp:139] Memory required for data: 26804224
I1115 21:20:11.909080  6025 layer_factory.hpp:77] Creating layer etlwise2
I1115 21:20:11.909085  6025 net.cpp:86] Creating Layer etlwise2
I1115 21:20:11.909086  6025 net.cpp:408] etlwise2 <- slice2_1
I1115 21:20:11.909090  6025 net.cpp:408] etlwise2 <- slice2_2
I1115 21:20:11.909093  6025 net.cpp:382] etlwise2 -> eltwise2
I1115 21:20:11.909101  6025 net.cpp:124] Setting up etlwise2
I1115 21:20:11.909104  6025 net.cpp:131] Top shape: 1 96 64 64 (393216)
I1115 21:20:11.909106  6025 net.cpp:139] Memory required for data: 28377088
I1115 21:20:11.909109  6025 layer_factory.hpp:77] Creating layer pool2
I1115 21:20:11.909113  6025 net.cpp:86] Creating Layer pool2
I1115 21:20:11.909116  6025 net.cpp:408] pool2 <- eltwise2
I1115 21:20:11.909119  6025 net.cpp:382] pool2 -> pool2
I1115 21:20:11.909126  6025 net.cpp:124] Setting up pool2
I1115 21:20:11.909128  6025 net.cpp:131] Top shape: 1 96 32 32 (98304)
I1115 21:20:11.909132  6025 net.cpp:139] Memory required for data: 28770304
I1115 21:20:11.909133  6025 layer_factory.hpp:77] Creating layer conv3a
I1115 21:20:11.909142  6025 net.cpp:86] Creating Layer conv3a
I1115 21:20:11.909144  6025 net.cpp:408] conv3a <- pool2
I1115 21:20:11.909150  6025 net.cpp:382] conv3a -> conv3a
I1115 21:20:11.909302  6025 net.cpp:124] Setting up conv3a
I1115 21:20:11.909309  6025 net.cpp:131] Top shape: 1 192 32 32 (196608)
I1115 21:20:11.909312  6025 net.cpp:139] Memory required for data: 29556736
I1115 21:20:11.909317  6025 layer_factory.hpp:77] Creating layer slice3a
I1115 21:20:11.909322  6025 net.cpp:86] Creating Layer slice3a
I1115 21:20:11.909323  6025 net.cpp:408] slice3a <- conv3a
I1115 21:20:11.909327  6025 net.cpp:382] slice3a -> slice3a_1
I1115 21:20:11.909337  6025 net.cpp:382] slice3a -> slice3a_2
I1115 21:20:11.909343  6025 net.cpp:124] Setting up slice3a
I1115 21:20:11.909346  6025 net.cpp:131] Top shape: 1 96 32 32 (98304)
I1115 21:20:11.909350  6025 net.cpp:131] Top shape: 1 96 32 32 (98304)
I1115 21:20:11.909353  6025 net.cpp:139] Memory required for data: 30343168
I1115 21:20:11.909354  6025 layer_factory.hpp:77] Creating layer etlwise3a
I1115 21:20:11.909360  6025 net.cpp:86] Creating Layer etlwise3a
I1115 21:20:11.909363  6025 net.cpp:408] etlwise3a <- slice3a_1
I1115 21:20:11.909366  6025 net.cpp:408] etlwise3a <- slice3a_2
I1115 21:20:11.909370  6025 net.cpp:382] etlwise3a -> eltwise3a
I1115 21:20:11.909375  6025 net.cpp:124] Setting up etlwise3a
I1115 21:20:11.909379  6025 net.cpp:131] Top shape: 1 96 32 32 (98304)
I1115 21:20:11.909381  6025 net.cpp:139] Memory required for data: 30736384
I1115 21:20:11.909384  6025 layer_factory.hpp:77] Creating layer conv3
I1115 21:20:11.909391  6025 net.cpp:86] Creating Layer conv3
I1115 21:20:11.909394  6025 net.cpp:408] conv3 <- eltwise3a
I1115 21:20:11.909400  6025 net.cpp:382] conv3 -> conv3
I1115 21:20:11.911844  6025 net.cpp:124] Setting up conv3
I1115 21:20:11.911854  6025 net.cpp:131] Top shape: 1 384 32 32 (393216)
I1115 21:20:11.911856  6025 net.cpp:139] Memory required for data: 32309248
I1115 21:20:11.911864  6025 layer_factory.hpp:77] Creating layer slice3
I1115 21:20:11.911873  6025 net.cpp:86] Creating Layer slice3
I1115 21:20:11.911876  6025 net.cpp:408] slice3 <- conv3
I1115 21:20:11.911880  6025 net.cpp:382] slice3 -> slice3_1
I1115 21:20:11.911886  6025 net.cpp:382] slice3 -> slice3_2
I1115 21:20:11.911891  6025 net.cpp:124] Setting up slice3
I1115 21:20:11.911895  6025 net.cpp:131] Top shape: 1 192 32 32 (196608)
I1115 21:20:11.911900  6025 net.cpp:131] Top shape: 1 192 32 32 (196608)
I1115 21:20:11.911901  6025 net.cpp:139] Memory required for data: 33882112
I1115 21:20:11.911903  6025 layer_factory.hpp:77] Creating layer etlwise3
I1115 21:20:11.911907  6025 net.cpp:86] Creating Layer etlwise3
I1115 21:20:11.911909  6025 net.cpp:408] etlwise3 <- slice3_1
I1115 21:20:11.911912  6025 net.cpp:408] etlwise3 <- slice3_2
I1115 21:20:11.911918  6025 net.cpp:382] etlwise3 -> eltwise3
I1115 21:20:11.911923  6025 net.cpp:124] Setting up etlwise3
I1115 21:20:11.911927  6025 net.cpp:131] Top shape: 1 192 32 32 (196608)
I1115 21:20:11.911929  6025 net.cpp:139] Memory required for data: 34668544
I1115 21:20:11.911931  6025 layer_factory.hpp:77] Creating layer pool3
I1115 21:20:11.911937  6025 net.cpp:86] Creating Layer pool3
I1115 21:20:11.911939  6025 net.cpp:408] pool3 <- eltwise3
I1115 21:20:11.911943  6025 net.cpp:382] pool3 -> pool3
I1115 21:20:11.911948  6025 net.cpp:124] Setting up pool3
I1115 21:20:11.911952  6025 net.cpp:131] Top shape: 1 192 16 16 (49152)
I1115 21:20:11.911954  6025 net.cpp:139] Memory required for data: 34865152
I1115 21:20:11.911957  6025 layer_factory.hpp:77] Creating layer conv4a
I1115 21:20:11.911964  6025 net.cpp:86] Creating Layer conv4a
I1115 21:20:11.911967  6025 net.cpp:408] conv4a <- pool3
I1115 21:20:11.911972  6025 net.cpp:382] conv4a -> conv4a
I1115 21:20:11.912531  6025 net.cpp:124] Setting up conv4a
I1115 21:20:11.912539  6025 net.cpp:131] Top shape: 1 384 16 16 (98304)
I1115 21:20:11.912542  6025 net.cpp:139] Memory required for data: 35258368
I1115 21:20:11.912546  6025 layer_factory.hpp:77] Creating layer slice4a
I1115 21:20:11.912554  6025 net.cpp:86] Creating Layer slice4a
I1115 21:20:11.912555  6025 net.cpp:408] slice4a <- conv4a
I1115 21:20:11.912559  6025 net.cpp:382] slice4a -> slice4a_1
I1115 21:20:11.912564  6025 net.cpp:382] slice4a -> slice4a_2
I1115 21:20:11.912569  6025 net.cpp:124] Setting up slice4a
I1115 21:20:11.912573  6025 net.cpp:131] Top shape: 1 192 16 16 (49152)
I1115 21:20:11.912576  6025 net.cpp:131] Top shape: 1 192 16 16 (49152)
I1115 21:20:11.912580  6025 net.cpp:139] Memory required for data: 35651584
I1115 21:20:11.912581  6025 layer_factory.hpp:77] Creating layer etlwise4a
I1115 21:20:11.912585  6025 net.cpp:86] Creating Layer etlwise4a
I1115 21:20:11.912587  6025 net.cpp:408] etlwise4a <- slice4a_1
I1115 21:20:11.912590  6025 net.cpp:408] etlwise4a <- slice4a_2
I1115 21:20:11.912596  6025 net.cpp:382] etlwise4a -> eltwise4a
I1115 21:20:11.912601  6025 net.cpp:124] Setting up etlwise4a
I1115 21:20:11.912606  6025 net.cpp:131] Top shape: 1 192 16 16 (49152)
I1115 21:20:11.912607  6025 net.cpp:139] Memory required for data: 35848192
I1115 21:20:11.912609  6025 layer_factory.hpp:77] Creating layer conv4
I1115 21:20:11.912616  6025 net.cpp:86] Creating Layer conv4
I1115 21:20:11.912619  6025 net.cpp:408] conv4 <- eltwise4a
I1115 21:20:11.912626  6025 net.cpp:382] conv4 -> conv4
I1115 21:20:11.915866  6025 net.cpp:124] Setting up conv4
I1115 21:20:11.915875  6025 net.cpp:131] Top shape: 1 256 16 16 (65536)
I1115 21:20:11.915877  6025 net.cpp:139] Memory required for data: 36110336
I1115 21:20:11.915882  6025 layer_factory.hpp:77] Creating layer slice4
I1115 21:20:11.915886  6025 net.cpp:86] Creating Layer slice4
I1115 21:20:11.915889  6025 net.cpp:408] slice4 <- conv4
I1115 21:20:11.915894  6025 net.cpp:382] slice4 -> slice4_1
I1115 21:20:11.915899  6025 net.cpp:382] slice4 -> slice4_2
I1115 21:20:11.915904  6025 net.cpp:124] Setting up slice4
I1115 21:20:11.915908  6025 net.cpp:131] Top shape: 1 128 16 16 (32768)
I1115 21:20:11.915911  6025 net.cpp:131] Top shape: 1 128 16 16 (32768)
I1115 21:20:11.915913  6025 net.cpp:139] Memory required for data: 36372480
I1115 21:20:11.915915  6025 layer_factory.hpp:77] Creating layer etlwise4
I1115 21:20:11.915922  6025 net.cpp:86] Creating Layer etlwise4
I1115 21:20:11.915925  6025 net.cpp:408] etlwise4 <- slice4_1
I1115 21:20:11.915928  6025 net.cpp:408] etlwise4 <- slice4_2
I1115 21:20:11.915932  6025 net.cpp:382] etlwise4 -> eltwise4
I1115 21:20:11.915937  6025 net.cpp:124] Setting up etlwise4
I1115 21:20:11.915940  6025 net.cpp:131] Top shape: 1 128 16 16 (32768)
I1115 21:20:11.915943  6025 net.cpp:139] Memory required for data: 36503552
I1115 21:20:11.915946  6025 layer_factory.hpp:77] Creating layer conv5a
I1115 21:20:11.915953  6025 net.cpp:86] Creating Layer conv5a
I1115 21:20:11.915956  6025 net.cpp:408] conv5a <- eltwise4
I1115 21:20:11.915961  6025 net.cpp:382] conv5a -> conv5a
I1115 21:20:11.916224  6025 net.cpp:124] Setting up conv5a
I1115 21:20:11.916230  6025 net.cpp:131] Top shape: 1 256 16 16 (65536)
I1115 21:20:11.916232  6025 net.cpp:139] Memory required for data: 36765696
I1115 21:20:11.916237  6025 layer_factory.hpp:77] Creating layer slice5a
I1115 21:20:11.916244  6025 net.cpp:86] Creating Layer slice5a
I1115 21:20:11.916246  6025 net.cpp:408] slice5a <- conv5a
I1115 21:20:11.916250  6025 net.cpp:382] slice5a -> slice5a_1
I1115 21:20:11.916254  6025 net.cpp:382] slice5a -> slice5a_2
I1115 21:20:11.916260  6025 net.cpp:124] Setting up slice5a
I1115 21:20:11.916263  6025 net.cpp:131] Top shape: 1 128 16 16 (32768)
I1115 21:20:11.916266  6025 net.cpp:131] Top shape: 1 128 16 16 (32768)
I1115 21:20:11.916270  6025 net.cpp:139] Memory required for data: 37027840
I1115 21:20:11.916271  6025 layer_factory.hpp:77] Creating layer etlwise5a
I1115 21:20:11.916275  6025 net.cpp:86] Creating Layer etlwise5a
I1115 21:20:11.916277  6025 net.cpp:408] etlwise5a <- slice5a_1
I1115 21:20:11.916280  6025 net.cpp:408] etlwise5a <- slice5a_2
I1115 21:20:11.916285  6025 net.cpp:382] etlwise5a -> eltwise5a
I1115 21:20:11.916290  6025 net.cpp:124] Setting up etlwise5a
I1115 21:20:11.916294  6025 net.cpp:131] Top shape: 1 128 16 16 (32768)
I1115 21:20:11.916296  6025 net.cpp:139] Memory required for data: 37158912
I1115 21:20:11.916299  6025 layer_factory.hpp:77] Creating layer conv5
I1115 21:20:11.916304  6025 net.cpp:86] Creating Layer conv5
I1115 21:20:11.916307  6025 net.cpp:408] conv5 <- eltwise5a
I1115 21:20:11.916312  6025 net.cpp:382] conv5 -> conv5
I1115 21:20:11.918490  6025 net.cpp:124] Setting up conv5
I1115 21:20:11.918499  6025 net.cpp:131] Top shape: 1 256 16 16 (65536)
I1115 21:20:11.918503  6025 net.cpp:139] Memory required for data: 37421056
I1115 21:20:11.918511  6025 layer_factory.hpp:77] Creating layer slice5
I1115 21:20:11.918516  6025 net.cpp:86] Creating Layer slice5
I1115 21:20:11.918519  6025 net.cpp:408] slice5 <- conv5
I1115 21:20:11.918525  6025 net.cpp:382] slice5 -> slice5_1
I1115 21:20:11.918530  6025 net.cpp:382] slice5 -> slice5_2
I1115 21:20:11.918536  6025 net.cpp:124] Setting up slice5
I1115 21:20:11.918540  6025 net.cpp:131] Top shape: 1 128 16 16 (32768)
I1115 21:20:11.918543  6025 net.cpp:131] Top shape: 1 128 16 16 (32768)
I1115 21:20:11.918546  6025 net.cpp:139] Memory required for data: 37683200
I1115 21:20:11.918548  6025 layer_factory.hpp:77] Creating layer etlwise5
I1115 21:20:11.918552  6025 net.cpp:86] Creating Layer etlwise5
I1115 21:20:11.918555  6025 net.cpp:408] etlwise5 <- slice5_1
I1115 21:20:11.918557  6025 net.cpp:408] etlwise5 <- slice5_2
I1115 21:20:11.918561  6025 net.cpp:382] etlwise5 -> eltwise5
I1115 21:20:11.918566  6025 net.cpp:124] Setting up etlwise5
I1115 21:20:11.918570  6025 net.cpp:131] Top shape: 1 128 16 16 (32768)
I1115 21:20:11.918572  6025 net.cpp:139] Memory required for data: 37814272
I1115 21:20:11.918575  6025 layer_factory.hpp:77] Creating layer pool4
I1115 21:20:11.918579  6025 net.cpp:86] Creating Layer pool4
I1115 21:20:11.918581  6025 net.cpp:408] pool4 <- eltwise5
I1115 21:20:11.918587  6025 net.cpp:382] pool4 -> pool4
I1115 21:20:11.918593  6025 net.cpp:124] Setting up pool4
I1115 21:20:11.918597  6025 net.cpp:131] Top shape: 1 128 8 8 (8192)
I1115 21:20:11.918599  6025 net.cpp:139] Memory required for data: 37847040
I1115 21:20:11.918601  6025 layer_factory.hpp:77] Creating layer fc1
I1115 21:20:11.918612  6025 net.cpp:86] Creating Layer fc1
I1115 21:20:11.918615  6025 net.cpp:408] fc1 <- pool4
I1115 21:20:11.918619  6025 net.cpp:382] fc1 -> fc1
I1115 21:20:11.965965  6025 net.cpp:124] Setting up fc1
I1115 21:20:11.965998  6025 net.cpp:131] Top shape: 1 512 (512)
I1115 21:20:11.966001  6025 net.cpp:139] Memory required for data: 37849088
I1115 21:20:11.966013  6025 layer_factory.hpp:77] Creating layer slice_fc1
I1115 21:20:11.966027  6025 net.cpp:86] Creating Layer slice_fc1
I1115 21:20:11.966032  6025 net.cpp:408] slice_fc1 <- fc1
I1115 21:20:11.966040  6025 net.cpp:382] slice_fc1 -> slice_fc1_1
I1115 21:20:11.966051  6025 net.cpp:382] slice_fc1 -> slice_fc1_2
I1115 21:20:11.966059  6025 net.cpp:124] Setting up slice_fc1
I1115 21:20:11.966063  6025 net.cpp:131] Top shape: 1 256 (256)
I1115 21:20:11.966065  6025 net.cpp:131] Top shape: 1 256 (256)
I1115 21:20:11.966068  6025 net.cpp:139] Memory required for data: 37851136
I1115 21:20:11.966070  6025 layer_factory.hpp:77] Creating layer etlwise_fc1
I1115 21:20:11.966076  6025 net.cpp:86] Creating Layer etlwise_fc1
I1115 21:20:11.966079  6025 net.cpp:408] etlwise_fc1 <- slice_fc1_1
I1115 21:20:11.966083  6025 net.cpp:408] etlwise_fc1 <- slice_fc1_2
I1115 21:20:11.966101  6025 net.cpp:382] etlwise_fc1 -> eltwise_fc1
I1115 21:20:11.966120  6025 net.cpp:124] Setting up etlwise_fc1
I1115 21:20:11.966123  6025 net.cpp:131] Top shape: 1 256 (256)
I1115 21:20:11.966126  6025 net.cpp:139] Memory required for data: 37852160
I1115 21:20:11.966128  6025 layer_factory.hpp:77] Creating layer drop1
I1115 21:20:11.966135  6025 net.cpp:86] Creating Layer drop1
I1115 21:20:11.966137  6025 net.cpp:408] drop1 <- eltwise_fc1
I1115 21:20:11.966141  6025 net.cpp:369] drop1 -> eltwise_fc1 (in-place)
I1115 21:20:11.966154  6025 net.cpp:124] Setting up drop1
I1115 21:20:11.966157  6025 net.cpp:131] Top shape: 1 256 (256)
I1115 21:20:11.966159  6025 net.cpp:139] Memory required for data: 37853184
I1115 21:20:11.966162  6025 layer_factory.hpp:77] Creating layer fc2
I1115 21:20:11.966168  6025 net.cpp:86] Creating Layer fc2
I1115 21:20:11.966171  6025 net.cpp:408] fc2 <- eltwise_fc1
I1115 21:20:11.966177  6025 net.cpp:382] fc2 -> fc2
I1115 21:20:11.985674  6025 net.cpp:124] Setting up fc2
I1115 21:20:11.985703  6025 net.cpp:131] Top shape: 1 10575 (10575)
I1115 21:20:11.985707  6025 net.cpp:139] Memory required for data: 37895484
I1115 21:20:11.985718  6025 layer_factory.hpp:77] Creating layer softmax
I1115 21:20:11.985729  6025 net.cpp:86] Creating Layer softmax
I1115 21:20:11.985733  6025 net.cpp:408] softmax <- fc2
I1115 21:20:11.985741  6025 net.cpp:382] softmax -> prob
I1115 21:20:11.985776  6025 net.cpp:124] Setting up softmax
I1115 21:20:11.985780  6025 net.cpp:131] Top shape: 1 10575 (10575)
I1115 21:20:11.985782  6025 net.cpp:139] Memory required for data: 37937784
I1115 21:20:11.985785  6025 net.cpp:202] softmax does not need backward computation.
I1115 21:20:11.985788  6025 net.cpp:202] fc2 does not need backward computation.
I1115 21:20:11.985791  6025 net.cpp:202] drop1 does not need backward computation.
I1115 21:20:11.985795  6025 net.cpp:202] etlwise_fc1 does not need backward computation.
…
