…
I1104 20:45:21.714741  2806 upgrade_proto.cpp:80] Successfully upgraded batch norm layers using deprecated params.
I1104 20:45:21.715159  2806 net.cpp:51] Initializing net from parameters: 
name: "SpherefaceNet-20"
state {
  phase: TRAIN
  level: 0
  stage: ""
}
layer {
  name: "data"
  type: "ImageData"
  top: "data"
  top: "label"
  transform_param {
    scale: 0.0078125
    mirror: true
    mean_value: 127.5
    mean_value: 127.5
    mean_value: 127.5
  }
  image_data_param {
    source: "/media/scs4450/hard/luyi/util/sphereface/train/data/CASIA-WebFace-112X96.txt"
    batch_size: 128
    shuffle: true
  }
}
layer {
  name: "conv1_1"
  type: "Convolution"
  bottom: "data"
  top: "conv1_1"
  param {
    lr_mult: 1
    decay_mult: 1
  }
  param {
    lr_mult: 2
    decay_mult: 0
  }
  convolution_param {
    num_output: 32
    pad: 1
    kernel_size: 3
    stride: 2
    weight_filler {
      type: "xavier"
    }
    bias_filler {
      type: "constant"
      value: 0
    }
  }
}
layer {
  name: "conv1_1/bn"
  type: "BatchNorm"
  bottom: "conv1_1"
  top: "conv1_1"
  param {
    lr_mult: 0
    decay_mult: 0
  }
  param {
    lr_mult: 0
    decay_mult: 0
  }
  param {
    lr_mult: 0
    decay_mult: 0
  }
  batch_norm_param {
    use_global_stats: false
  }
}
layer {
  name: "conv1_1/scale"
  type: "Scale"
  bottom: "conv1_1"
  top: "conv1_1"
  param {
    lr_mult: 1
    decay_mult: 0
  }
  param {
    lr_mult: 2
    decay_mult: 0
  }
  scale_param {
    bias_term: true
  }
}
layer {
  name: "relu1_1"
  type: "PReLU"
  bottom: "conv1_1"
  top: "conv1_1"
}
layer {
  name: "conv2_1"
  type: "Convolution"
  bottom: "conv1_1"
  top: "conv2_1"
  param {
    lr_mult: 1
    decay_mult: 1
  }
  param {
    lr_mult: 2
    decay_mult: 0
  }
  convolution_param {
    num_output: 64
    pad: 1
    kernel_size: 3
    stride: 2
    weight_filler {
      type: "xavier"
    }
    bias_filler {
      type: "constant"
      value: 0
    }
  }
}
layer {
  name: "conv2_1/bn"
  type: "BatchNorm"
  bottom: "conv2_1"
  top: "conv2_1"
  param {
    lr_mult: 0
    decay_mult: 0
  }
  param {
    lr_mult: 0
    decay_mult: 0
  }
  param {
    lr_mult: 0
    decay_mult: 0
  }
  batch_norm_param {
    use_global_stats: false
  }
}
layer {
  name: "conv2_1/scale"
  type: "Scale"
  bottom: "conv2_1"
  top: "conv2_1"
  param {
    lr_mult: 1
    decay_mult: 0
  }
  param {
    lr_mult: 2
    decay_mult: 0
  }
  scale_param {
    bias_term: true
  }
}
layer {
  name: "relu2_1"
  type: "PReLU"
  bottom: "conv2_1"
  top: "conv2_1"
}
layer {
  name: "conv3_1"
  type: "Convolution"
  bottom: "conv2_1"
  top: "conv3_1"
  param {
    lr_mult: 1
    decay_mult: 1
  }
  param {
    lr_mult: 2
    decay_mult: 0
  }
  convolution_param {
    num_output: 128
    pad: 1
    kernel_size: 3
    stride: 2
    weight_filler {
      type: "xavier"
    }
    bias_filler {
      type: "constant"
      value: 0
    }
  }
}
layer {
  name: "conv3_1/bn"
  type: "BatchNorm"
  bottom: "conv3_1"
  top: "conv3_1"
  param {
    lr_mult: 0
    decay_mult: 0
  }
  param {
    lr_mult: 0
    decay_mult: 0
  }
  param {
    lr_mult: 0
    decay_mult: 0
  }
  batch_norm_param {
    use_global_stats: false
  }
}
layer {
  name: "conv3_1/scale"
  type: "Scale"
  bottom: "conv3_1"
  top: "conv3_1"
  param {
    lr_mult: 1
    decay_mult: 0
  }
  param {
    lr_mult: 2
    decay_mult: 0
  }
  scale_param {
    bias_term: true
  }
}
layer {
  name: "relu3_1"
  type: "PReLU"
  bottom: "conv3_1"
  top: "conv3_1"
}
layer {
  name: "conv4_1"
  type: "Convolution"
  bottom: "conv3_1"
  top: "conv4_1"
  param {
    lr_mult: 1
    decay_mult: 1
  }
  param {
    lr_mult: 2
    decay_mult: 0
  }
  convolution_param {
    num_output: 256
    pad: 1
    kernel_size: 3
    stride: 2
    weight_filler {
      type: "xavier"
    }
    bias_filler {
      type: "constant"
      value: 0
    }
  }
}
layer {
  name: "conv4_1/bn"
  type: "BatchNorm"
  bottom: "conv4_1"
  top: "conv4_1"
  param {
    lr_mult: 0
    decay_mult: 0
  }
  param {
    lr_mult: 0
    decay_mult: 0
  }
  param {
    lr_mult: 0
    decay_mult: 0
  }
  batch_norm_param {
    use_global_stats: false
  }
}
layer {
  name: "conv4_1/scale"
  type: "Scale"
  bottom: "conv4_1"
  top: "conv4_1"
  param {
    lr_mult: 1
    decay_mult: 0
  }
  param {
    lr_mult: 2
    decay_mult: 0
  }
  scale_param {
    bias_term: true
  }
}
layer {
  name: "relu4_1"
  type: "PReLU"
  bottom: "conv4_1"
  top: "conv4_1"
}
layer {
  name: "fc5/sphere"
  type: "InnerProduct"
  bottom: "conv4_1"
  top: "fc5/sphere"
  param {
    lr_mult: 1
    decay_mult: 1
  }
  param {
    lr_mult: 2
    decay_mult: 0
  }
  inner_product_param {
    num_output: 256
    weight_filler {
      type: "xavier"
    }
    bias_filler {
      type: "constant"
      value: 0
    }
  }
}
layer {
  name: "fc6/sphere"
  type: "MarginInnerProduct"
  bottom: "fc5/sphere"
  bottom: "label"
  top: "fc6/sphere"
  top: "lambda"
  param {
    lr_mult: 1
    decay_mult: 1
  }
  margin_inner_product_param {
    num_output: 10572
    type: QUADRUPLE
    weight_filler {
      type: "xavier"
    }
    base: 1000
    gamma: 0.12
    power: 1
    iteration: 0
    lambda_min: 5
  }
}
layer {
  name: "softmax_loss"
  type: "SoftmaxWithLoss"
  bottom: "fc6/sphere"
  bottom: "label"
  top: "softmax_loss"
}
I1104 20:45:21.715448  2806 layer_factory.hpp:77] Creating layer data
I1104 20:45:21.715559  2806 net.cpp:84] Creating Layer data
I1104 20:45:21.715574  2806 net.cpp:380] data -> data
I1104 20:45:21.715626  2806 net.cpp:380] data -> label
I1104 20:45:21.715756  2806 image_data_layer.cpp:38] Opening file /media/scs4450/hard/luyi/util/sphereface/train/data/CASIA-WebFace-112X96.txt
I1104 20:45:22.176244  2806 image_data_layer.cpp:53] Shuffling data
I1104 20:45:22.319741  2806 image_data_layer.cpp:63] A total of 490606 images.
I1104 20:45:22.392516  2806 image_data_layer.cpp:90] output data size: 128,3,112,96
I1104 20:45:22.458071  2806 net.cpp:122] Setting up data
I1104 20:45:22.458124  2806 net.cpp:129] Top shape: 128 3 112 96 (4128768)
I1104 20:45:22.458132  2806 net.cpp:129] Top shape: 128 (128)
I1104 20:45:22.458138  2806 net.cpp:137] Memory required for data: 16515584
I1104 20:45:22.458197  2806 layer_factory.hpp:77] Creating layer label_data_1_split
I1104 20:45:22.458268  2806 net.cpp:84] Creating Layer label_data_1_split
I1104 20:45:22.458282  2806 net.cpp:406] label_data_1_split <- label
I1104 20:45:22.458307  2806 net.cpp:380] label_data_1_split -> label_data_1_split_0
I1104 20:45:22.458329  2806 net.cpp:380] label_data_1_split -> label_data_1_split_1
I1104 20:45:22.458513  2806 net.cpp:122] Setting up label_data_1_split
I1104 20:45:22.458525  2806 net.cpp:129] Top shape: 128 (128)
I1104 20:45:22.458530  2806 net.cpp:129] Top shape: 128 (128)
I1104 20:45:22.458534  2806 net.cpp:137] Memory required for data: 16516608
I1104 20:45:22.458541  2806 layer_factory.hpp:77] Creating layer conv1_1
I1104 20:45:22.458606  2806 net.cpp:84] Creating Layer conv1_1
I1104 20:45:22.458614  2806 net.cpp:406] conv1_1 <- data
I1104 20:45:22.458626  2806 net.cpp:380] conv1_1 -> conv1_1
I1104 20:45:22.887881  2806 net.cpp:122] Setting up conv1_1
I1104 20:45:22.887926  2806 net.cpp:129] Top shape: 128 32 56 48 (11010048)
I1104 20:45:22.887933  2806 net.cpp:137] Memory required for data: 60556800
I1104 20:45:22.888017  2806 layer_factory.hpp:77] Creating layer conv1_1/bn
I1104 20:45:22.888049  2806 net.cpp:84] Creating Layer conv1_1/bn
I1104 20:45:22.888059  2806 net.cpp:406] conv1_1/bn <- conv1_1
I1104 20:45:22.888069  2806 net.cpp:367] conv1_1/bn -> conv1_1 (in-place)
I1104 20:45:22.888396  2806 net.cpp:122] Setting up conv1_1/bn
I1104 20:45:22.888412  2806 net.cpp:129] Top shape: 128 32 56 48 (11010048)
I1104 20:45:22.888417  2806 net.cpp:137] Memory required for data: 104596992
I1104 20:45:22.888433  2806 layer_factory.hpp:77] Creating layer conv1_1/scale
I1104 20:45:22.888451  2806 net.cpp:84] Creating Layer conv1_1/scale
I1104 20:45:22.888458  2806 net.cpp:406] conv1_1/scale <- conv1_1
I1104 20:45:22.888464  2806 net.cpp:367] conv1_1/scale -> conv1_1 (in-place)
I1104 20:45:22.888535  2806 layer_factory.hpp:77] Creating layer conv1_1/scale
I1104 20:45:22.888705  2806 net.cpp:122] Setting up conv1_1/scale
I1104 20:45:22.888718  2806 net.cpp:129] Top shape: 128 32 56 48 (11010048)
I1104 20:45:22.888723  2806 net.cpp:137] Memory required for data: 148637184
I1104 20:45:22.888732  2806 layer_factory.hpp:77] Creating layer relu1_1
I1104 20:45:22.888743  2806 net.cpp:84] Creating Layer relu1_1
I1104 20:45:22.888748  2806 net.cpp:406] relu1_1 <- conv1_1
I1104 20:45:22.888754  2806 net.cpp:367] relu1_1 -> conv1_1 (in-place)
I1104 20:45:22.889925  2806 net.cpp:122] Setting up relu1_1
I1104 20:45:22.889950  2806 net.cpp:129] Top shape: 128 32 56 48 (11010048)
I1104 20:45:22.889955  2806 net.cpp:137] Memory required for data: 192677376
I1104 20:45:22.889981  2806 layer_factory.hpp:77] Creating layer conv2_1
I1104 20:45:22.890000  2806 net.cpp:84] Creating Layer conv2_1
I1104 20:45:22.890007  2806 net.cpp:406] conv2_1 <- conv1_1
I1104 20:45:22.890015  2806 net.cpp:380] conv2_1 -> conv2_1
I1104 20:45:22.893275  2806 net.cpp:122] Setting up conv2_1
I1104 20:45:22.893311  2806 net.cpp:129] Top shape: 128 64 28 24 (5505024)
I1104 20:45:22.893317  2806 net.cpp:137] Memory required for data: 214697472
I1104 20:45:22.893338  2806 layer_factory.hpp:77] Creating layer conv2_1/bn
I1104 20:45:22.893354  2806 net.cpp:84] Creating Layer conv2_1/bn
I1104 20:45:22.893362  2806 net.cpp:406] conv2_1/bn <- conv2_1
I1104 20:45:22.893371  2806 net.cpp:367] conv2_1/bn -> conv2_1 (in-place)
I1104 20:45:22.893697  2806 net.cpp:122] Setting up conv2_1/bn
I1104 20:45:22.893710  2806 net.cpp:129] Top shape: 128 64 28 24 (5505024)
I1104 20:45:22.893715  2806 net.cpp:137] Memory required for data: 236717568
I1104 20:45:22.893725  2806 layer_factory.hpp:77] Creating layer conv2_1/scale
I1104 20:45:22.893738  2806 net.cpp:84] Creating Layer conv2_1/scale
I1104 20:45:22.893746  2806 net.cpp:406] conv2_1/scale <- conv2_1
I1104 20:45:22.893754  2806 net.cpp:367] conv2_1/scale -> conv2_1 (in-place)
I1104 20:45:22.893805  2806 layer_factory.hpp:77] Creating layer conv2_1/scale
I1104 20:45:22.893972  2806 net.cpp:122] Setting up conv2_1/scale
I1104 20:45:22.893985  2806 net.cpp:129] Top shape: 128 64 28 24 (5505024)
I1104 20:45:22.893990  2806 net.cpp:137] Memory required for data: 258737664
I1104 20:45:22.893997  2806 layer_factory.hpp:77] Creating layer relu2_1
I1104 20:45:22.894023  2806 net.cpp:84] Creating Layer relu2_1
I1104 20:45:22.894028  2806 net.cpp:406] relu2_1 <- conv2_1
I1104 20:45:22.894035  2806 net.cpp:367] relu2_1 -> conv2_1 (in-place)
I1104 20:45:22.894196  2806 net.cpp:122] Setting up relu2_1
I1104 20:45:22.894210  2806 net.cpp:129] Top shape: 128 64 28 24 (5505024)
I1104 20:45:22.894214  2806 net.cpp:137] Memory required for data: 280757760
I1104 20:45:22.894222  2806 layer_factory.hpp:77] Creating layer conv3_1
I1104 20:45:22.894233  2806 net.cpp:84] Creating Layer conv3_1
I1104 20:45:22.894240  2806 net.cpp:406] conv3_1 <- conv2_1
I1104 20:45:22.894248  2806 net.cpp:380] conv3_1 -> conv3_1
I1104 20:45:22.896710  2806 net.cpp:122] Setting up conv3_1
I1104 20:45:22.896735  2806 net.cpp:129] Top shape: 128 128 14 12 (2752512)
I1104 20:45:22.896741  2806 net.cpp:137] Memory required for data: 291767808
I1104 20:45:22.896759  2806 layer_factory.hpp:77] Creating layer conv3_1/bn
I1104 20:45:22.896793  2806 net.cpp:84] Creating Layer conv3_1/bn
I1104 20:45:22.896800  2806 net.cpp:406] conv3_1/bn <- conv3_1
I1104 20:45:22.896808  2806 net.cpp:367] conv3_1/bn -> conv3_1 (in-place)
I1104 20:45:22.897099  2806 net.cpp:122] Setting up conv3_1/bn
I1104 20:45:22.897114  2806 net.cpp:129] Top shape: 128 128 14 12 (2752512)
I1104 20:45:22.897117  2806 net.cpp:137] Memory required for data: 302777856
I1104 20:45:22.897127  2806 layer_factory.hpp:77] Creating layer conv3_1/scale
I1104 20:45:22.897152  2806 net.cpp:84] Creating Layer conv3_1/scale
I1104 20:45:22.897158  2806 net.cpp:406] conv3_1/scale <- conv3_1
I1104 20:45:22.897164  2806 net.cpp:367] conv3_1/scale -> conv3_1 (in-place)
I1104 20:45:22.897220  2806 layer_factory.hpp:77] Creating layer conv3_1/scale
I1104 20:45:22.897383  2806 net.cpp:122] Setting up conv3_1/scale
I1104 20:45:22.897397  2806 net.cpp:129] Top shape: 128 128 14 12 (2752512)
I1104 20:45:22.897400  2806 net.cpp:137] Memory required for data: 313787904
I1104 20:45:22.897408  2806 layer_factory.hpp:77] Creating layer relu3_1
I1104 20:45:22.897418  2806 net.cpp:84] Creating Layer relu3_1
I1104 20:45:22.897423  2806 net.cpp:406] relu3_1 <- conv3_1
I1104 20:45:22.897429  2806 net.cpp:367] relu3_1 -> conv3_1 (in-place)
I1104 20:45:22.897567  2806 net.cpp:122] Setting up relu3_1
I1104 20:45:22.897580  2806 net.cpp:129] Top shape: 128 128 14 12 (2752512)
I1104 20:45:22.897584  2806 net.cpp:137] Memory required for data: 324797952
I1104 20:45:22.897590  2806 layer_factory.hpp:77] Creating layer conv4_1
I1104 20:45:22.897604  2806 net.cpp:84] Creating Layer conv4_1
I1104 20:45:22.897611  2806 net.cpp:406] conv4_1 <- conv3_1
I1104 20:45:22.897619  2806 net.cpp:380] conv4_1 -> conv4_1
I1104 20:45:22.903142  2806 net.cpp:122] Setting up conv4_1
I1104 20:45:22.903168  2806 net.cpp:129] Top shape: 128 256 7 6 (1376256)
I1104 20:45:22.903174  2806 net.cpp:137] Memory required for data: 330302976
I1104 20:45:22.903195  2806 layer_factory.hpp:77] Creating layer conv4_1/bn
I1104 20:45:22.903209  2806 net.cpp:84] Creating Layer conv4_1/bn
I1104 20:45:22.903214  2806 net.cpp:406] conv4_1/bn <- conv4_1
I1104 20:45:22.903224  2806 net.cpp:367] conv4_1/bn -> conv4_1 (in-place)
I1104 20:45:22.903506  2806 net.cpp:122] Setting up conv4_1/bn
I1104 20:45:22.903519  2806 net.cpp:129] Top shape: 128 256 7 6 (1376256)
I1104 20:45:22.903523  2806 net.cpp:137] Memory required for data: 335808000
I1104 20:45:22.903544  2806 layer_factory.hpp:77] Creating layer conv4_1/scale
I1104 20:45:22.903560  2806 net.cpp:84] Creating Layer conv4_1/scale
I1104 20:45:22.903565  2806 net.cpp:406] conv4_1/scale <- conv4_1
I1104 20:45:22.903573  2806 net.cpp:367] conv4_1/scale -> conv4_1 (in-place)
I1104 20:45:22.903630  2806 layer_factory.hpp:77] Creating layer conv4_1/scale
I1104 20:45:22.903796  2806 net.cpp:122] Setting up conv4_1/scale
I1104 20:45:22.903808  2806 net.cpp:129] Top shape: 128 256 7 6 (1376256)
I1104 20:45:22.903812  2806 net.cpp:137] Memory required for data: 341313024
I1104 20:45:22.903820  2806 layer_factory.hpp:77] Creating layer relu4_1
I1104 20:45:22.903831  2806 net.cpp:84] Creating Layer relu4_1
I1104 20:45:22.903836  2806 net.cpp:406] relu4_1 <- conv4_1
I1104 20:45:22.903842  2806 net.cpp:367] relu4_1 -> conv4_1 (in-place)
I1104 20:45:22.904903  2806 net.cpp:122] Setting up relu4_1
I1104 20:45:22.904927  2806 net.cpp:129] Top shape: 128 256 7 6 (1376256)
I1104 20:45:22.904930  2806 net.cpp:137] Memory required for data: 346818048
I1104 20:45:22.904938  2806 layer_factory.hpp:77] Creating layer fc5/sphere
I1104 20:45:22.904955  2806 net.cpp:84] Creating Layer fc5/sphere
I1104 20:45:22.904961  2806 net.cpp:406] fc5/sphere <- conv4_1
I1104 20:45:22.904969  2806 net.cpp:380] fc5/sphere -> fc5/sphere
I1104 20:45:22.942114  2806 net.cpp:122] Setting up fc5/sphere
I1104 20:45:22.942163  2806 net.cpp:129] Top shape: 128 256 (32768)
I1104 20:45:22.942170  2806 net.cpp:137] Memory required for data: 346949120
I1104 20:45:22.942206  2806 layer_factory.hpp:77] Creating layer fc6/sphere
I1104 20:45:22.942263  2806 net.cpp:84] Creating Layer fc6/sphere
I1104 20:45:22.942276  2806 net.cpp:406] fc6/sphere <- fc5/sphere
I1104 20:45:22.942286  2806 net.cpp:406] fc6/sphere <- label_data_1_split_0
I1104 20:45:22.942306  2806 net.cpp:380] fc6/sphere -> fc6/sphere
I1104 20:45:22.942415  2806 net.cpp:380] fc6/sphere -> lambda
I1104 20:45:22.977865  2806 net.cpp:122] Setting up fc6/sphere
I1104 20:45:22.977895  2806 net.cpp:129] Top shape: 128 10572 (1353216)
I1104 20:45:22.977902  2806 net.cpp:129] Top shape: 1 (1)
I1104 20:45:22.977906  2806 net.cpp:137] Memory required for data: 352361988
I1104 20:45:22.977916  2806 layer_factory.hpp:77] Creating layer softmax_loss
I1104 20:45:22.977931  2806 net.cpp:84] Creating Layer softmax_loss
I1104 20:45:22.977937  2806 net.cpp:406] softmax_loss <- fc6/sphere
I1104 20:45:22.977946  2806 net.cpp:406] softmax_loss <- label_data_1_split_1
I1104 20:45:22.977952  2806 net.cpp:380] softmax_loss -> softmax_loss
…
