…
      sampler {
        min_scale: 0.3
        max_scale: 1
        min_aspect_ratio: 0.5
        max_aspect_ratio: 2
      }
      sample_constraint {
        min_jaccard_overlap: 0.9
      }
      max_sample: 1
      max_trials: 50
    }
    batch_sampler {
      sampler {
        min_scale: 0.3
        max_scale: 1
        min_aspect_ratio: 0.5
        max_aspect_ratio: 2
      }
      sample_constraint {
        max_jaccard_overlap: 1
      }
      max_sample: 1
      max_trials: 50
    }
    label_map_file: "data/umdfaces-384/labelmap_face.prototxt"
  }
}
layer {
  name: "conv1"
  type: "Convolution"
  bottom: "data"
  top: "conv1"
  param {
    lr_mult: 1
    decay_mult: 1
  }
  param {
    lr_mult: 2
    decay_mult: 0
  }
  convolution_param {
    num_output: 8
    pad: 0
    kernel_size: 3
    stride: 2
    weight_filler {
      type: "xavier"
    }
    bias_filler {
      type: "constant"
      value: 0
    }
  }
}
layer {
  name: "conv1/bn"
  type: "BatchNorm"
  bottom: "conv1"
  top: "conv1"
  batch_norm_param {
    use_global_stats: false
  }
}
layer {
  name: "conv1/scale"
  type: "Scale"
  bottom: "conv1"
  top: "conv1"
  param {
    lr_mult: 1
    decay_mult: 0
  }
  param {
    lr_mult: 2
    decay_mult: 0
  }
  scale_param {
    bias_term: true
  }
}
layer {
  name: "conv1/relu"
  type: "ReLU"
  bottom: "conv1"
  top: "conv1"
}
layer {
  name: "conv2-1"
  type: "Convolution"
  bottom: "conv1"
  top: "conv2-1"
  param {
    lr_mult: 1
    decay_mult: 1
  }
  param {
    lr_mult: 2
    decay_mult: 0
  }
  convolution_param {
    num_output: 16
    pad: 0
    kernel_size: 3
    stride: 2
    weight_filler {
      type: "xavier"
    }
    bias_filler {
      type: "constant"
      value: 0
    }
  }
}
layer {
  name: "conv2-1/bn"
  type: "BatchNorm"
  bottom: "conv2-1"
  top: "conv2-1"
  batch_norm_param {
    use_global_stats: false
  }
}
layer {
  name: "conv2-1/scale"
  type: "Scale"
  bottom: "conv2-1"
  top: "conv2-1"
  param {
    lr_mult: 1
    decay_mult: 0
  }
  param {
    lr_mult: 2
    decay_mult: 0
  }
  scale_param {
    bias_term: true
  }
}
layer {
  name: "conv2-1/relu"
  type: "ReLU"
  bottom: "conv2-1"
  top: "conv2-1"
}
layer {
  name: "conv2-2"
  type: "Convolution"
  bottom: "conv2-1"
  top: "conv2-2"
  param {
    lr_mult: 1
    decay_mult: 1
  }
  param {
    lr_mult: 2
    decay_mult: 0
  }
  convolution_param {
    num_output: 32
    pad: 0
    kernel_size: 3
    stride: 2
    weight_filler {
      type: "xavier"
    }
    bias_filler {
      type: "constant"
      value: 0
    }
  }
}
layer {
  name: "conv2-2/bn"
  type: "BatchNorm"
  bottom: "conv2-2"
  top: "conv2-2"
  batch_norm_param {
    use_global_stats: false
  }
}
layer {
  name: "conv2-2/scale"
  type: "Scale"
  bottom: "conv2-2"
  top: "conv2-2"
  param {
    lr_mult: 1
    decay_mult: 0
  }
  param {
    lr_mult: 2
    decay_mult: 0
  }
  scale_param {
    bias_term: true
  }
}
layer {
  name: "conv2-2/relu"
  type: "ReLU"
  bottom: "conv2-2"
  top: "conv2-2"
}
layer {
  name: "pool2"
  type: "Pooling"
  bottom: "conv2-2"
  top: "pool2"
  pooling_param {
    pool: MAX
    kernel_size: 3
    stride: 2
  }
}
layer {
  name: "conv3/incep0/conv"
  type: "Convolution"
  bottom: "pool2"
  top: "conv3/incep0/conv"
  param {
    lr_mult: 1
    decay_mult: 1
  }
  convolution_param {
    num_output: 24
    pad: 0
    kernel_size: 1
    stride: 1
    weight_filler {
      type: "xavier"
    }
    bias_filler {
      type: "constant"
      value: 0
    }
  }
}
layer {
  name: "conv3/incep0/bn"
  type: "BatchNorm"
  bottom: "conv3/incep0/conv"
  top: "conv3/incep0/conv"
  batch_norm_param {
    use_global_stats: false
  }
}
layer {
  name: "conv3/incep0/bn_scale"
  type: "Scale"
  bottom: "conv3/incep0/conv"
  top: "conv3/incep0/conv"
  param {
    lr_mult: 1
    decay_mult: 0
  }
  param {
    lr_mult: 1
    decay_mult: 0
  }
  scale_param {
    bias_term: true
  }
}
layer {
  name: "conv3/incep0/relu"
  type: "ReLU"
  bottom: "conv3/incep0/conv"
  top: "conv3/incep0/conv"
}
layer {
  name: "conv3/incep1/conv1"
  type: "Convolution"
  bottom: "pool2"
  top: "conv3/incep1/conv1"
  param {
    lr_mult: 1
    decay_mult: 1
  }
  convolution_param {
    num_output: 16
    pad: 0
    kernel_size: 1
    stride: 1
    weight_filler {
      type: "xavier"
    }
    bias_filler {
      type: "constant"
      value: 0
    }
  }
}
layer {
  name: "conv3/incep1/bn1"
  type: "BatchNorm"
  bottom: "conv3/incep1/conv1"
  top: "conv3/incep1/conv1"
  batch_norm_param {
    use_global_stats: false
  }
}
layer {
  name: "conv3/incep1/bn_scale1"
  type: "Scale"
  bottom: "conv3/incep1/conv1"
  top: "conv3/incep1/conv1"
  param {
    lr_mult: 1
    decay_mult: 0
  }
  param {
    lr_mult: 1
    decay_mult: 0
  }
  scale_param {
    bias_term: true
  }
}
layer {
  name: "conv3/incep1/relu1"
  type: "ReLU"
  bottom: "conv3/incep1/conv1"
  top: "conv3/incep1/conv1"
}
layer {
  name: "conv3/incep1/conv2"
  type: "Convolution"
  bottom: "conv3/incep1/conv1"
  top: "conv3/incep1/conv2"
  param {
    lr_mult: 1
    decay_mult: 1
  }
  convolution_param {
    num_output: 24
    pad: 1
    kernel_size: 3
    stride: 1
    weight_filler {
      type: "xavier"
    }
    bias_filler {
      type: "constant"
      value: 0
    }
  }
}
layer {
  name: "conv3/incep1/bn2"
  type: "BatchNorm"
  bottom: "conv3/incep1/conv2"
  top: "conv3/incep1/conv2"
  batch_norm_param {
    use_global_stats: false
  }
}
layer {
  name: "conv3/incep1/bn_scale2"
  type: "Scale"
  bottom: "conv3/incep1/conv2"
  top: "conv3/incep1/conv2"
  param {
    lr_mult: 1
    decay_mult: 0
  }
  param {
    lr_mult: 1
    decay_mult: 0
  }
  scale_param {
    bias_term: true
  }
}
layer {
  name: "conv3/incep1/relu2"
  type: "ReLU"
  bottom: "conv3/incep1/conv2"
  top: "conv3/incep1/conv2"
}
layer {
  name: "conv3/incep2/conv1"
  type: "Convolution"
  bottom: "pool2"
  top: "conv3/incep2/conv1"
  param {
    lr_mult: 1
    decay_mult: 1
  }
  convolution_param {
    num_output: 16
    pad: 0
    kernel_size: 1
    stride: 1
    weight_filler {
      type: "xavier"
    }
    bias_filler {
      type: "constant"
      value: 0
    }
  }
}
layer {
  name: "conv3/incep2/bn1"
  type: "BatchNorm"
  bottom: "conv3/incep2/conv1"
  top: "conv3/incep2/conv1"
  batch_norm_param {
    use_global_stats: false
  }
}
layer {
  name: "conv3/incep2/bn_scale1"
  type: "Scale"
  bottom: "conv3/incep2/conv1"
  top: "conv3/incep2/conv1"
  param {
    lr_mult: 1
    decay_mult: 0
  }
  param {
    lr_mult: 1
    decay_mult: 0
  }
  scale_param {
    bias_term: true
  }
}
layer {
  name: "conv3/incep2/relu1"
  type: "ReLU"
  bottom: "conv3/incep2/conv1"
  top: "conv3/incep2/conv1"
}
layer {
  name: "conv3/incep2/conv2"
  type: "Convolution"
  bottom: "conv3/incep2/conv1"
  top: "conv3/incep2/conv2"
  param {
    lr_mult: 1
    decay_mult: 1
  }
  convolution_param {
    num_output: 24
    pad: 1
    kernel_size: 3
    stride: 1
    weight_filler {
      type: "xavier"
    }
    bias_filler {
      type: "constant"
      value: 0
    }
  }
}
layer {
  name: "conv3/incep2/bn2"
  type: "BatchNorm"
  bottom: "conv3/incep2/conv2"
  top: "conv3/incep2/conv2"
  batch_norm_param {
    use_global_stats: false
  }
}
layer {
  name: "conv3/incep2/bn_scale2"
  type: "Scale"
  bottom: "conv3/incep2/conv2"
  top: "conv3/incep2/conv2"
  param {
    lr_mult: 1
    decay_mult: 0
  }
  param {
    lr_mult: 1
    decay_mult: 0
  }
  scale_param {
    bias_term: true
  }
}
layer {
  name: "conv3/incep2/relu2"
  type: "ReLU"
  bottom: "conv3/incep2/conv2"
  top: "conv3/incep2/conv2"
}
layer {
  name: "conv3/incep2/conv3"
  type: "Convolution"
  bottom: "conv3/incep2/conv2"
  top: "conv3/incep2/conv3"
  param {
    lr_mult: 1
    decay_mult: 1
  }
  convolution_param {
    num_output: 24
    pad: 1
    kernel_size: 3
    stride: 1
    weight_filler {
      type: "xavier"
    }
    bias_filler {
      type: "constant"
      value: 0
    }
  }
}
layer {
  name: "conv3/incep2/bn3"
  type: "BatchNorm"
  bottom: "conv3/incep2/conv3"
  top: "conv3/incep2/conv3"
  batch_norm_param {
    use_global_stats: false
  }
}
layer {
  name: "conv3/incep2/bn_scale3"
  type: "Scale"
  bottom: "conv3/incep2/conv3"
  top: "conv3/incep2/conv3"
  param {
    lr_mult: 1
    decay_mult: 0
  }
  param {
    lr_mult: 1
    decay_mult: 0
  }
  scale_param {
    bias_term: true
  }
}
layer {
  name: "conv3/incep2/relu3"
  type: "ReLU"
  bottom: "conv3/incep2/conv3"
  top: "conv3/incep2/conv3"
}
layer {
  name: "conv3/incep"
  type: "Concat"
  bottom: "conv3/incep0/conv"
  bottom: "conv3/incep1/conv2"
  bottom: "conv3/incep2/conv3"
  top: "conv3/incep"
}
layer {
  name: "conv5/incep0/conv"
  type: "Convolution"
  bottom: "conv3/incep"
  top: "conv5/incep0/conv"
  param {
    lr_mult: 1
    decay_mult: 1
  }
  convolution_param {
    num_output: 24
    pad: 0
    kernel_size: 1
    stride: 1
    weight_filler {
      type: "xavier"
    }
    bias_filler {
      type: "constant"
      value: 0
    }
  }
}
layer {
  name: "conv5/incep0/bn"
  type: "BatchNorm"
  bottom: "conv5/incep0/conv"
  top: "conv5/incep0/conv"
  batch_norm_param {
    use_global_stats: false
  }
}
layer {
  name: "conv5/incep0/bn_scale"
  type: "Scale"
  bottom: "conv5/incep0/conv"
  top: "conv5/incep0/conv"
  param {
    lr_mult: 1
    decay_mult: 0
  }
  param {
    lr_mult: 1
    decay_mult: 0
  }
  scale_param {
    bias_term: true
  }
}
layer {
  name: "conv5/incep0/relu"
  type: "ReLU"
  bottom: "conv5/incep0/conv"
  top: "conv5/incep0/conv"
}
layer {
  name: "conv5/incep1/conv1"
  type: "Convolution"
  bottom: "conv3/incep"
  top: "conv5/incep1/conv1"
  param {
    lr_mult: 1
    decay_mult: 1
  }
  convolution_param {
    num_output: 16
    pad: 0
    kernel_size: 1
    stride: 1
    weight_filler {
      type: "xavier"
    }
    bias_filler {
      type: "constant"
      value: 0
    }
  }
}
layer {
  name: "conv5/incep1/bn1"
  type: "BatchNorm"
  bottom: "conv5/incep1/conv1"
  top: "conv5/incep1/conv1"
  batch_norm_param {
    use_global_stats: false
  }
}
layer {
  name: "conv5/incep1/bn_scale1"
  type: "Scale"
  bottom: "conv5/incep1/conv1"
  top: "conv5/incep1/conv1"
  param {
    lr_mult: 1
    decay_mult: 0
  }
  param {
    lr_mult: 1
    decay_mult: 0
  }
  scale_param {
    bias_term: true
  }
}
layer {
  name: "conv5/incep1/relu1"
  type: "ReLU"
  bottom: "conv5/incep1/conv1"
  top: "conv5/incep1/conv1"
}
layer {
  name: "conv5/incep1/conv2"
  type: "Convolution"
  bottom: "conv5/incep1/conv1"
  top: "conv5/incep1/conv2"
  param {
    lr_mult: 1
    decay_mult: 1
  }
  convolution_param {
    num_output: 24
    pad: 1
    kernel_size: 3
    stride: 1
    weight_filler {
      type: "xavier"
    }
    bias_filler {
      type: "constant"
      value: 0
    }
  }
}
layer {
  name: "conv5/incep1/bn2"
  type: "BatchNorm"
  bottom: "conv5/incep1/conv2"
  top: "conv5/incep1/conv2"
  batch_norm_param {
    use_global_stats: false
  }
}
layer {
  name: "conv5/incep1/bn_scale2"
  type: "Scale"
  bottom: "conv5/incep1/conv2"
  top: "conv5/incep1/conv2"
  param {
    lr_mult: 1
    decay_mult: 0
  }
  param {
    lr_mult: 1
    decay_mult: 0
  }
  scale_param {
    bias_term: true
  }
}
layer {
  name: "conv5/incep1/relu2"
  type: "ReLU"
  bottom: "conv5/incep1/conv2"
  top: "conv5/incep1/conv2"
}
layer {
  name: "conv5/incep2/conv1"
  type: "Convolution"
  bottom: "conv3/incep"
  top: "conv5/incep2/conv1"
  param {
    lr_mult: 1
    decay_mult: 1
  }
  convolution_param {
    num_output: 16
    pad: 0
    kernel_size: 1
    stride: 1
    weight_filler {
      type: "xavier"
    }
    bias_filler {
      type: "constant"
      value: 0
    }
  }
}
layer {
  name: "conv5/incep2/bn1"
  type: "BatchNorm"
  bottom: "conv5/incep2/conv1"
  top: "conv5/incep2/conv1"
  batch_norm_param {
    use_global_stats: false
  }
}
layer {
  name: "conv5/incep2/bn_scale1"
  type: "Scale"
  bottom: "conv5/incep2/conv1"
  top: "conv5/incep2/conv1"
  param {
    lr_mult: 1
    decay_mult: 0
  }
  param {
    lr_mult: 1
    decay_mult: 0
  }
  scale_param {
    bias_term: true
  }
}
layer {
  name: "conv5/incep2/relu1"
  type: "ReLU"
  bottom: "conv5/incep2/conv1"
  top: "conv5/incep2/conv1"
}
layer {
  name: "conv5/incep2/conv2"
  type: "Convolution"
  bottom: "conv5/incep2/conv1"
  top: "conv5/incep2/conv2"
  param {
    lr_mult: 1
    decay_mult: 1
  }
  convolution_param {
    num_output: 24
    pad: 1
    kernel_size: 3
    stride: 1
    weight_filler {
      type: "xavier"
    }
    bias_filler {
      type: "constant"
      value: 0
    }
  }
}
layer {
  name: "conv5/incep2/bn2"
  type: "BatchNorm"
  bottom: "conv5/incep2/conv2"
  top: "conv5/incep2/conv2"
  batch_norm_param {
    use_global_stats: false
  }
}
layer {
  name: "conv5/incep2/bn_scale2"
  type: "Scale"
  bottom: "conv5/incep2/conv2"
  top: "conv5/incep2/conv2"
  param {
    lr_mult: 1
    decay_mult: 0
  }
  param {
    lr_mult: 1
    decay_mult: 0
  }
  scale_param {
    bias_term: true
  }
}
layer {
  name: "conv5/incep2/relu2"
  type: "ReLU"
  bottom: "conv5/incep2/conv2"
  top: "conv5/incep2/conv2"
}
layer {
  name: "conv5/incep2/conv3"
  type: "Convolution"
  bottom: "conv5/incep2/conv2"
  top: "conv5/incep2/conv3"
  param {
    lr_mult: 1
    decay_mult: 1
  }
  convolution_param {
    num_output: 24
    pad: 1
    kernel_size: 3
    stride: 1
    weight_filler {
      type: "xavier"
    }
    bias_filler {
      type: "constant"
      value: 0
    }
  }
}
layer {
  name: "conv5/incep2/bn3"
  type: "BatchNorm"
  bottom: "conv5/incep2/conv3"
  top: "conv5/incep2/conv3"
  batch_norm_param {
    use_global_stats: false
  }
}
layer {
  name: "conv5/incep2/bn_scale3"
  type: "Scale"
  bottom: "conv5/incep2/conv3"
  top: "conv5/incep2/conv3"
  param {
    lr_mult: 1
    decay_mult: 0
  }
  param {
    lr_mult: 1
    decay_mult: 0
  }
  scale_param {
    bias_term: true
  }
}
layer {
  name: "conv5/incep2/relu3"
  type: "ReLU"
  bottom: "conv5/incep2/conv3"
  top: "conv5/incep2/conv3"
}
layer {
  name: "conv5/incep"
  type: "Concat"
  bottom: "conv5/incep0/conv"
  bottom: "conv5/incep1/conv2"
  bottom: "conv5/incep2/conv3"
  top: "conv5/incep"
}
layer {
  name: "Inception3/conv/loc1"
  type: "Convolution"
  bottom: "conv5/incep"
  top: "Inception3/conv/loc1"
  param {
    lr_mult: 1
    decay_mult: 1
  }
  param {
    lr_mult: 2
    decay_mult: 0
  }
  convolution_param {
    num_output: 4
    pad: 1
    kernel_size: 3
    stride: 1
    weight_filler {
      type: "xavier"
    }
    bias_filler {
      type: "constant"
      value: 0
    }
  }
}
layer {
  name: "Inception3/conv/loc1/perm"
  type: "Permute"
  bottom: "Inception3/conv/loc1"
  top: "Inception3/conv/loc1/perm"
  permute_param {
    order: 0
    order: 2
    order: 3
    order: 1
  }
}
layer {
  name: "Inception3/conv/loc1/flat"
  type: "Flatten"
  bottom: "Inception3/conv/loc1/perm"
  top: "Inception3/conv/loc1/flat"
  flatten_param {
    axis: 1
  }
}
layer {
  name: "Inception3/conv/conf1"
  type: "Convolution"
  bottom: "conv5/incep"
  top: "Inception3/conv/conf1"
  param {
    lr_mult: 1
    decay_mult: 1
  }
  param {
    lr_mult: 2
    decay_mult: 0
  }
  convolution_param {
    num_output: 2
    pad: 1
    kernel_size: 3
    stride: 1
    weight_filler {
      type: "xavier"
    }
    bias_filler {
      type: "constant"
      value: 0
    }
  }
}
layer {
  name: "Inception3/conv/conf1/perm"
  type: "Permute"
  bottom: "Inception3/conv/conf1"
  top: "Inception3/conv/conf1/perm"
  permute_param {
    order: 0
    order: 2
    order: 3
    order: 1
  }
}
layer {
  name: "Inception3/conv/conf1/flat"
  type: "Flatten"
  bottom: "Inception3/conv/conf1/perm"
  top: "Inception3/conv/conf1/flat"
  flatten_param {
    axis: 1
  }
}
layer {
  name: "Inception3/conv/priorbox1"
  type: "PriorBox"
  bottom: "conv5/incep"
  bottom: "data"
  top: "Inception3/conv/priorbox1"
  prior_box_param {
    min_size: 12
    aspect_ratio: 1
    flip: true
    clip: true
    variance: 0.1
    variance: 0.1
    variance: 0.2
    variance: 0.2
  }
}
layer {
  name: "Inception3/conv/loc2"
  type: "Convolution"
  bottom: "conv5/incep"
  top: "Inception3/conv/loc2"
  param {
    lr_mult: 1
    decay_mult: 1
  }
  param {
    lr_mult: 2
    decay_mult: 0
  }
  convolution_param {
    num_output: 4
    pad: 1
    kernel_size: 3
    stride: 1
    weight_filler {
      type: "xavier"
    }
    bias_filler {
      type: "constant"
      value: 0
    }
  }
}
layer {
  name: "Inception3/conv/loc2/perm"
  type: "Permute"
  bottom: "Inception3/conv/loc2"
  top: "Inception3/conv/loc2/perm"
  permute_param {
    order: 0
    order: 2
    order: 3
    order: 1
  }
}
layer {
  name: "Inception3/conv/loc2/flat"
  type: "Flatten"
  bottom: "Inception3/conv/loc2/perm"
  top: "Inception3/conv/loc2/flat"
  flatten_param {
    axis: 1
  }
}
layer {
  name: "Inception3/conv/conf2"
  type: "Convolution"
  bottom: "conv5/incep"
  top: "Inception3/conv/conf2"
  param {
    lr_mult: 1
    decay_mult: 1
  }
  param {
    lr_mult: 2
    decay_mult: 0
  }
  convolution_param {
    num_output: 2
    pad: 1
    kernel_size: 3
    stride: 1
    weight_filler {
      type: "xavier"
    }
    bias_filler {
      type: "constant"
      value: 0
    }
  }
}
layer {
  name: "Inception3/conv/conf2/perm"
  type: "Permute"
  bottom: "Inception3/conv/conf2"
  top: "Inception3/conv/conf2/perm"
  permute_param {
    order: 0
    order: 2
    order: 3
    order: 1
  }
}
layer {
  name: "Inception3/conv/conf2/flat"
  type: "Flatten"
  bottom: "Inception3/conv/conf2/perm"
  top: "Inception3/conv/conf2/flat"
  flatten_param {
    axis: 1
  }
}
layer {
  name: "Inception3/conv/priorbox2"
  type: "PriorBox"
  bottom: "conv5/incep"
  bottom: "data"
  top: "Inception3/conv/priorbox2"
  prior_box_param {
    min_size: 24
    aspect_ratio: 1
    flip: true
    clip: true
    variance: 0.1
    variance: 0.1
    variance: 0.2
    variance: 0.2
  }
}
layer {
  name: "Inception3/conv/loc3"
  type: "Convolution"
  bottom: "conv5/incep"
  top: "Inception3/conv/loc3"
  param {
    lr_mult: 1
    decay_mult: 1
  }
  param {
    lr_mult: 2
    decay_mult: 0
  }
  convolution_param {
    num_output: 4
    pad: 1
    kernel_size: 3
    stride: 1
    weight_filler {
      type: "xavier"
    }
    bias_filler {
      type: "constant"
      value: 0
    }
  }
}
layer {
  name: "Inception3/conv/loc3/perm"
  type: "Permute"
  bottom: "Inception3/conv/loc3"
  top: "Inception3/conv/loc3/perm"
  permute_param {
    order: 0
    order: 2
    order: 3
    order: 1
  }
}
layer {
  name: "Inception3/conv/loc3/flat"
  type: "Flatten"
  bottom: "Inception3/conv/loc3/perm"
  top: "Inception3/conv/loc3/flat"
  flatten_param {
    axis: 1
  }
}
layer {
  name: "Inception3/conv/conf3"
  type: "Convolution"
  bottom: "conv5/incep"
  top: "Inception3/conv/conf3"
  param {
    lr_mult: 1
    decay_mult: 1
  }
  param {
    lr_mult: 2
    decay_mult: 0
  }
  convolution_param {
    num_output: 2
    pad: 1
    kernel_size: 3
    stride: 1
    weight_filler {
      type: "xavier"
    }
    bias_filler {
      type: "constant"
      value: 0
    }
  }
}
layer {
  name: "Inception3/conv/conf3/perm"
  type: "Permute"
  bottom: "Inception3/conv/conf3"
  top: "Inception3/conv/conf3/perm"
  permute_param {
    order: 0
    order: 2
    order: 3
    order: 1
  }
}
layer {
  name: "Inception3/conv/conf3/flat"
  type: "Flatten"
  bottom: "Inception3/conv/conf3/perm"
  top: "Inception3/conv/conf3/flat"
  flatten_param {
    axis: 1
  }
}
layer {
  name: "Inception3/conv/priorbox3"
  type: "PriorBox"
  bottom: "conv5/incep"
  bottom: "data"
  top: "Inception3/conv/priorbox3"
  prior_box_param {
    min_size: 48
    aspect_ratio: 1
    flip: true
    clip: true
    variance: 0.1
    variance: 0.1
    variance: 0.2
    variance: 0.2
  }
}
layer {
  name: "conv6_1"
  type: "Convolution"
  bottom: "conv5/incep"
  top: "conv6_1"
  param {
    lr_mult: 1
    decay_mult: 1
  }
  convolution_param {
    num_output: 24
    pad: 0
    kernel_size: 1
    stride: 1
    weight_filler {
      type: "xavier"
    }
    bias_filler {
      type: "constant"
      value: 0
    }
  }
}
layer {
  name: "conv6/bn1"
  type: "BatchNorm"
  bottom: "conv6_1"
  top: "conv6_1"
  batch_norm_param {
    use_global_stats: false
  }
}
layer {
  name: "conv6/bn_scale1"
  type: "Scale"
  bottom: "conv6_1"
  top: "conv6_1"
  param {
    lr_mult: 1
    decay_mult: 0
  }
  param {
    lr_mult: 1
    decay_mult: 0
  }
  scale_param {
    bias_term: true
  }
}
layer {
  name: "conv6/relu1"
  type: "ReLU"
  bottom: "conv6_1"
  top: "conv6_1"
}
layer {
  name: "conv6_2"
  type: "Convolution"
  bottom: "conv6_1"
  top: "conv6_2"
  param {
    lr_mult: 1
    decay_mult: 1
  }
  convolution_param {
    num_output: 48
    pad: 1
    kernel_size: 3
    stride: 2
    weight_filler {
      type: "xavier"
    }
    bias_filler {
      type: "constant"
      value: 0
    }
  }
}
layer {
  name: "conv6/bn2"
  type: "BatchNorm"
  bottom: "conv6_2"
  top: "conv6_2"
  batch_norm_param {
    use_global_stats: false
  }
}
layer {
  name: "conv6/bn_scale2"
  type: "Scale"
  bottom: "conv6_2"
  top: "conv6_2"
  param {
    lr_mult: 1
    decay_mult: 0
  }
  param {
    lr_mult: 1
    decay_mult: 0
  }
  scale_param {
    bias_term: true
  }
}
layer {
  name: "conv6/relu2"
  type: "ReLU"
  bottom: "conv6_2"
  top: "conv6_2"
}
layer {
  name: "conv6/loc"
  type: "Convolution"
  bottom: "conv6_2"
  top: "conv6/loc"
  param {
    lr_mult: 1
    decay_mult: 1
  }
  param {
    lr_mult: 2
    decay_mult: 0
  }
  convolution_param {
    num_output: 4
    pad: 1
    kernel_size: 3
    stride: 1
    weight_filler {
      type: "xavier"
    }
    bias_filler {
      type: "constant"
      value: 0
    }
  }
}
layer {
  name: "conv6/loc/perm"
  type: "Permute"
  bottom: "conv6/loc"
  top: "conv6/loc/perm"
  permute_param {
    order: 0
    order: 2
    order: 3
    order: 1
  }
}
layer {
  name: "conv6/loc/perm/flat"
  type: "Flatten"
  bottom: "conv6/loc/perm"
  top: "conv6/loc/perm/flat"
  flatten_param {
    axis: 1
  }
}
layer {
  name: "conv6/conf"
  type: "Convolution"
  bottom: "conv6_2"
  top: "conv6/conf"
  param {
    lr_mult: 1
    decay_mult: 1
  }
  param {
    lr_mult: 2
    decay_mult: 0
  }
  convolution_param {
    num_output: 2
    pad: 1
    kernel_size: 3
    stride: 1
    weight_filler {
      type: "xavier"
    }
    bias_filler {
      type: "constant"
      value: 0
    }
  }
}
layer {
  name: "conv6/conf/perm"
  type: "Permute"
  bottom: "conv6/conf"
  top: "conv6/conf/perm"
  permute_param {
    order: 0
    order: 2
    order: 3
    order: 1
  }
}
layer {
  name: "conv6/conf/perm/flat"
  type: "Flatten"
  bottom: "conv6/conf/perm"
  top: "conv6/conf/perm/flat"
  flatten_param {
    axis: 1
  }
}
layer {
  name: "conv6/priorbox"
  type: "PriorBox"
  bottom: "conv6_2"
  bottom: "data"
  top: "conv6/priorbox"
  prior_box_param {
    min_size: 96
    aspect_ratio: 1
    flip: true
    clip: true
    variance: 0.1
    variance: 0.1
    variance: 0.2
    variance: 0.2
  }
}
layer {
  name: "conv7_1"
  type: "Convolution"
  bottom: "conv6_2"
  top: "conv7_1"
  param {
    lr_mult: 1
    decay_mult: 1
  }
  convolution_param {
    num_output: 32
    pad: 0
    kernel_size: 1
    stride: 1
    weight_filler {
      type: "xavier"
    }
    bias_filler {
      type: "constant"
      value: 0
    }
  }
}
layer {
  name: "conv7/bn1"
  type: "BatchNorm"
  bottom: "conv7_1"
  top: "conv7_1"
  batch_norm_param {
    use_global_stats: false
  }
}
layer {
  name: "conv7/bn_scale1"
  type: "Scale"
  bottom: "conv7_1"
  top: "conv7_1"
  param {
    lr_mult: 1
    decay_mult: 0
  }
  param {
    lr_mult: 1
    decay_mult: 0
  }
  scale_param {
    bias_term: true
  }
}
layer {
  name: "conv7/relu1"
  type: "ReLU"
  bottom: "conv7_1"
  top: "conv7_1"
}
layer {
  name: "conv7_2"
  type: "Convolution"
  bottom: "conv7_1"
  top: "conv7_2"
  param {
    lr_mult: 1
    decay_mult: 1
  }
  convolution_param {
    num_output: 64
    pad: 1
    kernel_size: 3
    stride: 2
    weight_filler {
      type: "xavier"
    }
    bias_filler {
      type: "constant"
      value: 0
    }
  }
}
layer {
  name: "conv7/bn2"
  type: "BatchNorm"
  bottom: "conv7_2"
  top: "conv7_2"
  batch_norm_param {
    use_global_stats: false
  }
}
layer {
  name: "conv7/bn_scale2"
  type: "Scale"
  bottom: "conv7_2"
  top: "conv7_2"
  param {
    lr_mult: 1
    decay_mult: 0
  }
  param {
    lr_mult: 1
    decay_mult: 0
  }
  scale_param {
    bias_term: true
  }
}
layer {
  name: "conv7/relu2"
  type: "ReLU"
  bottom: "conv7_2"
  top: "conv7_2"
}
layer {
  name: "conv7/loc"
  type: "Convolution"
  bottom: "conv7_2"
  top: "conv7/loc"
  param {
    lr_mult: 1
    decay_mult: 1
  }
  param {
    lr_mult: 2
    decay_mult: 0
  }
  convolution_param {
    num_output: 4
    pad: 1
    kernel_size: 3
    stride: 1
    weight_filler {
      type: "xavier"
    }
    bias_filler {
      type: "constant"
      value: 0
    }
  }
}
layer {
  name: "conv7/loc/perm"
  type: "Permute"
  bottom: "conv7/loc"
  top: "conv7/loc/perm"
  permute_param {
    order: 0
    order: 2
    order: 3
    order: 1
  }
}
layer {
  name: "conv7/loc/perm/flat"
  type: "Flatten"
  bottom: "conv7/loc/perm"
  top: "conv7/loc/perm/flat"
  flatten_param {
    axis: 1
  }
}
layer {
  name: "conv7/conf"
  type: "Convolution"
  bottom: "conv7_2"
  top: "conv7/conf"
  param {
    lr_mult: 1
    decay_mult: 1
  }
  param {
    lr_mult: 2
    decay_mult: 0
  }
  convolution_param {
    num_output: 2
    pad: 1
    kernel_size: 3
    stride: 1
    weight_filler {
      type: "xavier"
    }
    bias_filler {
      type: "constant"
      value: 0
    }
  }
}
layer {
  name: "conv7/conf/perm"
  type: "Permute"
  bottom: "conv7/conf"
  top: "conv7/conf/perm"
  permute_param {
    order: 0
    order: 2
    order: 3
    order: 1
  }
}
layer {
  name: "conv7/conf/perm/flat"
  type: "Flatten"
  bottom: "conv7/conf/perm"
  top: "conv7/conf/perm/flat"
  flatten_param {
    axis: 1
  }
}
layer {
  name: "conv7/priorbox"
  type: "PriorBox"
  bottom: "conv7_2"
  bottom: "data"
  top: "conv7/priorbox"
  prior_box_param {
    min_size: 192
    aspect_ratio: 1
    flip: true
    clip: true
    variance: 0.1
    variance: 0.1
    variance: 0.2
    variance: 0.2
  }
}
layer {
  name: "mbox_loc"
  type: "Concat"
  bottom: "Inception3/conv/loc1/flat"
  bottom: "Inception3/conv/loc2/flat"
  bottom: "Inception3/conv/loc3/flat"
  bottom: "conv6/loc/perm/flat"
  bottom: "conv7/loc/perm/flat"
  top: "mbox_loc"
  concat_param {
    axis: 1
  }
}
layer {
  name: "mbox_conf"
  type: "Concat"
  bottom: "Inception3/conv/conf1/flat"
  bottom: "Inception3/conv/conf2/flat"
  bottom: "Inception3/conv/conf3/flat"
  bottom: "conv6/conf/perm/flat"
  bottom: "conv7/conf/perm/flat"
  top: "mbox_conf"
  concat_param {
    axis: 1
  }
}
layer {
  name: "mbox_priorbox"
  type: "Concat"
  bottom: "Inception3/conv/priorbox1"
  bottom: "Inception3/conv/priorbox2"
  bottom: "Inception3/conv/priorbox3"
  bottom: "conv6/priorbox"
  bottom: "conv7/priorbox"
  top: "mbox_priorbox"
  concat_param {
    axis: 2
  }
}
layer {
  name: "mbox_loss"
  type: "MultiBoxLoss"
  bottom: "mbox_loc"
  bottom: "mbox_conf"
  bottom: "mbox_priorbox"
  bottom: "label"
  top: "mbox_loss"
  include {
    phase: TRAIN
  }
  propagate_down: true
  propagate_down: true
  propagate_down: false
  propagate_down: false
  loss_param {
    normalization: VALID
  }
  multibox_loss_param {
    loc_loss_type: SMOOTH_L1
    conf_loss_type: SOFTMAX
    loc_weight: 1
    num_classes: 2
    share_location: true
    match_type: PER_PREDICTION
    overlap_threshold: 0.5
    use_
I1211 10:50:58.712242   574 layer_factory.hpp:77] Creating layer data
I1211 10:50:58.712743   574 net.cpp:100] Creating Layer data
I1211 10:50:58.712791   574 net.cpp:408] data -> data
I1211 10:50:58.712882   574 net.cpp:408] data -> label
I1211 10:50:58.772980   590 db_lmdb.cpp:35] Opened lmdb examples/umdfaces_final/umdfaces_final_trainval_lmdb
I1211 10:50:58.884759   574 annotated_data_layer.cpp:62] output data size: 32,3,324,324
I1211 10:50:59.021859   574 net.cpp:150] Setting up data
I1211 10:50:59.021908   574 net.cpp:157] Top shape: 32 3 324 324 (10077696)
I1211 10:50:59.021914   574 net.cpp:157] Top shape: 1 1 1 8 (8)
I1211 10:50:59.021917   574 net.cpp:165] Memory required for data: 40310816
I1211 10:50:59.021931   574 layer_factory.hpp:77] Creating layer data_data_0_split
I1211 10:50:59.021950   574 net.cpp:100] Creating Layer data_data_0_split
I1211 10:50:59.021957   574 net.cpp:434] data_data_0_split <- data
I1211 10:50:59.021973   574 net.cpp:408] data_data_0_split -> data_data_0_split_0
I1211 10:50:59.021991   574 net.cpp:408] data_data_0_split -> data_data_0_split_1
I1211 10:50:59.021999   574 net.cpp:408] data_data_0_split -> data_data_0_split_2
I1211 10:50:59.022007   574 net.cpp:408] data_data_0_split -> data_data_0_split_3
I1211 10:50:59.022014   574 net.cpp:408] data_data_0_split -> data_data_0_split_4
I1211 10:50:59.022024   574 net.cpp:408] data_data_0_split -> data_data_0_split_5
I1211 10:50:59.022135   574 net.cpp:150] Setting up data_data_0_split
I1211 10:50:59.022181   574 net.cpp:157] Top shape: 32 3 324 324 (10077696)
I1211 10:50:59.022227   574 net.cpp:157] Top shape: 32 3 324 324 (10077696)
I1211 10:50:59.022243   574 net.cpp:157] Top shape: 32 3 324 324 (10077696)
I1211 10:50:59.022256   574 net.cpp:157] Top shape: 32 3 324 324 (10077696)
I1211 10:50:59.022270   574 net.cpp:157] Top shape: 32 3 324 324 (10077696)
I1211 10:50:59.022284   574 net.cpp:157] Top shape: 32 3 324 324 (10077696)
I1211 10:50:59.022296   574 net.cpp:165] Memory required for data: 282175520
I1211 10:50:59.022310   574 layer_factory.hpp:77] Creating layer conv1
I1211 10:50:59.022346   574 net.cpp:100] Creating Layer conv1
I1211 10:50:59.022361   574 net.cpp:434] conv1 <- data_data_0_split_0
I1211 10:50:59.022382   574 net.cpp:408] conv1 -> conv1
I1211 10:50:59.575526   574 net.cpp:150] Setting up conv1
I1211 10:50:59.575630   574 net.cpp:157] Top shape: 32 8 161 161 (6635776)
I1211 10:50:59.575649   574 net.cpp:165] Memory required for data: 308718624
I1211 10:50:59.575740   574 layer_factory.hpp:77] Creating layer conv1/bn
I1211 10:50:59.575778   574 net.cpp:100] Creating Layer conv1/bn
I1211 10:50:59.575795   574 net.cpp:434] conv1/bn <- conv1
I1211 10:50:59.575821   574 net.cpp:395] conv1/bn -> conv1 (in-place)
I1211 10:50:59.576083   574 net.cpp:150] Setting up conv1/bn
I1211 10:50:59.576104   574 net.cpp:157] Top shape: 32 8 161 161 (6635776)
I1211 10:50:59.576117   574 net.cpp:165] Memory required for data: 335261728
I1211 10:50:59.576136   574 layer_factory.hpp:77] Creating layer conv1/scale
I1211 10:50:59.576192   574 net.cpp:100] Creating Layer conv1/scale
I1211 10:50:59.576207   574 net.cpp:434] conv1/scale <- conv1
I1211 10:50:59.576230   574 net.cpp:395] conv1/scale -> conv1 (in-place)
I1211 10:50:59.576308   574 layer_factory.hpp:77] Creating layer conv1/scale
I1211 10:50:59.576510   574 net.cpp:150] Setting up conv1/scale
I1211 10:50:59.576532   574 net.cpp:157] Top shape: 32 8 161 161 (6635776)
I1211 10:50:59.576545   574 net.cpp:165] Memory required for data: 361804832
I1211 10:50:59.576560   574 layer_factory.hpp:77] Creating layer conv1/relu
I1211 10:50:59.576586   574 net.cpp:100] Creating Layer conv1/relu
I1211 10:50:59.576599   574 net.cpp:434] conv1/relu <- conv1
I1211 10:50:59.576614   574 net.cpp:395] conv1/relu -> conv1 (in-place)
I1211 10:50:59.576853   574 net.cpp:150] Setting up conv1/relu
I1211 10:50:59.576876   574 net.cpp:157] Top shape: 32 8 161 161 (6635776)
I1211 10:50:59.576889   574 net.cpp:165] Memory required for data: 388347936
I1211 10:50:59.576910   574 layer_factory.hpp:77] Creating layer conv2-1
I1211 10:50:59.576941   574 net.cpp:100] Creating Layer conv2-1
I1211 10:50:59.576954   574 net.cpp:434] conv2-1 <- conv1
I1211 10:50:59.576980   574 net.cpp:408] conv2-1 -> conv2-1
I1211 10:50:59.583361   574 net.cpp:150] Setting up conv2-1
I1211 10:50:59.583396   574 net.cpp:157] Top shape: 32 16 80 80 (3276800)
I1211 10:50:59.583410   574 net.cpp:165] Memory required for data: 401455136
I1211 10:50:59.583429   574 layer_factory.hpp:77] Creating layer conv2-1/bn
I1211 10:50:59.583453   574 net.cpp:100] Creating Layer conv2-1/bn
I1211 10:50:59.583467   574 net.cpp:434] conv2-1/bn <- conv2-1
I1211 10:50:59.583484   574 net.cpp:395] conv2-1/bn -> conv2-1 (in-place)
I1211 10:50:59.583712   574 net.cpp:150] Setting up conv2-1/bn
I1211 10:50:59.583734   574 net.cpp:157] Top shape: 32 16 80 80 (3276800)
I1211 10:50:59.583745   574 net.cpp:165] Memory required for data: 414562336
I1211 10:50:59.583761   574 layer_factory.hpp:77] Creating layer conv2-1/scale
I1211 10:50:59.583778   574 net.cpp:100] Creating Layer conv2-1/scale
I1211 10:50:59.583792   574 net.cpp:434] conv2-1/scale <- conv2-1
I1211 10:50:59.583807   574 net.cpp:395] conv2-1/scale -> conv2-1 (in-place)
I1211 10:50:59.583865   574 layer_factory.hpp:77] Creating layer conv2-1/scale
I1211 10:50:59.584005   574 net.cpp:150] Setting up conv2-1/scale
I1211 10:50:59.584024   574 net.cpp:157] Top shape: 32 16 80 80 (3276800)
I1211 10:50:59.584035   574 net.cpp:165] Memory required for data: 427669536
I1211 10:50:59.584050   574 layer_factory.hpp:77] Creating layer conv2-1/relu
I1211 10:50:59.584105   574 net.cpp:100] Creating Layer conv2-1/relu
I1211 10:50:59.584117   574 net.cpp:434] conv2-1/relu <- conv2-1
I1211 10:50:59.584133   574 net.cpp:395] conv2-1/relu -> conv2-1 (in-place)
I1211 10:50:59.584781   574 net.cpp:150] Setting up conv2-1/relu
I1211 10:50:59.584811   574 net.cpp:157] Top shape: 32 16 80 80 (3276800)
I1211 10:50:59.584823   574 net.cpp:165] Memory required for data: 440776736
I1211 10:50:59.584836   574 layer_factory.hpp:77] Creating layer conv2-2
I1211 10:50:59.584861   574 net.cpp:100] Creating Layer conv2-2
I1211 10:50:59.584873   574 net.cpp:434] conv2-2 <- conv2-1
I1211 10:50:59.584909   574 net.cpp:408] conv2-2 -> conv2-2
I1211 10:50:59.590963   574 net.cpp:150] Setting up conv2-2
I1211 10:50:59.591001   574 net.cpp:157] Top shape: 32 32 39 39 (1557504)
I1211 10:50:59.591013   574 net.cpp:165] Memory required for data: 447006752
I1211 10:50:59.591029   574 layer_factory.hpp:77] Creating layer conv2-2/bn
I1211 10:50:59.591044   574 net.cpp:100] Creating Layer conv2-2/bn
I1211 10:50:59.591056   574 net.cpp:434] conv2-2/bn <- conv2-2
I1211 10:50:59.591074   574 net.cpp:395] conv2-2/bn -> conv2-2 (in-place)
I1211 10:50:59.591301   574 net.cpp:150] Setting up conv2-2/bn
I1211 10:50:59.591320   574 net.cpp:157] Top shape: 32 32 39 39 (1557504)
I1211 10:50:59.591331   574 net.cpp:165] Memory required for data: 453236768
I1211 10:50:59.591351   574 layer_factory.hpp:77] Creating layer conv2-2/scale
I1211 10:50:59.591367   574 net.cpp:100] Creating Layer conv2-2/scale
I1211 10:50:59.591379   574 net.cpp:434] conv2-2/scale <- conv2-2
I1211 10:50:59.591405   574 net.cpp:395] conv2-2/scale -> conv2-2 (in-place)
I1211 10:50:59.591469   574 layer_factory.hpp:77] Creating layer conv2-2/scale
I1211 10:50:59.591619   574 net.cpp:150] Setting up conv2-2/scale
I1211 10:50:59.591637   574 net.cpp:157] Top shape: 32 32 39 39 (1557504)
I1211 10:50:59.591648   574 net.cpp:165] Memory required for data: 459466784
I1211 10:50:59.591672   574 layer_factory.hpp:77] Creating layer conv2-2/relu
I1211 10:50:59.591689   574 net.cpp:100] Creating Layer conv2-2/relu
I1211 10:50:59.591701   574 net.cpp:434] conv2-2/relu <- conv2-2
I1211 10:50:59.591714   574 net.cpp:395] conv2-2/relu -> conv2-2 (in-place)
I1211 10:50:59.593152   574 net.cpp:150] Setting up conv2-2/relu
I1211 10:50:59.593184   574 net.cpp:157] Top shape: 32 32 39 39 (1557504)
I1211 10:50:59.593195   574 net.cpp:165] Memory required for data: 465696800
I1211 10:50:59.593207   574 layer_factory.hpp:77] Creating layer pool2
I1211 10:50:59.593238   574 net.cpp:100] Creating Layer pool2
I1211 10:50:59.593253   574 net.cpp:434] pool2 <- conv2-2
I1211 10:50:59.593268   574 net.cpp:408] pool2 -> pool2
I1211 10:50:59.593358   574 net.cpp:150] Setting up pool2
I1211 10:50:59.593376   574 net.cpp:157] Top shape: 32 32 19 19 (369664)
I1211 10:50:59.593387   574 net.cpp:165] Memory required for data: 467175456
I1211 10:50:59.593400   574 layer_factory.hpp:77] Creating layer pool2_pool2_0_split
I1211 10:50:59.593417   574 net.cpp:100] Creating Layer pool2_pool2_0_split
I1211 10:50:59.593430   574 net.cpp:434] pool2_pool2_0_split <- pool2
I1211 10:50:59.593446   574 net.cpp:408] pool2_pool2_0_split -> pool2_pool2_0_split_0
I1211 10:50:59.593461   574 net.cpp:408] pool2_pool2_0_split -> pool2_pool2_0_split_1
I1211 10:50:59.593482   574 net.cpp:408] pool2_pool2_0_split -> pool2_pool2_0_split_2
I1211 10:50:59.593546   574 net.cpp:150] Setting up pool2_pool2_0_split
I1211 10:50:59.593564   574 net.cpp:157] Top shape: 32 32 19 19 (369664)
I1211 10:50:59.593576   574 net.cpp:157] Top shape: 32 32 19 19 (369664)
I1211 10:50:59.593588   574 net.cpp:157] Top shape: 32 32 19 19 (369664)
I1211 10:50:59.593600   574 net.cpp:165] Memory required for data: 471611424
I1211 10:50:59.593619   574 layer_factory.hpp:77] Creating layer conv3/incep0/conv
I1211 10:50:59.593646   574 net.cpp:100] Creating Layer conv3/incep0/conv
I1211 10:50:59.593658   574 net.cpp:434] conv3/incep0/conv <- pool2_pool2_0_split_0
I1211 10:50:59.593693   574 net.cpp:408] conv3/incep0/conv -> conv3/incep0/conv
I1211 10:50:59.598479   574 net.cpp:150] Setting up conv3/incep0/conv
I1211 10:50:59.598512   574 net.cpp:157] Top shape: 32 24 19 19 (277248)
I1211 10:50:59.598526   574 net.cpp:165] Memory required for data: 472720416
I1211 10:50:59.598541   574 layer_factory.hpp:77] Creating layer conv3/incep0/bn
I1211 10:50:59.598556   574 net.cpp:100] Creating Layer conv3/incep0/bn
I1211 10:50:59.598569   574 net.cpp:434] conv3/incep0/bn <- conv3/incep0/conv
I1211 10:50:59.598587   574 net.cpp:395] conv3/incep0/bn -> conv3/incep0/conv (in-place)
I1211 10:50:59.598814   574 net.cpp:150] Setting up conv3/incep0/bn
I1211 10:50:59.598834   574 net.cpp:157] Top shape: 32 24 19 19 (277248)
I1211 10:50:59.598845   574 net.cpp:165] Memory required for data: 473829408
I1211 10:50:59.598860   574 layer_factory.hpp:77] Creating layer conv3/incep0/bn_scale
I1211 10:50:59.598879   574 net.cpp:100] Creating Layer conv3/incep0/bn_scale
I1211 10:50:59.598896   574 net.cpp:434] conv3/incep0/bn_scale <- conv3/incep0/conv
I1211 10:50:59.598909   574 net.cpp:395] conv3/incep0/bn_scale -> conv3/incep0/conv (in-place)
I1211 10:50:59.598968   574 layer_factory.hpp:77] Creating layer conv3/incep0/bn_scale
I1211 10:50:59.599110   574 net.cpp:150] Setting up conv3/incep0/bn_scale
I1211 10:50:59.599128   574 net.cpp:157] Top shape: 32 24 19 19 (277248)
I1211 10:50:59.599139   574 net.cpp:165] Memory required for data: 474938400
I1211 10:50:59.599165   574 layer_factory.hpp:77] Creating layer conv3/incep0/relu
I1211 10:50:59.599182   574 net.cpp:100] Creating Layer conv3/incep0/relu
I1211 10:50:59.599195   574 net.cpp:434] conv3/incep0/relu <- conv3/incep0/conv
I1211 10:50:59.599208   574 net.cpp:395] conv3/incep0/relu -> conv3/incep0/conv (in-place)
I1211 10:50:59.600898   574 net.cpp:150] Setting up conv3/incep0/relu
I1211 10:50:59.600930   574 net.cpp:157] Top shape: 32 24 19 19 (277248)
I1211 10:50:59.600941   574 net.cpp:165] Memory required for data: 476047392
I1211 10:50:59.600953   574 layer_factory.hpp:77] Creating layer conv3/incep1/conv1
I1211 10:50:59.600975   574 net.cpp:100] Creating Layer conv3/incep1/conv1
I1211 10:50:59.600989   574 net.cpp:434] conv3/incep1/conv1 <- pool2_pool2_0_split_1
I1211 10:50:59.601006   574 net.cpp:408] conv3/incep1/conv1 -> conv3/incep1/conv1
I1211 10:50:59.608669   574 net.cpp:150] Setting up conv3/incep1/conv1
I1211 10:50:59.608703   574 net.cpp:157] Top shape: 32 16 19 19 (184832)
I1211 10:50:59.608714   574 net.cpp:165] Memory required for data: 476786720
I1211 10:50:59.608736   574 layer_factory.hpp:77] Creating layer conv3/incep1/bn1
I1211 10:50:59.608755   574 net.cpp:100] Creating Layer conv3/incep1/bn1
I1211 10:50:59.608768   574 net.cpp:434] conv3/incep1/bn1 <- conv3/incep1/conv1
I1211 10:50:59.608781   574 net.cpp:395] conv3/incep1/bn1 -> conv3/incep1/conv1 (in-place)
I1211 10:50:59.609005   574 net.cpp:150] Setting up conv3/incep1/bn1
I1211 10:50:59.609025   574 net.cpp:157] Top shape: 32 16 19 19 (184832)
I1211 10:50:59.609035   574 net.cpp:165] Memory required for data: 477526048
I1211 10:50:59.609069   574 layer_factory.hpp:77] Creating layer conv3/incep1/bn_scale1
I1211 10:50:59.609089   574 net.cpp:100] Creating Layer conv3/incep1/bn_scale1
I1211 10:50:59.609102   574 net.cpp:434] conv3/incep1/bn_scale1 <- conv3/incep1/conv1
I1211 10:50:59.609118   574 net.cpp:395] conv3/incep1/bn_scale1 -> conv3/incep1/conv1 (in-place)
I1211 10:50:59.609184   574 layer_factory.hpp:77] Creating layer conv3/incep1/bn_scale1
I1211 10:50:59.609326   574 net.cpp:150] Setting up conv3/incep1/bn_scale1
I1211 10:50:59.609345   574 net.cpp:157] Top shape: 32 16 19 19 (184832)
I1211 10:50:59.609356   574 net.cpp:165] Memory required for data: 478265376
I1211 10:50:59.609370   574 layer_factory.hpp:77] Creating layer conv3/incep1/relu1
I1211 10:50:59.609386   574 net.cpp:100] Creating Layer conv3/incep1/relu1
I1211 10:50:59.609400   574 net.cpp:434] conv3/incep1/relu1 <- conv3/incep1/conv1
I1211 10:50:59.609412   574 net.cpp:395] conv3/incep1/relu1 -> conv3/incep1/conv1 (in-place)
I1211 10:50:59.611187   574 net.cpp:150] Setting up conv3/incep1/relu1
I1211 10:50:59.611230   574 net.cpp:157] Top shape: 32 16 19 19 (184832)
I1211 10:50:59.611243   574 net.cpp:165] Memory required for data: 479004704
I1211 10:50:59.611254   574 layer_factory.hpp:77] Creating layer conv3/incep1/conv2
I1211 10:50:59.611287   574 net.cpp:100] Creating Layer conv3/incep1/conv2
I1211 10:50:59.611301   574 net.cpp:434] conv3/incep1/conv2 <- conv3/incep1/conv1
I1211 10:50:59.611317   574 net.cpp:408] conv3/incep1/conv2 -> conv3/incep1/conv2
I1211 10:50:59.619526   574 net.cpp:150] Setting up conv3/incep1/conv2
I1211 10:50:59.619559   574 net.cpp:157] Top shape: 32 24 19 19 (277248)
I1211 10:50:59.619572   574 net.cpp:165] Memory required for data: 480113696
I1211 10:50:59.619597   574 layer_factory.hpp:77] Creating layer conv3/incep1/bn2
I1211 10:50:59.619616   574 net.cpp:100] Creating Layer conv3/incep1/bn2
I1211 10:50:59.619628   574 net.cpp:434] conv3/incep1/bn2 <- conv3/incep1/conv2
I1211 10:50:59.619647   574 net.cpp:395] conv3/incep1/bn2 -> conv3/incep1/conv2 (in-place)
I1211 10:50:59.619882   574 net.cpp:150] Setting up conv3/incep1/bn2
I1211 10:50:59.619902   574 net.cpp:157] Top shape: 32 24 19 19 (277248)
I1211 10:50:59.619915   574 net.cpp:165] Memory required for data: 481222688
I1211 10:50:59.619930   574 layer_factory.hpp:77] Creating layer conv3/incep1/bn_scale2
I1211 10:50:59.619946   574 net.cpp:100] Creating Layer conv3/incep1/bn_scale2
I1211 10:50:59.619958   574 net.cpp:434] conv3/incep1/bn_scale2 <- conv3/incep1/conv2
I1211 10:50:59.619972   574 net.cpp:395] conv3/incep1/bn_scale2 -> conv3/incep1/conv2 (in-place)
I1211 10:50:59.620033   574 layer_factory.hpp:77] Creating layer conv3/incep1/bn_scale2
I1211 10:50:59.620173   574 net.cpp:150] Setting up conv3/incep1/bn_scale2
I1211 10:50:59.620191   574 net.cpp:157] Top shape: 32 24 19 19 (277248)
I1211 10:50:59.620203   574 net.cpp:165] Memory required for data: 482331680
I1211 10:50:59.620218   574 layer_factory.hpp:77] Creating layer conv3/incep1/relu2
I1211 10:50:59.620231   574 net.cpp:100] Creating Layer conv3/incep1/relu2
I1211 10:50:59.620244   574 net.cpp:434] conv3/incep1/relu2 <- conv3/incep1/conv2
I1211 10:50:59.620260   574 net.cpp:395] conv3/incep1/relu2 -> conv3/incep1/conv2 (in-place)
I1211 10:50:59.621870   574 net.cpp:150] Setting up conv3/incep1/relu2
I1211 10:50:59.621943   574 net.cpp:157] Top shape: 32 24 19 19 (277248)
I1211 10:50:59.621953   574 net.cpp:165] Memory required for data: 483440672
I1211 10:50:59.621968   574 layer_factory.hpp:77] Creating layer conv3/incep2/conv1
I1211 10:50:59.622002   574 net.cpp:100] Creating Layer conv3/incep2/conv1
I1211 10:50:59.622015   574 net.cpp:434] conv3/incep2/conv1 <- pool2_pool2_0_split_2
I1211 10:50:59.622035   574 net.cpp:408] conv3/incep2/conv1 -> conv3/incep2/conv1
I1211 10:50:59.627924   574 net.cpp:150] Setting up conv3/incep2/conv1
I1211 10:50:59.627951   574 net.cpp:157] Top shape: 32 16 19 19 (184832)
I1211 10:50:59.627959   574 net.cpp:165] Memory required for data: 484180000
I1211 10:50:59.627974   574 layer_factory.hpp:77] Creating layer conv3/incep2/bn1
I1211 10:50:59.627991   574 net.cpp:100] Creating Layer conv3/incep2/bn1
I1211 10:50:59.628000   574 net.cpp:434] conv3/incep2/bn1 <- conv3/incep2/conv1
I1211 10:50:59.628013   574 net.cpp:395] conv3/incep2/bn1 -> conv3/incep2/conv1 (in-place)
I1211 10:50:59.628417   574 net.cpp:150] Setting up conv3/incep2/bn1
I1211 10:50:59.628433   574 net.cpp:157] Top shape: 32 16 19 19 (184832)
I1211 10:50:59.628439   574 net.cpp:165] Memory required for data: 484919328
I1211 10:50:59.628453   574 layer_factory.hpp:77] Creating layer conv3/incep2/bn_scale1
I1211 10:50:59.628468   574 net.cpp:100] Creating Layer conv3/incep2/bn_scale1
I1211 10:50:59.628475   574 net.cpp:434] conv3/incep2/bn_scale1 <- conv3/incep2/conv1
I1211 10:50:59.628489   574 net.cpp:395] conv3/incep2/bn_scale1 -> conv3/incep2/conv1 (in-place)
I1211 10:50:59.628579   574 layer_factory.hpp:77] Creating layer conv3/incep2/bn_scale1
I1211 10:50:59.628820   574 net.cpp:150] Setting up conv3/incep2/bn_scale1
I1211 10:50:59.628867   574 net.cpp:157] Top shape: 32 16 19 19 (184832)
I1211 10:50:59.628873   574 net.cpp:165] Memory required for data: 485658656
I1211 10:50:59.628888   574 layer_factory.hpp:77] Creating layer conv3/incep2/relu1
I1211 10:50:59.628902   574 net.cpp:100] Creating Layer conv3/incep2/relu1
I1211 10:50:59.628911   574 net.cpp:434] conv3/incep2/relu1 <- conv3/incep2/conv1
I1211 10:50:59.628923   574 net.cpp:395] conv3/incep2/relu1 -> conv3/incep2/conv1 (in-place)
I1211 10:50:59.629295   574 net.cpp:150] Setting up conv3/incep2/relu1
I1211 10:50:59.629315   574 net.cpp:157] Top shape: 32 16 19 19 (184832)
I1211 10:50:59.629321   574 net.cpp:165] Memory required for data: 486397984
I1211 10:50:59.629328   574 layer_factory.hpp:77] Creating layer conv3/incep2/conv2
I1211 10:50:59.629361   574 net.cpp:100] Creating Layer conv3/incep2/conv2
I1211 10:50:59.629371   574 net.cpp:434] conv3/incep2/conv2 <- conv3/incep2/conv1
I1211 10:50:59.629384   574 net.cpp:408] conv3/incep2/conv2 -> conv3/incep2/conv2
I1211 10:50:59.633903   574 net.cpp:150] Setting up conv3/incep2/conv2
I1211 10:50:59.633929   574 net.cpp:157] Top shape: 32 24 19 19 (277248)
I1211 10:50:59.633937   574 net.cpp:165] Memory required for data: 487506976
I1211 10:50:59.633950   574 layer_factory.hpp:77] Creating layer conv3/incep2/bn2
I1211 10:50:59.633966   574 net.cpp:100] Creating Layer conv3/incep2/bn2
I1211 10:50:59.633975   574 net.cpp:434] conv3/incep2/bn2 <- conv3/incep2/conv2
I1211 10:50:59.633986   574 net.cpp:395] conv3/incep2/bn2 -> conv3/incep2/conv2 (in-place)
I1211 10:50:59.634385   574 net.cpp:150] Setting up conv3/incep2/bn2
I1211 10:50:59.634400   574 net.cpp:157] Top shape: 32 24 19 19 (277248)
I1211 10:50:59.634410   574 net.cpp:165] Memory required for data: 488615968
I1211 10:50:59.634424   574 layer_factory.hpp:77] Creating layer conv3/incep2/bn_scale2
I1211 10:50:59.634438   574 net.cpp:100] Creating Layer conv3/incep2/bn_scale2
I1211 10:50:59.634446   574 net.cpp:434] conv3/incep2/bn_scale2 <- conv3/incep2/conv2
I1211 10:50:59.634459   574 net.cpp:395] conv3/incep2/bn_scale2 -> conv3/incep2/conv2 (in-place)
I1211 10:50:59.634546   574 layer_factory.hpp:77] Creating layer conv3/incep2/bn_scale2
I1211 10:50:59.634776   574 net.cpp:150] Setting up conv3/incep2/bn_scale2
I1211 10:50:59.634790   574 net.cpp:157] Top shape: 32 24 19 19 (277248)
I1211 10:50:59.634796   574 net.cpp:165] Memory required for data: 489724960
I1211 10:50:59.634807   574 layer_factory.hpp:77] Creating layer conv3/incep2/relu2
I1211 10:50:59.634827   574 net.cpp:100] Creating Layer conv3/incep2/relu2
I1211 10:50:59.634837   574 net.cpp:434] conv3/incep2/relu2 <- conv3/incep2/conv2
I1211 10:50:59.634894   574 net.cpp:395] conv3/incep2/relu2 -> conv3/incep2/conv2 (in-place)
I1211 10:50:59.635926   574 net.cpp:150] Setting up conv3/incep2/relu2
I1211 10:50:59.635948   574 net.cpp:157] Top shape: 32 24 19 19 (277248)
I1211 10:50:59.635956   574 net.cpp:165] Memory required for data: 490833952
I1211 10:50:59.635962   574 layer_factory.hpp:77] Creating layer conv3/incep2/conv3
I1211 10:50:59.635984   574 net.cpp:100] Creating Layer conv3/incep2/conv3
I1211 10:50:59.635993   574 net.cpp:434] conv3/incep2/conv3 <- conv3/incep2/conv2
I1211 10:50:59.636006   574 net.cpp:408] conv3/incep2/conv3 -> conv3/incep2/conv3
I1211 10:50:59.642675   574 net.cpp:150] Setting up conv3/incep2/conv3
I1211 10:50:59.642710   574 net.cpp:157] Top shape: 32 24 19 19 (277248)
I1211 10:50:59.642717   574 net.cpp:165] Memory required for data: 491942944
I1211 10:50:59.642730   574 layer_factory.hpp:77] Creating layer conv3/incep2/bn3
I1211 10:50:59.642745   574 net.cpp:100] Creating Layer conv3/incep2/bn3
I1211 10:50:59.642755   574 net.cpp:434] conv3/incep2/bn3 <- conv3/incep2/conv3
I1211 10:50:59.642766   574 net.cpp:395] conv3/incep2/bn3 -> conv3/incep2/conv3 (in-place)
I1211 10:50:59.643141   574 net.cpp:150] Setting up conv3/incep2/bn3
I1211 10:50:59.643154   574 net.cpp:157] Top shape: 32 24 19 19 (277248)
I1211 10:50:59.643160   574 net.cpp:165] Memory required for data: 493051936
I1211 10:50:59.643194   574 layer_factory.hpp:77] Creating layer conv3/incep2/bn_scale3
I1211 10:50:59.643210   574 net.cpp:100] Creating Layer conv3/incep2/bn_scale3
I1211 10:50:59.643219   574 net.cpp:434] conv3/incep2/bn_scale3 <- conv3/incep2/conv3
I1211 10:50:59.643231   574 net.cpp:395] conv3/incep2/bn_scale3 -> conv3/incep2/conv3 (in-place)
I1211 10:50:59.643311   574 layer_factory.hpp:77] Creating layer conv3/incep2/bn_scale3
I1211 10:50:59.643532   574 net.cpp:150] Setting up conv3/incep2/bn_scale3
I1211 10:50:59.643546   574 net.cpp:157] Top shape: 32 24 19 19 (277248)
I1211 10:50:59.643551   574 net.cpp:165] Memory required for data: 494160928
I1211 10:50:59.643563   574 layer_factory.hpp:77] Creating layer conv3/incep2/relu3
I1211 10:50:59.643573   574 net.cpp:100] Creating Layer conv3/incep2/relu3
I1211 10:50:59.643580   574 net.cpp:434] conv3/incep2/relu3 <- conv3/incep2/conv3
I1211 10:50:59.643592   574 net.cpp:395] conv3/incep2/relu3 -> conv3/incep2/conv3 (in-place)
I1211 10:50:59.644611   574 net.cpp:150] Setting up conv3/incep2/relu3
I1211 10:50:59.644635   574 net.cpp:157] Top shape: 32 24 19 19 (277248)
I1211 10:50:59.644641   574 net.cpp:165] Memory required for data: 495269920
I1211 10:50:59.644647   574 layer_factory.hpp:77] Creating layer conv3/incep
I1211 10:50:59.644661   574 net.cpp:100] Creating Layer conv3/incep
I1211 10:50:59.644670   574 net.cpp:434] conv3/incep <- conv3/incep0/conv
I1211 10:50:59.644678   574 net.cpp:434] conv3/incep <- conv3/incep1/conv2
I1211 10:50:59.644686   574 net.cpp:434] conv3/incep <- conv3/incep2/conv3
I1211 10:50:59.644700   574 net.cpp:408] conv3/incep -> conv3/incep
I1211 10:50:59.644757   574 net.cpp:150] Setting up conv3/incep
I1211 10:50:59.644771   574 net.cpp:157] Top shape: 32 72 19 19 (831744)
I1211 10:50:59.644776   574 net.cpp:165] Memory required for data: 498596896
I1211 10:50:59.644783   574 layer_factory.hpp:77] Creating layer conv3/incep_conv3/incep_0_split
I1211 10:50:59.644798   574 net.cpp:100] Creating Layer conv3/incep_conv3/incep_0_split
I1211 10:50:59.644805   574 net.cpp:434] conv3/incep_conv3/incep_0_split <- conv3/incep
I1211 10:50:59.644817   574 net.cpp:408] conv3/incep_conv3/incep_0_split -> conv3/incep_conv3/incep_0_split_0
I1211 10:50:59.644831   574 net.cpp:408] conv3/incep_conv3/incep_0_split -> conv3/incep_conv3/incep_0_split_1
I1211 10:50:59.644845   574 net.cpp:408] conv3/incep_conv3/incep_0_split -> conv3/incep_conv3/incep_0_split_2
I1211 10:50:59.644935   574 net.cpp:150] Setting up conv3/incep_conv3/incep_0_split
I1211 10:50:59.644948   574 net.cpp:157] Top shape: 32 72 19 19 (831744)
I1211 10:50:59.644955   574 net.cpp:157] Top shape: 32 72 19 19 (831744)
I1211 10:50:59.644961   574 net.cpp:157] Top shape: 32 72 19 19 (831744)
I1211 10:50:59.644968   574 net.cpp:165] Memory required for data: 508577824
I1211 10:50:59.644973   574 layer_factory.hpp:77] Creating layer conv5/incep0/conv
I1211 10:50:59.644994   574 net.cpp:100] Creating Layer conv5/incep0/conv
I1211 10:50:59.645002   574 net.cpp:434] conv5/incep0/conv <- conv3/incep_conv3/incep_0_split_0
I1211 10:50:59.645015   574 net.cpp:408] conv5/incep0/conv -> conv5/incep0/conv
I1211 10:50:59.650817   574 net.cpp:150] Setting up conv5/incep0/conv
I1211 10:50:59.650840   574 net.cpp:157] Top shape: 32 24 19 19 (277248)
I1211 10:50:59.650846   574 net.cpp:165] Memory required for data: 509686816
I1211 10:50:59.650876   574 layer_factory.hpp:77] Creating layer conv5/incep0/bn
I1211 10:50:59.650889   574 net.cpp:100] Creating Layer conv5/incep0/bn
I1211 10:50:59.650898   574 net.cpp:434] conv5/incep0/bn <- conv5/incep0/conv
I1211 10:50:59.650910   574 net.cpp:395] conv5/incep0/bn -> conv5/incep0/conv (in-place)
I1211 10:50:59.651255   574 net.cpp:150] Setting up conv5/incep0/bn
I1211 10:50:59.651269   574 net.cpp:157] Top shape: 32 24 19 19 (277248)
I1211 10:50:59.651274   574 net.cpp:165] Memory required for data: 510795808
I1211 10:50:59.651289   574 layer_factory.hpp:77] Creating layer conv5/incep0/bn_scale
I1211 10:50:59.651300   574 net.cpp:100] Creating Layer conv5/incep0/bn_scale
I1211 10:50:59.651325   574 net.cpp:434] conv5/incep0/bn_scale <- conv5/incep0/conv
I1211 10:50:59.651338   574 net.cpp:395] conv5/incep0/bn_scale -> conv5/incep0/conv (in-place)
I1211 10:50:59.651419   574 layer_factory.hpp:77] Creating layer conv5/incep0/bn_scale
I1211 10:50:59.651623   574 net.cpp:150] Setting up conv5/incep0/bn_scale
I1211 10:50:59.651636   574 net.cpp:157] Top shape: 32 24 19 19 (277248)
I1211 10:50:59.651643   574 net.cpp:165] Memory required for data: 511904800
I1211 10:50:59.651652   574 layer_factory.hpp:77] Creating layer conv5/incep0/relu
I1211 10:50:59.651664   574 net.cpp:100] Creating Layer conv5/incep0/relu
I1211 10:50:59.651669   574 net.cpp:434] conv5/incep0/relu <- conv5/incep0/conv
I1211 10:50:59.651680   574 net.cpp:395] conv5/incep0/relu -> conv5/incep0/conv (in-place)
I1211 10:50:59.652268   574 net.cpp:150] Setting up conv5/incep0/relu
I1211 10:50:59.652285   574 net.cpp:157] Top shape: 32 24 19 19 (277248)
I1211 10:50:59.652292   574 net.cpp:165] Memory required for data: 513013792
I1211 10:50:59.652297   574 layer_factory.hpp:77] Creating layer conv5/incep1/conv1
I1211 10:50:59.652315   574 net.cpp:100] Creating Layer conv5/incep1/conv1
I1211 10:50:59.652323   574 net.cpp:434] conv5/incep1/conv1 <- conv3/incep_conv3/incep_0_split_1
I1211 10:50:59.652339   574 net.cpp:408] conv5/incep1/conv1 -> conv5/incep1/conv1
I1211 10:50:59.659152   574 net.cpp:150] Setting up conv5/incep1/conv1
I1211 10:50:59.659176   574 net.cpp:157] Top shape: 32 16 19 19 (184832)
I1211 10:50:59.659183   574 net.cpp:165] Memory required for data: 513753120
I1211 10:50:59.659196   574 layer_factory.hpp:77] Creating layer conv5/incep1/bn1
I1211 10:50:59.659210   574 net.cpp:100] Creating Layer conv5/incep1/bn1
I1211 10:50:59.659219   574 net.cpp:434] conv5/incep1/bn1 <- conv5/incep1/conv1
I1211 10:50:59.659232   574 net.cpp:395] conv5/incep1/bn1 -> conv5/incep1/conv1 (in-place)
I1211 10:50:59.659584   574 net.cpp:150] Setting up conv5/incep1/bn1
I1211 10:50:59.659597   574 net.cpp:157] Top shape: 32 16 19 19 (184832)
I1211 10:50:59.659602   574 net.cpp:165] Memory required for data: 514492448
I1211 10:50:59.659615   574 layer_factory.hpp:77] Creating layer conv5/incep1/bn_scale1
I1211 10:50:59.659626   574 net.cpp:100] Creating Layer conv5/incep1/bn_scale1
I1211 10:50:59.659631   574 net.cpp:434] conv5/incep1/bn_scale1 <- conv5/incep1/conv1
I1211 10:50:59.659641   574 net.cpp:395] conv5/incep1/bn_scale1 -> conv5/incep1/conv1 (in-place)
I1211 10:50:59.659716   574 layer_factory.hpp:77] Creating layer conv5/incep1/bn_scale1
I1211 10:50:59.659921   574 net.cpp:150] Setting up conv5/incep1/bn_scale1
I1211 10:50:59.659934   574 net.cpp:157] Top shape: 32 16 19 19 (184832)
I1211 10:50:59.659940   574 net.cpp:165] Memory required for data: 515231776
I1211 10:50:59.659950   574 layer_factory.hpp:77] Creating layer conv5/incep1/relu1
I1211 10:50:59.659962   574 net.cpp:100] Creating Layer conv5/incep1/relu1
I1211 10:50:59.659968   574 net.cpp:434] conv5/incep1/relu1 <- conv5/incep1/conv1
I1211 10:50:59.659979   574 net.cpp:395] conv5/incep1/relu1 -> conv5/incep1/conv1 (in-place)
I1211 10:50:59.661519   574 net.cpp:150] Setting up conv5/incep1/relu1
I1211 10:50:59.661538   574 net.cpp:157] Top shape: 32 16 19 19 (184832)
I1211 10:50:59.661545   574 net.cpp:165] Memory required for data: 515971104
I1211 10:50:59.661550   574 layer_factory.hpp:77] Creating layer conv5/incep1/conv2
I1211 10:50:59.661567   574 net.cpp:100] Creating Layer conv5/incep1/conv2
I1211 10:50:59.661574   574 net.cpp:434] conv5/incep1/conv2 <- conv5/incep1/conv1
I1211 10:50:59.661587   574 net.cpp:408] conv5/incep1/conv2 -> conv5/incep1/conv2
I1211 10:50:59.669271   574 net.cpp:150] Setting up conv5/incep1/conv2
I1211 10:50:59.669301   574 net.cpp:157] Top shape: 32 24 19 19 (277248)
I1211 10:50:59.669307   574 net.cpp:165] Memory required for data: 517080096
I1211 10:50:59.669318   574 layer_factory.hpp:77] Creating layer conv5/incep1/bn2
I1211 10:50:59.669332   574 net.cpp:100] Creating Layer conv5/incep1/bn2
I1211 10:50:59.669338   574 net.cpp:434] conv5/incep1/bn2 <- conv5/incep1/conv2
I1211 10:50:59.669365   574 net.cpp:395] conv5/incep1/bn2 -> conv5/incep1/conv2 (in-place)
I1211 10:50:59.669700   574 net.cpp:150] Setting up conv5/incep1/bn2
I1211 10:50:59.669713   574 net.cpp:157] Top shape: 32 24 19 19 (277248)
I1211 10:50:59.669718   574 net.cpp:165] Memory required for data: 518189088
I1211 10:50:59.669730   574 layer_factory.hpp:77] Creating layer conv5/incep1/bn_scale2
I1211 10:50:59.669744   574 net.cpp:100] Creating Layer conv5/incep1/bn_scale2
I1211 10:50:59.669749   574 net.cpp:434] conv5/incep1/bn_scale2 <- conv5/incep1/conv2
I1211 10:50:59.669760   574 net.cpp:395] conv5/incep1/bn_scale2 -> conv5/incep1/conv2 (in-place)
I1211 10:50:59.669831   574 layer_factory.hpp:77] Creating layer conv5/incep1/bn_scale2
I1211 10:50:59.670027   574 net.cpp:150] Setting up conv5/incep1/bn_scale2
I1211 10:50:59.670038   574 net.cpp:157] Top shape: 32 24 19 19 (277248)
I1211 10:50:59.670042   574 net.cpp:165] Memory required for data: 519298080
I1211 10:50:59.670053   574 layer_factory.hpp:77] Creating layer conv5/incep1/relu2
I1211 10:50:59.670065   574 net.cpp:100] Creating Layer conv5/incep1/relu2
I1211 10:50:59.670073   574 net.cpp:434] conv5/incep1/relu2 <- conv5/incep1/conv2
I1211 10:50:59.670081   574 net.cpp:395] conv5/incep1/relu2 -> conv5/incep1/conv2 (in-place)
I1211 10:50:59.671669   574 net.cpp:150] Setting up conv5/incep1/relu2
I1211 10:50:59.671689   574 net.cpp:157] Top shape: 32 24 19 19 (277248)
I1211 10:50:59.671695   574 net.cpp:165] Memory required for data: 520407072
I1211 10:50:59.671700   574 layer_factory.hpp:77] Creating layer conv5/incep2/conv1
I1211 10:50:59.671720   574 net.cpp:100] Creating Layer conv5/incep2/conv1
I1211 10:50:59.671727   574 net.cpp:434] conv5/incep2/conv1 <- conv3/incep_conv3/incep_0_split_2
I1211 10:50:59.671741   574 net.cpp:408] conv5/incep2/conv1 -> conv5/incep2/conv1
I1211 10:50:59.679496   574 net.cpp:150] Setting up conv5/incep2/conv1
I1211 10:50:59.679515   574 net.cpp:157] Top shape: 32 16 19 19 (184832)
I1211 10:50:59.679522   574 net.cpp:165] Memory required for data: 521146400
I1211 10:50:59.679531   574 layer_factory.hpp:77] Creating layer conv5/incep2/bn1
I1211 10:50:59.679545   574 net.cpp:100] Creating Layer conv5/incep2/bn1
I1211 10:50:59.679551   574 net.cpp:434] conv5/incep2/bn1 <- conv5/incep2/conv1
I1211 10:50:59.679563   574 net.cpp:395] conv5/incep2/bn1 -> conv5/incep2/conv1 (in-place)
I1211 10:50:59.679874   574 net.cpp:150] Setting up conv5/incep2/bn1
I1211 10:50:59.679885   574 net.cpp:157] Top shape: 32 16 19 19 (184832)
I1211 10:50:59.679890   574 net.cpp:165] Memory required for data: 521885728
I1211 10:50:59.679903   574 layer_factory.hpp:77] Creating layer conv5/incep2/bn_scale1
I1211 10:50:59.679914   574 net.cpp:100] Creating Layer conv5/incep2/bn_scale1
I1211 10:50:59.679921   574 net.cpp:434] conv5/incep2/bn_scale1 <- conv5/incep2/conv1
I1211 10:50:59.679929   574 net.cpp:395] conv5/incep2/bn_scale1 -> conv5/incep2/conv1 (in-place)
I1211 10:50:59.679993   574 layer_factory.hpp:77] Creating layer conv5/incep2/bn_scale1
I1211 10:50:59.680186   574 net.cpp:150] Setting up conv5/incep2/bn_scale1
I1211 10:50:59.680197   574 net.cpp:157] Top shape: 32 16 19 19 (184832)
I1211 10:50:59.680202   574 net.cpp:165] Memory required for data: 522625056
I1211 10:50:59.680210   574 layer_factory.hpp:77] Creating layer conv5/incep2/relu1
I1211 10:50:59.680219   574 net.cpp:100] Creating Layer conv5/incep2/relu1
I1211 10:50:59.680227   574 net.cpp:434] conv5/incep2/relu1 <- conv5/incep2/conv1
I1211 10:50:59.680235   574 net.cpp:395] conv5/incep2/relu1 -> conv5/incep2/conv1 (in-place)
I1211 10:50:59.681452   574 net.cpp:150] Setting up conv5/incep2/relu1
I1211 10:50:59.681468   574 net.cpp:157] Top shape: 32 16 19 19 (184832)
I1211 10:50:59.681473   574 net.cpp:165] Memory required for data: 523364384
I1211 10:50:59.681478   574 layer_factory.hpp:77] Creating layer conv5/incep2/conv2
I1211 10:50:59.681494   574 net.cpp:100] Creating Layer conv5/incep2/conv2
I1211 10:50:59.681500   574 net.cpp:434] conv5/incep2/conv2 <- conv5/incep2/conv1
I1211 10:50:59.681529   574 net.cpp:408] conv5/incep2/conv2 -> conv5/incep2/conv2
I1211 10:50:59.687178   574 net.cpp:150] Setting up conv5/incep2/conv2
I1211 10:50:59.687201   574 net.cpp:157] Top shape: 32 24 19 19 (277248)
I1211 10:50:59.687206   574 net.cpp:165] Memory required for data: 524473376
I1211 10:50:59.687217   574 layer_factory.hpp:77] Creating layer conv5/incep2/bn2
I1211 10:50:59.687227   574 net.cpp:100] Creating Layer conv5/incep2/bn2
I1211 10:50:59.687233   574 net.cpp:434] conv5/incep2/bn2 <- conv5/incep2/conv2
I1211 10:50:59.687243   574 net.cpp:395] conv5/incep2/bn2 -> conv5/incep2/conv2 (in-place)
I1211 10:50:59.687541   574 net.cpp:150] Setting up conv5/incep2/bn2
I1211 10:50:59.687552   574 net.cpp:157] Top shape: 32 24 19 19 (277248)
I1211 10:50:59.687556   574 net.cpp:165] Memory required for data: 525582368
I1211 10:50:59.687567   574 layer_factory.hpp:77] Creating layer conv5/incep2/bn_scale2
I1211 10:50:59.687579   574 net.cpp:100] Creating Layer conv5/incep2/bn_scale2
I1211 10:50:59.687585   574 net.cpp:434] conv5/incep2/bn_scale2 <- conv5/incep2/conv2
I1211 10:50:59.687593   574 net.cpp:395] conv5/incep2/bn_scale2 -> conv5/incep2/conv2 (in-place)
I1211 10:50:59.687657   574 layer_factory.hpp:77] Creating layer conv5/incep2/bn_scale2
I1211 10:50:59.687839   574 net.cpp:150] Setting up conv5/incep2/bn_scale2
I1211 10:50:59.687850   574 net.cpp:157] Top shape: 32 24 19 19 (277248)
I1211 10:50:59.687855   574 net.cpp:165] Memory required for data: 526691360
I1211 10:50:59.687863   574 layer_factory.hpp:77] Creating layer conv5/incep2/relu2
I1211 10:50:59.687875   574 net.cpp:100] Creating Layer conv5/incep2/relu2
I1211 10:50:59.687880   574 net.cpp:434] conv5/incep2/relu2 <- conv5/incep2/conv2
I1211 10:50:59.687887   574 net.cpp:395] conv5/incep2/relu2 -> conv5/incep2/conv2 (in-place)
I1211 10:50:59.688704   574 net.cpp:150] Setting up conv5/incep2/relu2
I1211 10:50:59.688722   574 net.cpp:157] Top shape: 32 24 19 19 (277248)
I1211 10:50:59.688726   574 net.cpp:165] Memory required for data: 527800352
I1211 10:50:59.688733   574 layer_factory.hpp:77] Creating layer conv5/incep2/conv3
I1211 10:50:59.688750   574 net.cpp:100] Creating Layer conv5/incep2/conv3
I1211 10:50:59.688757   574 net.cpp:434] conv5/incep2/conv3 <- conv5/incep2/conv2
I1211 10:50:59.688769   574 net.cpp:408] conv5/incep2/conv3 -> conv5/incep2/conv3
I1211 10:50:59.692888   574 net.cpp:150] Setting up conv5/incep2/conv3
I1211 10:50:59.692908   574 net.cpp:157] Top shape: 32 24 19 19 (277248)
I1211 10:50:59.692912   574 net.cpp:165] Memory required for data: 528909344
I1211 10:50:59.692922   574 layer_factory.hpp:77] Creating layer conv5/incep2/bn3
I1211 10:50:59.692935   574 net.cpp:100] Creating Layer conv5/incep2/bn3
I1211 10:50:59.692941   574 net.cpp:434] conv5/incep2/bn3 <- conv5/incep2/conv3
I1211 10:50:59.692952   574 net.cpp:395] conv5/incep2/bn3 -> conv5/incep2/conv3 (in-place)
I1211 10:50:59.693255   574 net.cpp:150] Setting up conv5/incep2/bn3
I1211 10:50:59.693266   574 net.cpp:157] Top shape: 32 24 19 19 (277248)
I1211 10:50:59.693270   574 net.cpp:165] Memory required for data: 530018336
I1211 10:50:59.693280   574 layer_factory.hpp:77] Creating layer conv5/incep2/bn_scale3
I1211 10:50:59.693305   574 net.cpp:100] Creating Layer conv5/incep2/bn_scale3
I1211 10:50:59.693310   574 net.cpp:434] conv5/incep2/bn_scale3 <- conv5/incep2/conv3
I1211 10:50:59.693318   574 net.cpp:395] conv5/incep2/bn_scale3 -> conv5/incep2/conv3 (in-place)
I1211 10:50:59.693382   574 layer_factory.hpp:77] Creating layer conv5/incep2/bn_scale3
I1211 10:50:59.693557   574 net.cpp:150] Setting up conv5/incep2/bn_scale3
I1211 10:50:59.693568   574 net.cpp:157] Top shape: 32 24 19 19 (277248)
I1211 10:50:59.693573   574 net.cpp:165] Memory required for data: 531127328
I1211 10:50:59.693583   574 layer_factory.hpp:77] Creating layer conv5/incep2/relu3
I1211 10:50:59.693640   574 net.cpp:100] Creating Layer conv5/incep2/relu3
I1211 10:50:59.693675   574 net.cpp:434] conv5/incep2/relu3 <- conv5/incep2/conv3
I1211 10:50:59.693709   574 net.cpp:395] conv5/incep2/relu3 -> conv5/incep2/conv3 (in-place)
I1211 10:50:59.694591   574 net.cpp:150] Setting up conv5/incep2/relu3
I1211 10:50:59.694636   574 net.cpp:157] Top shape: 32 24 19 19 (277248)
I1211 10:50:59.694658   574 net.cpp:165] Memory required for data: 532236320
I1211 10:50:59.694676   574 layer_factory.hpp:77] Creating layer conv5/incep
I1211 10:50:59.694705   574 net.cpp:100] Creating Layer conv5/incep
I1211 10:50:59.694728   574 net.cpp:434] conv5/incep <- conv5/incep0/conv
I1211 10:50:59.694752   574 net.cpp:434] conv5/incep <- conv5/incep1/conv2
I1211 10:50:59.694775   574 net.cpp:434] conv5/incep <- conv5/incep2/conv3
I1211 10:50:59.694800   574 net.cpp:408] conv5/incep -> conv5/incep
I1211 10:50:59.694875   574 net.cpp:150] Setting up conv5/incep
I1211 10:50:59.694905   574 net.cpp:157] Top shape: 32 72 19 19 (831744)
I1211 10:50:59.694923   574 net.cpp:165] Memory required for data: 535563296
I1211 10:50:59.694943   574 layer_factory.hpp:77] Creating layer conv5/incep_conv5/incep_0_split
I1211 10:50:59.694972   574 net.cpp:100] Creating Layer conv5/incep_conv5/incep_0_split
I1211 10:50:59.694993   574 net.cpp:434] conv5/incep_conv5/incep_0_split <- conv5/incep
I1211 10:50:59.695019   574 net.cpp:408] conv5/incep_conv5/incep_0_split -> conv5/incep_conv5/incep_0_split_0
…
I1211 10:50:59.695175   574 net.cpp:408] conv5/incep_conv5/incep_0_split -> conv5/incep_conv5/incep_0_split_5
I1211 10:50:59.695202   574 net.cpp:408] conv5/incep_conv5/incep_0_split -> conv5/incep_conv5/incep_0_split_6
I1211 10:50:59.695228   574 net.cpp:408] conv5/incep_conv5/incep_0_split -> conv5/incep_conv5/incep_0_split_7
I1211 10:50:59.695255   574 net.cpp:408] conv5/incep_conv5/incep_0_split -> conv5/incep_conv5/incep_0_split_8
I1211 10:50:59.695283   574 net.cpp:408] conv5/incep_conv5/incep_0_split -> conv5/incep_conv5/incep_0_split_9
I1211 10:50:59.695492   574 net.cpp:150] Setting up conv5/incep_conv5/incep_0_split
I1211 10:50:59.695520   574 net.cpp:157] Top shape: 32 72 19 19 (831744)
I1211 10:50:59.695542   574 net.cpp:157] Top shape: 32 72 19 19 (831744)
I1211 10:50:59.695564   574 net.cpp:157] Top shape: 32 72 19 19 (831744)
I1211 10:50:59.695585   574 net.cpp:157] Top shape: 32 72 19 19 (831744)
I1211 10:50:59.695605   574 net.cpp:157] Top shape: 32 72 19 19 (831744)
I1211 10:50:59.695626   574 net.cpp:157] Top shape: 32 72 19 19 (831744)
I1211 10:50:59.695646   574 net.cpp:157] Top shape: 32 72 19 19 (831744)
I1211 10:50:59.695665   574 net.cpp:157] Top shape: 32 72 19 19 (831744)
I1211 10:50:59.695686   574 net.cpp:157] Top shape: 32 72 19 19 (831744)
I1211 10:50:59.695706   574 net.cpp:157] Top shape: 32 72 19 19 (831744)
I1211 10:50:59.695724   574 net.cpp:165] Memory required for data: 568833056
I1211 10:50:59.695746   574 layer_factory.hpp:77] Creating layer Inception3/conv/loc1
I1211 10:50:59.695778   574 net.cpp:100] Creating Layer Inception3/conv/loc1
I1211 10:50:59.695801   574 net.cpp:434] Inception3/conv/loc1 <- conv5/incep_conv5/incep_0_split_0
I1211 10:50:59.695827   574 net.cpp:408] Inception3/conv/loc1 -> Inception3/conv/loc1
I1211 10:50:59.701632   574 net.cpp:150] Setting up Inception3/conv/loc1
I1211 10:50:59.701679   574 net.cpp:157] Top shape: 32 4 19 19 (46208)
I1211 10:50:59.701701   574 net.cpp:165] Memory required for data: 569017888
I1211 10:50:59.701731   574 layer_factory.hpp:77] Creating layer Inception3/conv/loc1/perm
I1211 10:50:59.701759   574 net.cpp:100] Creating Layer Inception3/conv/loc1/perm
I1211 10:50:59.701781   574 net.cpp:434] Inception3/conv/loc1/perm <- Inception3/conv/loc1
I1211 10:50:59.701823   574 net.cpp:408] Inception3/conv/loc1/perm -> Inception3/conv/loc1/perm
I1211 10:50:59.702026   574 net.cpp:150] Setting up Inception3/conv/loc1/perm
I1211 10:50:59.702059   574 net.cpp:157] Top shape: 32 19 19 4 (46208)
I1211 10:50:59.702078   574 net.cpp:165] Memory required for data: 569202720
I1211 10:50:59.702097   574 layer_factory.hpp:77] Creating layer Inception3/conv/loc1/flat
I1211 10:50:59.702122   574 net.cpp:100] Creating Layer Inception3/conv/loc1/flat
I1211 10:50:59.702143   574 net.cpp:434] Inception3/conv/loc1/flat <- Inception3/conv/loc1/perm
I1211 10:50:59.702169   574 net.cpp:408] Inception3/conv/loc1/flat -> Inception3/conv/loc1/flat
I1211 10:50:59.702236   574 net.cpp:150] Setting up Inception3/conv/loc1/flat
I1211 10:50:59.702265   574 net.cpp:157] Top shape: 32 1444 (46208)
I1211 10:50:59.702283   574 net.cpp:165] Memory required for data: 569387552
I1211 10:50:59.702304   574 layer_factory.hpp:77] Creating layer Inception3/conv/conf1
I1211 10:50:59.702337   574 net.cpp:100] Creating Layer Inception3/conv/conf1
I1211 10:50:59.702358   574 net.cpp:434] Inception3/conv/conf1 <- conv5/incep_conv5/incep_0_split_1
I1211 10:50:59.702386   574 net.cpp:408] Inception3/conv/conf1 -> Inception3/conv/conf1
I1211 10:50:59.707901   574 net.cpp:150] Setting up Inception3/conv/conf1
I1211 10:50:59.707948   574 net.cpp:157] Top shape: 32 2 19 19 (23104)
I1211 10:50:59.707970   574 net.cpp:165] Memory required for data: 569479968
I1211 10:50:59.707998   574 layer_factory.hpp:77] Creating layer Inception3/conv/conf1/perm
I1211 10:50:59.708027   574 net.cpp:100] Creating Layer Inception3/conv/conf1/perm
I1211 10:50:59.708050   574 net.cpp:434] Inception3/conv/conf1/perm <- Inception3/conv/conf1
I1211 10:50:59.708075   574 net.cpp:408] Inception3/conv/conf1/perm -> Inception3/conv/conf1/perm
I1211 10:50:59.708247   574 net.cpp:150] Setting up Inception3/conv/conf1/perm
I1211 10:50:59.708276   574 net.cpp:157] Top shape: 32 19 19 2 (23104)
I1211 10:50:59.708294   574 net.cpp:165] Memory required for data: 569572384
I1211 10:50:59.708313   574 layer_factory.hpp:77] Creating layer Inception3/conv/conf1/flat
I1211 10:50:59.708335   574 net.cpp:100] Creating Layer Inception3/conv/conf1/flat
I1211 10:50:59.708355   574 net.cpp:434] Inception3/conv/conf1/flat <- Inception3/conv/conf1/perm
I1211 10:50:59.708392   574 net.cpp:408] Inception3/conv/conf1/flat -> Inception3/conv/conf1/flat
I1211 10:50:59.708454   574 net.cpp:150] Setting up Inception3/conv/conf1/flat
I1211 10:50:59.708482   574 net.cpp:157] Top shape: 32 722 (23104)
I1211 10:50:59.708500   574 net.cpp:165] Memory required for data: 569664800
I1211 10:50:59.708521   574 layer_factory.hpp:77] Creating layer Inception3/conv/priorbox1
I1211 10:50:59.708546   574 net.cpp:100] Creating Layer Inception3/conv/priorbox1
I1211 10:50:59.708566   574 net.cpp:434] Inception3/conv/priorbox1 <- conv5/incep_conv5/incep_0_split_2
I1211 10:50:59.708587   574 net.cpp:434] Inception3/conv/priorbox1 <- data_data_0_split_1
I1211 10:50:59.708616   574 net.cpp:408] Inception3/conv/priorbox1 -> Inception3/conv/priorbox1
I1211 10:50:59.708681   574 net.cpp:150] Setting up Inception3/conv/priorbox1
I1211 10:50:59.708709   574 net.cpp:157] Top shape: 1 2 1444 (2888)
I1211 10:50:59.708726   574 net.cpp:165] Memory required for data: 569676352
I1211 10:50:59.708745   574 layer_factory.hpp:77] Creating layer Inception3/conv/loc2
I1211 10:50:59.708775   574 net.cpp:100] Creating Layer Inception3/conv/loc2
I1211 10:50:59.708797   574 net.cpp:434] Inception3/conv/loc2 <- conv5/incep_conv5/incep_0_split_3
I1211 10:50:59.708822   574 net.cpp:408] Inception3/conv/loc2 -> Inception3/conv/loc2
I1211 10:50:59.714722   574 net.cpp:150] Setting up Inception3/conv/loc2
I1211 10:50:59.714766   574 net.cpp:157] Top shape: 32 4 19 19 (46208)
I1211 10:50:59.714789   574 net.cpp:165] Memory required for data: 569861184
I1211 10:50:59.714817   574 layer_factory.hpp:77] Creating layer Inception3/conv/loc2/perm
I1211 10:50:59.714841   574 net.cpp:100] Creating Layer Inception3/conv/loc2/perm
I1211 10:50:59.714877   574 net.cpp:434] Inception3/conv/loc2/perm <- Inception3/conv/loc2
I1211 10:50:59.714905   574 net.cpp:408] Inception3/conv/loc2/perm -> Inception3/conv/loc2/perm
I1211 10:50:59.715070   574 net.cpp:150] Setting up Inception3/conv/loc2/perm
I1211 10:50:59.715101   574 net.cpp:157] Top shape: 32 19 19 4 (46208)
I1211 10:50:59.715118   574 net.cpp:165] Memory required for data: 570046016
I1211 10:50:59.715139   574 layer_factory.hpp:77] Creating layer Inception3/conv/loc2/flat
I1211 10:50:59.715164   574 net.cpp:100] Creating Layer Inception3/conv/loc2/flat
I1211 10:50:59.715185   574 net.cpp:434] Inception3/conv/loc2/flat <- Inception3/conv/loc2/perm
I1211 10:50:59.715210   574 net.cpp:408] Inception3/conv/loc2/flat -> Inception3/conv/loc2/flat
I1211 10:50:59.715267   574 net.cpp:150] Setting up Inception3/conv/loc2/flat
I1211 10:50:59.715293   574 net.cpp:157] Top shape: 32 1444 (46208)
I1211 10:50:59.715312   574 net.cpp:165] Memory required for data: 570230848
I1211 10:50:59.715329   574 layer_factory.hpp:77] Creating layer Inception3/conv/conf2
I1211 10:50:59.715360   574 net.cpp:100] Creating Layer Inception3/conv/conf2
I1211 10:50:59.715382   574 net.cpp:434] Inception3/conv/conf2 <- conv5/incep_conv5/incep_0_split_4
I1211 10:50:59.715407   574 net.cpp:408] Inception3/conv/conf2 -> Inception3/conv/conf2
I1211 10:50:59.720386   574 net.cpp:150] Setting up Inception3/conv/conf2
I1211 10:50:59.720432   574 net.cpp:157] Top shape: 32 2 19 19 (23104)
I1211 10:50:59.720454   574 net.cpp:165] Memory required for data: 570323264
I1211 10:50:59.720479   574 layer_factory.hpp:77] Creating layer Inception3/conv/conf2/perm
I1211 10:50:59.720502   574 net.cpp:100] Creating Layer Inception3/conv/conf2/perm
I1211 10:50:59.720525   574 net.cpp:434] Inception3/conv/conf2/perm <- Inception3/conv/conf2
I1211 10:50:59.720551   574 net.cpp:408] Inception3/conv/conf2/perm -> Inception3/conv/conf2/perm
I1211 10:50:59.720723   574 net.cpp:150] Setting up Inception3/conv/conf2/perm
I1211 10:50:59.720753   574 net.cpp:157] Top shape: 32 19 19 2 (23104)
I1211 10:50:59.720770   574 net.cpp:165] Memory required for data: 570415680
I1211 10:50:59.720790   574 layer_factory.hpp:77] Creating layer Inception3/conv/conf2/flat
I1211 10:50:59.720813   574 net.cpp:100] Creating Layer Inception3/conv/conf2/flat
I1211 10:50:59.720832   574 net.cpp:434] Inception3/conv/conf2/flat <- Inception3/conv/conf2/perm
I1211 10:50:59.720856   574 net.cpp:408] Inception3/conv/conf2/flat -> Inception3/conv/conf2/flat
I1211 10:50:59.720911   574 net.cpp:150] Setting up Inception3/conv/conf2/flat
I1211 10:50:59.720939   574 net.cpp:157] Top shape: 32 722 (23104)
I1211 10:50:59.720957   574 net.cpp:165] Memory required for data: 570508096
I1211 10:50:59.720975   574 layer_factory.hpp:77] Creating layer Inception3/conv/priorbox2
I1211 10:50:59.720998   574 net.cpp:100] Creating Layer Inception3/conv/priorbox2
I1211 10:50:59.721017   574 net.cpp:434] Inception3/conv/priorbox2 <- conv5/incep_conv5/incep_0_split_5
I1211 10:50:59.721037   574 net.cpp:434] Inception3/conv/priorbox2 <- data_data_0_split_2
I1211 10:50:59.721063   574 net.cpp:408] Inception3/conv/priorbox2 -> Inception3/conv/priorbox2
I1211 10:50:59.721122   574 net.cpp:150] Setting up Inception3/conv/priorbox2
I1211 10:50:59.721146   574 net.cpp:157] Top shape: 1 2 1444 (2888)
I1211 10:50:59.721163   574 net.cpp:165] Memory required for data: 570519648
I1211 10:50:59.721181   574 layer_factory.hpp:77] Creating layer Inception3/conv/loc3
I1211 10:50:59.721210   574 net.cpp:100] Creating Layer Inception3/conv/loc3
I1211 10:50:59.721230   574 net.cpp:434] Inception3/conv/loc3 <- conv5/incep_conv5/incep_0_split_6
I1211 10:50:59.721254   574 net.cpp:408] Inception3/conv/loc3 -> Inception3/conv/loc3
I1211 10:50:59.727191   574 net.cpp:150] Setting up Inception3/conv/loc3
I1211 10:50:59.727233   574 net.cpp:157] Top shape: 32 4 19 19 (46208)
I1211 10:50:59.727254   574 net.cpp:165] Memory required for data: 570704480
I1211 10:50:59.727278   574 layer_factory.hpp:77] Creating layer Inception3/conv/loc3/perm
I1211 10:50:59.727318   574 net.cpp:100] Creating Layer Inception3/conv/loc3/perm
I1211 10:50:59.727339   574 net.cpp:434] Inception3/conv/loc3/perm <- Inception3/conv/loc3
I1211 10:50:59.727365   574 net.cpp:408] Inception3/conv/loc3/perm -> Inception3/conv/loc3/perm
I1211 10:50:59.727524   574 net.cpp:150] Setting up Inception3/conv/loc3/perm
I1211 10:50:59.727552   574 net.cpp:157] Top shape: 32 19 19 4 (46208)
I1211 10:50:59.727571   574 net.cpp:165] Memory required for data: 570889312
I1211 10:50:59.727591   574 layer_factory.hpp:77] Creating layer Inception3/conv/loc3/flat
I1211 10:50:59.727612   574 net.cpp:100] Creating Layer Inception3/conv/loc3/flat
I1211 10:50:59.727632   574 net.cpp:434] Inception3/conv/loc3/flat <- Inception3/conv/loc3/perm
I1211 10:50:59.727655   574 net.cpp:408] Inception3/conv/loc3/flat -> Inception3/conv/loc3/flat
I1211 10:50:59.727712   574 net.cpp:150] Setting up Inception3/conv/loc3/flat
I1211 10:50:59.727737   574 net.cpp:157] Top shape: 32 1444 (46208)
I1211 10:50:59.727754   574 net.cpp:165] Memory required for data: 571074144
I1211 10:50:59.727772   574 layer_factory.hpp:77] Creating layer Inception3/conv/conf3
I1211 10:50:59.727800   574 net.cpp:100] Creating Layer Inception3/conv/conf3
I1211 10:50:59.727821   574 net.cpp:434] Inception3/conv/conf3 <- conv5/incep_conv5/incep_0_split_7
I1211 10:50:59.727846   574 net.cpp:408] Inception3/conv/conf3 -> Inception3/conv/conf3
I1211 10:50:59.732996   574 net.cpp:150] Setting up Inception3/conv/conf3
I1211 10:50:59.733037   574 net.cpp:157] Top shape: 32 2 19 19 (23104)
I1211 10:50:59.733057   574 net.cpp:165] Memory required for data: 571166560
I1211 10:50:59.733093   574 layer_factory.hpp:77] Creating layer Inception3/conv/conf3/perm
I1211 10:50:59.733119   574 net.cpp:100] Creating Layer Inception3/conv/conf3/perm
I1211 10:50:59.733140   574 net.cpp:434] Inception3/conv/conf3/perm <- Inception3/conv/conf3
I1211 10:50:59.733162   574 net.cpp:408] Inception3/conv/conf3/perm -> Inception3/conv/conf3/perm
I1211 10:50:59.733314   574 net.cpp:150] Setting up Inception3/conv/conf3/perm
I1211 10:50:59.733341   574 net.cpp:157] Top shape: 32 19 19 2 (23104)
I1211 10:50:59.733358   574 net.cpp:165] Memory required for data: 571258976
I1211 10:50:59.733376   574 layer_factory.hpp:77] Creating layer Inception3/conv/conf3/flat
I1211 10:50:59.733398   574 net.cpp:100] Creating Layer Inception3/conv/conf3/flat
I1211 10:50:59.733418   574 net.cpp:434] Inception3/conv/conf3/flat <- Inception3/conv/conf3/perm
I1211 10:50:59.733439   574 net.cpp:408] Inception3/conv/conf3/flat -> Inception3/conv/conf3/flat
I1211 10:50:59.733494   574 net.cpp:150] Setting up Inception3/conv/conf3/flat
I1211 10:50:59.733517   574 net.cpp:157] Top shape: 32 722 (23104)
I1211 10:50:59.733534   574 net.cpp:165] Memory required for data: 571351392
I1211 10:50:59.733551   574 layer_factory.hpp:77] Creating layer Inception3/conv/priorbox3
I1211 10:50:59.733574   574 net.cpp:100] Creating Layer Inception3/conv/priorbox3
I1211 10:50:59.733594   574 net.cpp:434] Inception3/conv/priorbox3 <- conv5/incep_conv5/incep_0_split_8
I1211 10:50:59.733614   574 net.cpp:434] Inception3/conv/priorbox3 <- data_data_0_split_3
I1211 10:50:59.733636   574 net.cpp:408] Inception3/conv/priorbox3 -> Inception3/conv/priorbox3
I1211 10:50:59.733691   574 net.cpp:150] Setting up Inception3/conv/priorbox3
I1211 10:50:59.733716   574 net.cpp:157] Top shape: 1 2 1444 (2888)
I1211 10:50:59.733733   574 net.cpp:165] Memory required for data: 571362944
I1211 10:50:59.733750   574 layer_factory.hpp:77] Creating layer conv6_1
I1211 10:50:59.733780   574 net.cpp:100] Creating Layer conv6_1
I1211 10:50:59.733800   574 net.cpp:434] conv6_1 <- conv5/incep_conv5/incep_0_split_9
I1211 10:50:59.733825   574 net.cpp:408] conv6_1 -> conv6_1
I1211 10:50:59.739068   574 net.cpp:150] Setting up conv6_1
I1211 10:50:59.739110   574 net.cpp:157] Top shape: 32 24 19 19 (277248)
I1211 10:50:59.739131   574 net.cpp:165] Memory required for data: 572471936
I1211 10:50:59.739161   574 layer_factory.hpp:77] Creating layer conv6/bn1
I1211 10:50:59.739195   574 net.cpp:100] Creating Layer conv6/bn1
I1211 10:50:59.739215   574 net.cpp:434] conv6/bn1 <- conv6_1
I1211 10:50:59.739238   574 net.cpp:395] conv6/bn1 -> conv6_1 (in-place)
I1211 10:50:59.739516   574 net.cpp:150] Setting up conv6/bn1
I1211 10:50:59.739543   574 net.cpp:157] Top shape: 32 24 19 19 (277248)
I1211 10:50:59.739560   574 net.cpp:165] Memory required for data: 573580928
I1211 10:50:59.739583   574 layer_factory.hpp:77] Creating layer conv6/bn_scale1
I1211 10:50:59.739608   574 net.cpp:100] Creating Layer conv6/bn_scale1
I1211 10:50:59.739626   574 net.cpp:434] conv6/bn_scale1 <- conv6_1
I1211 10:50:59.739646   574 net.cpp:395] conv6/bn_scale1 -> conv6_1 (in-place)
I1211 10:50:59.739722   574 layer_factory.hpp:77] Creating layer conv6/bn_scale1
I1211 10:50:59.739904   574 net.cpp:150] Setting up conv6/bn_scale1
I1211 10:50:59.739931   574 net.cpp:157] Top shape: 32 24 19 19 (277248)
I1211 10:50:59.739948   574 net.cpp:165] Memory required for data: 574689920
I1211 10:50:59.739970   574 layer_factory.hpp:77] Creating layer conv6/relu1
I1211 10:50:59.739990   574 net.cpp:100] Creating Layer conv6/relu1
I1211 10:50:59.740010   574 net.cpp:434] conv6/relu1 <- conv6_1
I1211 10:50:59.740031   574 net.cpp:395] conv6/relu1 -> conv6_1 (in-place)
I1211 10:50:59.740283   574 net.cpp:150] Setting up conv6/relu1
I1211 10:50:59.740316   574 net.cpp:157] Top shape: 32 24 19 19 (277248)
I1211 10:50:59.740334   574 net.cpp:165] Memory required for data: 575798912
I1211 10:50:59.740353   574 layer_factory.hpp:77] Creating layer conv6_2
I1211 10:50:59.740386   574 net.cpp:100] Creating Layer conv6_2
I1211 10:50:59.740407   574 net.cpp:434] conv6_2 <- conv6_1
I1211 10:50:59.740430   574 net.cpp:408] conv6_2 -> conv6_2
I1211 10:50:59.747941   574 net.cpp:150] Setting up conv6_2
I1211 10:50:59.747984   574 net.cpp:157] Top shape: 32 48 10 10 (153600)
I1211 10:50:59.748004   574 net.cpp:165] Memory required for data: 576413312
I1211 10:50:59.748029   574 layer_factory.hpp:77] Creating layer conv6/bn2
I1211 10:50:59.748051   574 net.cpp:100] Creating Layer conv6/bn2
I1211 10:50:59.748070   574 net.cpp:434] conv6/bn2 <- conv6_2
I1211 10:50:59.748092   574 net.cpp:395] conv6/bn2 -> conv6_2 (in-place)
I1211 10:50:59.748364   574 net.cpp:150] Setting up conv6/bn2
I1211 10:50:59.748397   574 net.cpp:157] Top shape: 32 48 10 10 (153600)
I1211 10:50:59.748414   574 net.cpp:165] Memory required for data: 577027712
I1211 10:50:59.748456   574 layer_factory.hpp:77] Creating layer conv6/bn_scale2
I1211 10:50:59.748479   574 net.cpp:100] Creating Layer conv6/bn_scale2
I1211 10:50:59.748497   574 net.cpp:434] conv6/bn_scale2 <- conv6_2
I1211 10:50:59.748520   574 net.cpp:395] conv6/bn_scale2 -> conv6_2 (in-place)
I1211 10:50:59.748597   574 layer_factory.hpp:77] Creating layer conv6/bn_scale2
I1211 10:50:59.748767   574 net.cpp:150] Setting up conv6/bn_scale2
I1211 10:50:59.748795   574 net.cpp:157] Top shape: 32 48 10 10 (153600)
I1211 10:50:59.748811   574 net.cpp:165] Memory required for data: 577642112
I1211 10:50:59.748832   574 layer_factory.hpp:77] Creating layer conv6/relu2
I1211 10:50:59.748852   574 net.cpp:100] Creating Layer conv6/relu2
I1211 10:50:59.748869   574 net.cpp:434] conv6/relu2 <- conv6_2
I1211 10:50:59.748888   574 net.cpp:395] conv6/relu2 -> conv6_2 (in-place)
I1211 10:50:59.750201   574 net.cpp:150] Setting up conv6/relu2
I1211 10:50:59.750233   574 net.cpp:157] Top shape: 32 48 10 10 (153600)
I1211 10:50:59.750250   574 net.cpp:165] Memory required for data: 578256512
I1211 10:50:59.750267   574 layer_factory.hpp:77] Creating layer conv6_2_conv6/relu2_0_split
I1211 10:50:59.750290   574 net.cpp:100] Creating Layer conv6_2_conv6/relu2_0_split
I1211 10:50:59.750308   574 net.cpp:434] conv6_2_conv6/relu2_0_split <- conv6_2
I1211 10:50:59.750332   574 net.cpp:408] conv6_2_conv6/relu2_0_split -> conv6_2_conv6/relu2_0_split_0
I1211 10:50:59.750357   574 net.cpp:408] conv6_2_conv6/relu2_0_split -> conv6_2_conv6/relu2_0_split_1
I1211 10:50:59.750386   574 net.cpp:408] conv6_2_conv6/relu2_0_split -> conv6_2_conv6/relu2_0_split_2
I1211 10:50:59.750418   574 net.cpp:408] conv6_2_conv6/relu2_0_split -> conv6_2_conv6/relu2_0_split_3
I1211 10:50:59.750527   574 net.cpp:150] Setting up conv6_2_conv6/relu2_0_split
I1211 10:50:59.750552   574 net.cpp:157] Top shape: 32 48 10 10 (153600)
I1211 10:50:59.750571   574 net.cpp:157] Top shape: 32 48 10 10 (153600)
I1211 10:50:59.750587   574 net.cpp:157] Top shape: 32 48 10 10 (153600)
I1211 10:50:59.750605   574 net.cpp:157] Top shape: 32 48 10 10 (153600)
I1211 10:50:59.750620   574 net.cpp:165] Memory required for data: 580714112
I1211 10:50:59.750638   574 layer_factory.hpp:77] Creating layer conv6/loc
I1211 10:50:59.750664   574 net.cpp:100] Creating Layer conv6/loc
I1211 10:50:59.750684   574 net.cpp:434] conv6/loc <- conv6_2_conv6/relu2_0_split_0
I1211 10:50:59.750708   574 net.cpp:408] conv6/loc -> conv6/loc
I1211 10:50:59.757827   574 net.cpp:150] Setting up conv6/loc
I1211 10:50:59.757869   574 net.cpp:157] Top shape: 32 4 10 10 (12800)
I1211 10:50:59.757889   574 net.cpp:165] Memory required for data: 580765312
I1211 10:50:59.757911   574 layer_factory.hpp:77] Creating layer conv6/loc/perm
I1211 10:50:59.757936   574 net.cpp:100] Creating Layer conv6/loc/perm
I1211 10:50:59.757953   574 net.cpp:434] conv6/loc/perm <- conv6/loc
I1211 10:50:59.757977   574 net.cpp:408] conv6/loc/perm -> conv6/loc/perm
I1211 10:50:59.758118   574 net.cpp:150] Setting up conv6/loc/perm
I1211 10:50:59.758143   574 net.cpp:157] Top shape: 32 10 10 4 (12800)
I1211 10:50:59.758158   574 net.cpp:165] Memory required for data: 580816512
I1211 10:50:59.758175   574 layer_factory.hpp:77] Creating layer conv6/loc/perm/flat
I1211 10:50:59.758196   574 net.cpp:100] Creating Layer conv6/loc/perm/flat
I1211 10:50:59.758214   574 net.cpp:434] conv6/loc/perm/flat <- conv6/loc/perm
I1211 10:50:59.758234   574 net.cpp:408] conv6/loc/perm/flat -> conv6/loc/perm/flat
I1211 10:50:59.758285   574 net.cpp:150] Setting up conv6/loc/perm/flat
I1211 10:50:59.758308   574 net.cpp:157] Top shape: 32 400 (12800)
I1211 10:50:59.758323   574 net.cpp:165] Memory required for data: 580867712
I1211 10:50:59.758342   574 layer_factory.hpp:77] Creating layer conv6/conf
I1211 10:50:59.758368   574 net.cpp:100] Creating Layer conv6/conf
I1211 10:50:59.758388   574 net.cpp:434] conv6/conf <- conv6_2_conv6/relu2_0_split_1
I1211 10:50:59.758409   574 net.cpp:408] conv6/conf -> conv6/conf
I1211 10:50:59.765424   574 net.cpp:150] Setting up conv6/conf
I1211 10:50:59.765463   574 net.cpp:157] Top shape: 32 2 10 10 (6400)
I1211 10:50:59.765482   574 net.cpp:165] Memory required for data: 580893312
I1211 10:50:59.765509   574 layer_factory.hpp:77] Creating layer conv6/conf/perm
I1211 10:50:59.765533   574 net.cpp:100] Creating Layer conv6/conf/perm
I1211 10:50:59.765552   574 net.cpp:434] conv6/conf/perm <- conv6/conf
I1211 10:50:59.765576   574 net.cpp:408] conv6/conf/perm -> conv6/conf/perm
I1211 10:50:59.765719   574 net.cpp:150] Setting up conv6/conf/perm
I1211 10:50:59.765748   574 net.cpp:157] Top shape: 32 10 10 2 (6400)
I1211 10:50:59.765763   574 net.cpp:165] Memory required for data: 580918912
I1211 10:50:59.765780   574 layer_factory.hpp:77] Creating layer conv6/conf/perm/flat
I1211 10:50:59.765799   574 net.cpp:100] Creating Layer conv6/conf/perm/flat
I1211 10:50:59.765816   574 net.cpp:434] conv6/conf/perm/flat <- conv6/conf/perm
I1211 10:50:59.765838   574 net.cpp:408] conv6/conf/perm/flat -> conv6/conf/perm/flat
I1211 10:50:59.765888   574 net.cpp:150] Setting up conv6/conf/perm/flat
I1211 10:50:59.765911   574 net.cpp:157] Top shape: 32 200 (6400)
I1211 10:50:59.765926   574 net.cpp:165] Memory required for data: 580944512
I1211 10:50:59.765943   574 layer_factory.hpp:77] Creating layer conv6/priorbox
I1211 10:50:59.765964   574 net.cpp:100] Creating Layer conv6/priorbox
I1211 10:50:59.765983   574 net.cpp:434] conv6/priorbox <- conv6_2_conv6/relu2_0_split_2
I1211 10:50:59.766001   574 net.cpp:434] conv6/priorbox <- data_data_0_split_4
I1211 10:50:59.766024   574 net.cpp:408] conv6/priorbox -> conv6/priorbox
I1211 10:50:59.766088   574 net.cpp:150] Setting up conv6/priorbox
I1211 10:50:59.766113   574 net.cpp:157] Top shape: 1 2 400 (800)
I1211 10:50:59.766127   574 net.cpp:165] Memory required for data: 580947712
I1211 10:50:59.766144   574 layer_factory.hpp:77] Creating layer conv7_1
I1211 10:50:59.766175   574 net.cpp:100] Creating Layer conv7_1
I1211 10:50:59.766193   574 net.cpp:434] conv7_1 <- conv6_2_conv6/relu2_0_split_3
I1211 10:50:59.766216   574 net.cpp:408] conv7_1 -> conv7_1
I1211 10:50:59.772296   574 net.cpp:150] Setting up conv7_1
I1211 10:50:59.772333   574 net.cpp:157] Top shape: 32 32 10 10 (102400)
I1211 10:50:59.772352   574 net.cpp:165] Memory required for data: 581357312
I1211 10:50:59.772382   574 layer_factory.hpp:77] Creating layer conv7/bn1
I1211 10:50:59.772409   574 net.cpp:100] Creating Layer conv7/bn1
I1211 10:50:59.772428   574 net.cpp:434] conv7/bn1 <- conv7_1
I1211 10:50:59.772447   574 net.cpp:395] conv7/bn1 -> conv7_1 (in-place)
I1211 10:50:59.772708   574 net.cpp:150] Setting up conv7/bn1
I1211 10:50:59.772734   574 net.cpp:157] Top shape: 32 32 10 10 (102400)
I1211 10:50:59.772750   574 net.cpp:165] Memory required for data: 581766912
I1211 10:50:59.772771   574 layer_factory.hpp:77] Creating layer conv7/bn_scale1
I1211 10:50:59.772791   574 net.cpp:100] Creating Layer conv7/bn_scale1
I1211 10:50:59.772809   574 net.cpp:434] conv7/bn_scale1 <- conv7_1
I1211 10:50:59.772835   574 net.cpp:395] conv7/bn_scale1 -> conv7_1 (in-place)
I1211 10:50:59.772908   574 layer_factory.hpp:77] Creating layer conv7/bn_scale1
I1211 10:50:59.773079   574 net.cpp:150] Setting up conv7/bn_scale1
I1211 10:50:59.773105   574 net.cpp:157] Top shape: 32 32 10 10 (102400)
I1211 10:50:59.773121   574 net.cpp:165] Memory required for data: 582176512
I1211 10:50:59.773142   574 layer_factory.hpp:77] Creating layer conv7/relu1
I1211 10:50:59.773164   574 net.cpp:100] Creating Layer conv7/relu1
I1211 10:50:59.773182   574 net.cpp:434] conv7/relu1 <- conv7_1
I1211 10:50:59.773200   574 net.cpp:395] conv7/relu1 -> conv7_1 (in-place)
I1211 10:50:59.774649   574 net.cpp:150] Setting up conv7/relu1
I1211 10:50:59.774680   574 net.cpp:157] Top shape: 32 32 10 10 (102400)
I1211 10:50:59.774696   574 net.cpp:165] Memory required for data: 582586112
I1211 10:50:59.774714   574 layer_factory.hpp:77] Creating layer conv7_2
I1211 10:50:59.774741   574 net.cpp:100] Creating Layer conv7_2
I1211 10:50:59.774760   574 net.cpp:434] conv7_2 <- conv7_1
I1211 10:50:59.774780   574 net.cpp:408] conv7_2 -> conv7_2
I1211 10:50:59.782375   574 net.cpp:150] Setting up conv7_2
I1211 10:50:59.782414   574 net.cpp:157] Top shape: 32 64 5 5 (51200)
I1211 10:50:59.782433   574 net.cpp:165] Memory required for data: 582790912
I1211 10:50:59.782457   574 layer_factory.hpp:77] Creating layer conv7/bn2
I1211 10:50:59.782479   574 net.cpp:100] Creating Layer conv7/bn2
I1211 10:50:59.782497   574 net.cpp:434] conv7/bn2 <- conv7_2
I1211 10:50:59.782519   574 net.cpp:395] conv7/bn2 -> conv7_2 (in-place)
I1211 10:50:59.782783   574 net.cpp:150] Setting up conv7/bn2
I1211 10:50:59.782809   574 net.cpp:157] Top shape: 32 64 5 5 (51200)
I1211 10:50:59.782827   574 net.cpp:165] Memory required for data: 582995712
I1211 10:50:59.782847   574 layer_factory.hpp:77] Creating layer conv7/bn_scale2
I1211 10:50:59.782868   574 net.cpp:100] Creating Layer conv7/bn_scale2
I1211 10:50:59.782886   574 net.cpp:434] conv7/bn_scale2 <- conv7_2
I1211 10:50:59.782904   574 net.cpp:395] conv7/bn_scale2 -> conv7_2 (in-place)
I1211 10:50:59.782977   574 layer_factory.hpp:77] Creating layer conv7/bn_scale2
I1211 10:50:59.783145   574 net.cpp:150] Setting up conv7/bn_scale2
I1211 10:50:59.783170   574 net.cpp:157] Top shape: 32 64 5 5 (51200)
I1211 10:50:59.783186   574 net.cpp:165] Memory required for data: 583200512
I1211 10:50:59.783205   574 layer_factory.hpp:77] Creating layer conv7/relu2
I1211 10:50:59.783227   574 net.cpp:100] Creating Layer conv7/relu2
I1211 10:50:59.783243   574 net.cpp:434] conv7/relu2 <- conv7_2
I1211 10:50:59.783280   574 net.cpp:395] conv7/relu2 -> conv7_2 (in-place)
I1211 10:50:59.785194   574 net.cpp:150] Setting up conv7/relu2
I1211 10:50:59.785230   574 net.cpp:157] Top shape: 32 64 5 5 (51200)
I1211 10:50:59.785248   574 net.cpp:165] Memory required for data: 583405312
I1211 10:50:59.785265   574 layer_factory.hpp:77] Creating layer conv7_2_conv7/relu2_0_split
I1211 10:50:59.785284   574 net.cpp:100] Creating Layer conv7_2_conv7/relu2_0_split
I1211 10:50:59.785306   574 net.cpp:434] conv7_2_conv7/relu2_0_split <- conv7_2
I1211 10:50:59.785331   574 net.cpp:408] conv7_2_conv7/relu2_0_split -> conv7_2_conv7/relu2_0_split_0
I1211 10:50:59.785354   574 net.cpp:408] conv7_2_conv7/relu2_0_split -> conv7_2_conv7/relu2_0_split_1
I1211 10:50:59.785377   574 net.cpp:408] conv7_2_conv7/relu2_0_split -> conv7_2_conv7/relu2_0_split_2
I1211 10:50:59.785471   574 net.cpp:150] Setting up conv7_2_conv7/relu2_0_split
I1211 10:50:59.785496   574 net.cpp:157] Top shape: 32 64 5 5 (51200)
I1211 10:50:59.785514   574 net.cpp:157] Top shape: 32 64 5 5 (51200)
I1211 10:50:59.785531   574 net.cpp:157] Top shape: 32 64 5 5 (51200)
I1211 10:50:59.785544   574 net.cpp:165] Memory required for data: 584019712
I1211 10:50:59.785560   574 layer_factory.hpp:77] Creating layer conv7/loc
I1211 10:50:59.785588   574 net.cpp:100] Creating Layer conv7/loc
I1211 10:50:59.785606   574 net.cpp:434] conv7/loc <- conv7_2_conv7/relu2_0_split_0
I1211 10:50:59.785629   574 net.cpp:408] conv7/loc -> conv7/loc
I1211 10:50:59.792392   574 net.cpp:150] Setting up conv7/loc
I1211 10:50:59.792429   574 net.cpp:157] Top shape: 32 4 5 5 (3200)
I1211 10:50:59.792445   574 net.cpp:165] Memory required for data: 584032512
I1211 10:50:59.792464   574 layer_factory.hpp:77] Creating layer conv7/loc/perm
I1211 10:50:59.792486   574 net.cpp:100] Creating Layer conv7/loc/perm
I1211 10:50:59.792503   574 net.cpp:434] conv7/loc/perm <- conv7/loc
I1211 10:50:59.792522   574 net.cpp:408] conv7/loc/perm -> conv7/loc/perm
I1211 10:50:59.792666   574 net.cpp:150] Setting up conv7/loc/perm
I1211 10:50:59.792690   574 net.cpp:157] Top shape: 32 5 5 4 (3200)
I1211 10:50:59.792703   574 net.cpp:165] Memory required for data: 584045312
I1211 10:50:59.792719   574 layer_factory.hpp:77] Creating layer conv7/loc/perm/flat
I1211 10:50:59.792737   574 net.cpp:100] Creating Layer conv7/loc/perm/flat
I1211 10:50:59.792753   574 net.cpp:434] conv7/loc/perm/flat <- conv7/loc/perm
I1211 10:50:59.792773   574 net.cpp:408] conv7/loc/perm/flat -> conv7/loc/perm/flat
I1211 10:50:59.792826   574 net.cpp:150] Setting up conv7/loc/perm/flat
I1211 10:50:59.792848   574 net.cpp:157] Top shape: 32 100 (3200)
I1211 10:50:59.792861   574 net.cpp:165] Memory required for data: 584058112
I1211 10:50:59.792876   574 layer_factory.hpp:77] Creating layer conv7/conf
I1211 10:50:59.792899   574 net.cpp:100] Creating Layer conv7/conf
I1211 10:50:59.792917   574 net.cpp:434] conv7/conf <- conv7_2_conv7/relu2_0_split_1
I1211 10:50:59.792938   574 net.cpp:408] conv7/conf -> conv7/conf
I1211 10:50:59.796558   574 net.cpp:150] Setting up conv7/conf
I1211 10:50:59.796596   574 net.cpp:157] Top shape: 32 2 5 5 (1600)
I1211 10:50:59.796617   574 net.cpp:165] Memory required for data: 584064512
I1211 10:50:59.796640   574 layer_factory.hpp:77] Creating layer conv7/conf/perm
I1211 10:50:59.796664   574 net.cpp:100] Creating Layer conv7/conf/perm
I1211 10:50:59.796684   574 net.cpp:434] conv7/conf/perm <- conv7/conf
I1211 10:50:59.796705   574 net.cpp:408] conv7/conf/perm -> conv7/conf/perm
I1211 10:50:59.796851   574 net.cpp:150] Setting up conv7/conf/perm
I1211 10:50:59.796876   574 net.cpp:157] Top shape: 32 5 5 2 (1600)
I1211 10:50:59.796891   574 net.cpp:165] Memory required for data: 584070912
I1211 10:50:59.796910   574 layer_factory.hpp:77] Creating layer conv7/conf/perm/flat
I1211 10:50:59.796932   574 net.cpp:100] Creating Layer conv7/conf/perm/flat
I1211 10:50:59.796950   574 net.cpp:434] conv7/conf/perm/flat <- conv7/conf/perm
I1211 10:50:59.796970   574 net.cpp:408] conv7/conf/perm/flat -> conv7/conf/perm/flat
I1211 10:50:59.797030   574 net.cpp:150] Setting up conv7/conf/perm/flat
I1211 10:50:59.797062   574 net.cpp:157] Top shape: 32 50 (1600)
I1211 10:50:59.797077   574 net.cpp:165] Memory required for data: 584077312
I1211 10:50:59.797093   574 layer_factory.hpp:77] Creating layer conv7/priorbox
I1211 10:50:59.797116   574 net.cpp:100] Creating Layer conv7/priorbox
I1211 10:50:59.797134   574 net.cpp:434] conv7/priorbox <- conv7_2_conv7/relu2_0_split_2
I1211 10:50:59.797153   574 net.cpp:434] conv7/priorbox <- data_data_0_split_5
I1211 10:50:59.797174   574 net.cpp:408] conv7/priorbox -> conv7/priorbox
I1211 10:50:59.797228   574 net.cpp:150] Setting up conv7/priorbox
I1211 10:50:59.797252   574 net.cpp:157] Top shape: 1 2 100 (200)
I1211 10:50:59.797268   574 net.cpp:165] Memory required for data: 584078112
I1211 10:50:59.797286   574 layer_factory.hpp:77] Creating layer mbox_loc
I1211 10:50:59.797307   574 net.cpp:100] Creating Layer mbox_loc
I1211 10:50:59.797325   574 net.cpp:434] mbox_loc <- Inception3/conv/loc1/flat
I1211 10:50:59.797343   574 net.cpp:434] mbox_loc <- Inception3/conv/loc2/flat
I1211 10:50:59.797360   574 net.cpp:434] mbox_loc <- Inception3/conv/loc3/flat
I1211 10:50:59.797379   574 net.cpp:434] mbox_loc <- conv6/loc/perm/flat
I1211 10:50:59.797395   574 net.cpp:434] mbox_loc <- conv7/loc/perm/flat
I1211 10:50:59.797415   574 net.cpp:408] mbox_loc -> mbox_loc
I1211 10:50:59.797478   574 net.cpp:150] Setting up mbox_loc
I1211 10:50:59.797503   574 net.cpp:157] Top shape: 32 4832 (154624)
I1211 10:50:59.797519   574 net.cpp:165] Memory required for data: 584696608
I1211 10:50:59.797536   574 layer_factory.hpp:77] Creating layer mbox_conf
I1211 10:50:59.797556   574 net.cpp:100] Creating Layer mbox_conf
I1211 10:50:59.797574   574 net.cpp:434] mbox_conf <- Inception3/conv/conf1/flat
I1211 10:50:59.797592   574 net.cpp:434] mbox_conf <- Inception3/conv/conf2/flat
I1211 10:50:59.797610   574 net.cpp:434] mbox_conf <- Inception3/conv/conf3/flat
I1211 10:50:59.797628   574 net.cpp:434] mbox_conf <- conv6/conf/perm/flat
I1211 10:50:59.797646   574 net.cpp:434] mbox_conf <- conv7/conf/perm/flat
I1211 10:50:59.797664   574 net.cpp:408] mbox_conf -> mbox_conf
I1211 10:50:59.797714   574 net.cpp:150] Setting up mbox_conf
I1211 10:50:59.797737   574 net.cpp:157] Top shape: 32 2416 (77312)
I1211 10:50:59.797752   574 net.cpp:165] Memory required for data: 585005856
I1211 10:50:59.797768   574 layer_factory.hpp:77] Creating layer mbox_priorbox
I1211 10:50:59.797791   574 net.cpp:100] Creating Layer mbox_priorbox
I1211 10:50:59.797808   574 net.cpp:434] mbox_priorbox <- Inception3/conv/priorbox1
I1211 10:50:59.797827   574 net.cpp:434] mbox_priorbox <- Inception3/conv/priorbox2
I1211 10:50:59.797845   574 net.cpp:434] mbox_priorbox <- Inception3/conv/priorbox3
I1211 10:50:59.797863   574 net.cpp:434] mbox_priorbox <- conv6/priorbox
I1211 10:50:59.797879   574 net.cpp:434] mbox_priorbox <- conv7/priorbox
I1211 10:50:59.797899   574 net.cpp:408] mbox_priorbox -> mbox_priorbox
I1211 10:50:59.797947   574 net.cpp:150] Setting up mbox_priorbox
I1211 10:50:59.797971   574 net.cpp:157] Top shape: 1 2 4832 (9664)
I1211 10:50:59.797986   574 net.cpp:165] Memory required for data: 585044512
I1211 10:50:59.798002   574 layer_factory.hpp:77] Creating layer mbox_loss
I1211 10:50:59.798032   574 net.cpp:100] Creating Layer mbox_loss
I1211 10:50:59.798049   574 net.cpp:434] mbox_loss <- mbox_loc
I1211 10:50:59.798068   574 net.cpp:434] mbox_loss <- mbox_conf
I1211 10:50:59.798085   574 net.cpp:434] mbox_loss <- mbox_priorbox
…
layer {
  name: "data"
  type: "AnnotatedData"
  top: "data"
  top: "label"
  include {
    phase: TEST
  }
  transform_param {
    mean_value: 104
    mean_value: 117
    mean_value: 123
    resize_param {
      prob: 1
      resize_mode: WARP
      height: 324
      width: 324
      interp_mode: LINEAR
    }
  }
  data_param {
    source: "examples/umdfaces_final/umdfaces_final_test_lmdb"
    batch_size: 4
    backend: LMDB
  }
  annotated_data_param {
    batch_sampler {
    }
    label_map_file: "data/umdfaces_final/labelmap_face.prototxt"
  }
}
layer {
  name: "conv1"
  type: "Convolution"
  bottom: "data"
  top: "conv1"
  param {
    lr_mult: 1
    decay_mult: 1
  }
  param {
    lr_mult: 2
    decay_mult: 0
  }
  convolution_param {
    num_output: 8
    pad: 0
    kernel_size: 3
    stride: 2
    weight_filler {
      type: "xavier"
    }
    bias_filler {
      type: "constant"
      value: 0
    }
  }
}
layer {
  name: "conv1/bn"
  type: "BatchNorm"
  bottom: "conv1"
  top: "conv1"
  batch_norm_param {
    use_global_stats: true
  }
}
layer {
  name: "conv1/scale"
  type: "Scale"
  bottom: "conv1"
  top: "conv1"
  param {
    lr_mult: 1
    decay_mult: 0
  }
  param {
    lr_mult: 2
    decay_mult: 0
  }
  scale_param {
    bias_term: true
  }
}
layer {
  name: "conv1/relu"
  type: "ReLU"
  bottom: "conv1"
  top: "conv1"
}
layer {
  name: "conv2-1"
  type: "Convolution"
  bottom: "conv1"
  top: "conv2-1"
  param {
    lr_mult: 1
    decay_mult: 1
  }
  param {
    lr_mult: 2
    decay_mult: 0
  }
  convolution_param {
    num_output: 16
    pad: 0
    kernel_size: 3
    stride: 2
    weight_filler {
      type: "xavier"
    }
    bias_filler {
      type: "constant"
      value: 0
    }
  }
}
layer {
  name: "conv2-1/bn"
  type: "BatchNorm"
  bottom: "conv2-1"
  top: "conv2-1"
  batch_norm_param {
    use_global_stats: true
  }
}
layer {
  name: "conv2-1/scale"
  type: "Scale"
  bottom: "conv2-1"
  top: "conv2-1"
  param {
    lr_mult: 1
    decay_mult: 0
  }
  param {
    lr_mult: 2
    decay_mult: 0
  }
  scale_param {
    bias_term: true
  }
}
layer {
  name: "conv2-1/relu"
  type: "ReLU"
  bottom: "conv2-1"
  top: "conv2-1"
}
layer {
  name: "conv2-2"
  type: "Convolution"
  bottom: "conv2-1"
  top: "conv2-2"
  param {
    lr_mult: 1
    decay_mult: 1
  }
  param {
    lr_mult: 2
    decay_mult: 0
  }
  convolution_param {
    num_output: 32
    pad: 0
    kernel_size: 3
    stride: 2
    weight_filler {
      type: "xavier"
    }
    bias_filler {
      type: "constant"
      value: 0
    }
  }
}
layer {
  name: "conv2-2/bn"
  type: "BatchNorm"
  bottom: "conv2-2"
  top: "conv2-2"
  batch_norm_param {
    use_global_stats: true
  }
}
layer {
  name: "conv2-2/scale"
  type: "Scale"
  bottom: "conv2-2"
  top: "conv2-2"
  param {
    lr_mult: 1
    decay_mult: 0
  }
  param {
    lr_mult: 2
    decay_mult: 0
  }
  scale_param {
    bias_term: true
  }
}
layer {
  name: "conv2-2/relu"
  type: "ReLU"
  bottom: "conv2-2"
  top: "conv2-2"
}
layer {
  name: "pool2"
  type: "Pooling"
  bottom: "conv2-2"
  top: "pool2"
  pooling_param {
    pool: MAX
    kernel_size: 3
    stride: 2
  }
}
layer {
  name: "conv3/incep0/conv"
  type: "Convolution"
  bottom: "pool2"
  top: "conv3/incep0/conv"
  param {
    lr_mult: 1
    decay_mult: 1
  }
  convolution_param {
    num_output: 24
    pad: 0
    kernel_size: 1
    stride: 1
    weight_filler {
      type: "xavier"
    }
    bias_filler {
      type: "constant"
      value: 0
    }
  }
}
layer {
  name: "conv3/incep0/bn"
  type: "BatchNorm"
  bottom: "conv3/incep0/conv"
  top: "conv3/incep0/conv"
  batch_norm_param {
    use_global_stats: true
  }
}
layer {
  name: "conv3/incep0/bn_scale"
  type: "Scale"
  bottom: "conv3/incep0/conv"
  top: "conv3/incep0/conv"
  param {
    lr_mult: 1
    decay_mult: 0
  }
  param {
    lr_mult: 1
    decay_mult: 0
  }
  scale_param {
    bias_term: true
  }
}
layer {
  name: "conv3/incep0/relu"
  type: "ReLU"
  bottom: "conv3/incep0/conv"
  top: "conv3/incep0/conv"
}
layer {
  name: "conv3/incep1/conv1"
  type: "Convolution"
  bottom: "pool2"
  top: "conv3/incep1/conv1"
  param {
    lr_mult: 1
    decay_mult: 1
  }
  convolution_param {
    num_output: 16
    pad: 0
    kernel_size: 1
    stride: 1
    weight_filler {
      type: "xavier"
    }
    bias_filler {
      type: "constant"
      value: 0
    }
  }
}
layer {
  name: "conv3/incep1/bn1"
  type: "BatchNorm"
  bottom: "conv3/incep1/conv1"
  top: "conv3/incep1/conv1"
  batch_norm_param {
    use_global_stats: true
  }
}
layer {
  name: "conv3/incep1/bn_scale1"
  type: "Scale"
  bottom: "conv3/incep1/conv1"
  top: "conv3/incep1/conv1"
  param {
    lr_mult: 1
    decay_mult: 0
  }
  param {
    lr_mult: 1
    decay_mult: 0
  }
  scale_param {
    bias_term: true
  }
}
layer {
  name: "conv3/incep1/relu1"
  type: "ReLU"
  bottom: "conv3/incep1/conv1"
  top: "conv3/incep1/conv1"
}
layer {
  name: "conv3/incep1/conv2"
  type: "Convolution"
  bottom: "conv3/incep1/conv1"
  top: "conv3/incep1/conv2"
  param {
    lr_mult: 1
    decay_mult: 1
  }
  convolution_param {
    num_output: 24
    pad: 1
    kernel_size: 3
    stride: 1
    weight_filler {
      type: "xavier"
    }
    bias_filler {
      type: "constant"
      value: 0
    }
  }
}
layer {
  name: "conv3/incep1/bn2"
  type: "BatchNorm"
  bottom: "conv3/incep1/conv2"
  top: "conv3/incep1/conv2"
  batch_norm_param {
    use_global_stats: true
  }
}
layer {
  name: "conv3/incep1/bn_scale2"
  type: "Scale"
  bottom: "conv3/incep1/conv2"
  top: "conv3/incep1/conv2"
  param {
    lr_mult: 1
    decay_mult: 0
  }
  param {
    lr_mult: 1
    decay_mult: 0
  }
  scale_param {
    bias_term: true
  }
}
layer {
  name: "conv3/incep1/relu2"
  type: "ReLU"
  bottom: "conv3/incep1/conv2"
  top: "conv3/incep1/conv2"
}
layer {
  name: "conv3/incep2/conv1"
  type: "Convolution"
  bottom: "pool2"
  top: "conv3/incep2/conv1"
  param {
    lr_mult: 1
    decay_mult: 1
  }
  convolution_param {
    num_output: 16
    pad: 0
    kernel_size: 1
    stride: 1
    weight_filler {
      type: "xavier"
    }
    bias_filler {
      type: "constant"
      value: 0
    }
  }
}
layer {
  name: "conv3/incep2/bn1"
  type: "BatchNorm"
  bottom: "conv3/incep2/conv1"
  top: "conv3/incep2/conv1"
  batch_norm_param {
    use_global_stats: true
  }
}
layer {
  name: "conv3/incep2/bn_scale1"
  type: "Scale"
  bottom: "conv3/incep2/conv1"
  top: "conv3/incep2/conv1"
  param {
    lr_mult: 1
    decay_mult: 0
  }
  param {
    lr_mult: 1
    decay_mult: 0
  }
  scale_param {
    bias_term: true
  }
}
layer {
  name: "conv3/incep2/relu1"
  type: "ReLU"
  bottom: "conv3/incep2/conv1"
  top: "conv3/incep2/conv1"
}
layer {
  name: "conv3/incep2/conv2"
  type: "Convolution"
  bottom: "conv3/incep2/conv1"
  top: "conv3/incep2/conv2"
  param {
    lr_mult: 1
    decay_mult: 1
  }
  convolution_param {
    num_output: 24
    pad: 1
    kernel_size: 3
    stride: 1
    weight_filler {
      type: "xavier"
    }
    bias_filler {
      type: "constant"
      value: 0
    }
  }
}
layer {
  name: "conv3/incep2/bn2"
  type: "BatchNorm"
  bottom: "conv3/incep2/conv2"
  top: "conv3/incep2/conv2"
  batch_norm_param {
    use_global_stats: true
  }
}
layer {
  name: "conv3/incep2/bn_scale2"
  type: "Scale"
  bottom: "conv3/incep2/conv2"
  top: "conv3/incep2/conv2"
  param {
    lr_mult: 1
    decay_mult: 0
  }
  param {
    lr_mult: 1
    decay_mult: 0
  }
  scale_param {
    bias_term: true
  }
}
layer {
  name: "conv3/incep2/relu2"
  type: "ReLU"
  bottom: "conv3/incep2/conv2"
  top: "conv3/incep2/conv2"
}
layer {
  name: "conv3/incep2/conv3"
  type: "Convolution"
  bottom: "conv3/incep2/conv2"
  top: "conv3/incep2/conv3"
  param {
    lr_mult: 1
    decay_mult: 1
  }
  convolution_param {
    num_output: 24
    pad: 1
    kernel_size: 3
    stride: 1
    weight_filler {
      type: "xavier"
    }
    bias_filler {
      type: "constant"
      value: 0
    }
  }
}
layer {
  name: "conv3/incep2/bn3"
  type: "BatchNorm"
  bottom: "conv3/incep2/conv3"
  top: "conv3/incep2/conv3"
  batch_norm_param {
    use_global_stats: true
  }
}
layer {
  name: "conv3/incep2/bn_scale3"
  type: "Scale"
  bottom: "conv3/incep2/conv3"
  top: "conv3/incep2/conv3"
  param {
    lr_mult: 1
    decay_mult: 0
  }
  param {
    lr_mult: 1
    decay_mult: 0
  }
  scale_param {
    bias_term: true
  }
}
layer {
  name: "conv3/incep2/relu3"
  type: "ReLU"
  bottom: "conv3/incep2/conv3"
  top: "conv3/incep2/conv3"
}
layer {
  name: "conv3/incep"
  type: "Concat"
  bottom: "conv3/incep0/conv"
  bottom: "conv3/incep1/conv2"
  bottom: "conv3/incep2/conv3"
  top: "conv3/incep"
}
layer {
  name: "conv5/incep0/conv"
  type: "Convolution"
  bottom: "conv3/incep"
  top: "conv5/incep0/conv"
  param {
    lr_mult: 1
    decay_mult: 1
  }
  convolution_param {
    num_output: 24
    pad: 0
    kernel_size: 1
    stride: 1
    weight_filler {
      type: "xavier"
    }
    bias_filler {
      type: "constant"
      value: 0
    }
  }
}
layer {
  name: "conv5/incep0/bn"
  type: "BatchNorm"
  bottom: "conv5/incep0/conv"
  top: "conv5/incep0/conv"
  batch_norm_param {
    use_global_stats: true
  }
}
layer {
  name: "conv5/incep0/bn_scale"
  type: "Scale"
  bottom: "conv5/incep0/conv"
  top: "conv5/incep0/conv"
  param {
    lr_mult: 1
    decay_mult: 0
  }
  param {
    lr_mult: 1
    decay_mult: 0
  }
  scale_param {
    bias_term: true
  }
}
layer {
  name: "conv5/incep0/relu"
  type: "ReLU"
  bottom: "conv5/incep0/conv"
  top: "conv5/incep0/conv"
}
layer {
  name: "conv5/incep1/conv1"
  type: "Convolution"
  bottom: "conv3/incep"
  top: "conv5/incep1/conv1"
  param {
    lr_mult: 1
    decay_mult: 1
  }
  convolution_param {
    num_output: 16
    pad: 0
    kernel_size: 1
    stride: 1
    weight_filler {
      type: "xavier"
    }
    bias_filler {
      type: "constant"
      value: 0
    }
  }
}
layer {
  name: "conv5/incep1/bn1"
  type: "BatchNorm"
  bottom: "conv5/incep1/conv1"
  top: "conv5/incep1/conv1"
  batch_norm_param {
    use_global_stats: true
  }
}
layer {
  name: "conv5/incep1/bn_scale1"
  type: "Scale"
  bottom: "conv5/incep1/conv1"
  top: "conv5/incep1/conv1"
  param {
    lr_mult: 1
    decay_mult: 0
  }
  param {
    lr_mult: 1
    decay_mult: 0
  }
  scale_param {
    bias_term: true
  }
}
layer {
  name: "conv5/incep1/relu1"
  type: "ReLU"
  bottom: "conv5/incep1/conv1"
  top: "conv5/incep1/conv1"
}
layer {
  name: "conv5/incep1/conv2"
  type: "Convolution"
  bottom: "conv5/incep1/conv1"
  top: "conv5/incep1/conv2"
  param {
    lr_mult: 1
    decay_mult: 1
  }
  convolution_param {
    num_output: 24
    pad: 1
    kernel_size: 3
    stride: 1
    weight_filler {
      type: "xavier"
    }
    bias_filler {
      type: "constant"
      value: 0
    }
  }
}
layer {
  name: "conv5/incep1/bn2"
  type: "BatchNorm"
  bottom: "conv5/incep1/conv2"
  top: "conv5/incep1/conv2"
  batch_norm_param {
    use_global_stats: true
  }
}
layer {
  name: "conv5/incep1/bn_scale2"
  type: "Scale"
  bottom: "conv5/incep1/conv2"
  top: "conv5/incep1/conv2"
  param {
    lr_mult: 1
    decay_mult: 0
  }
  param {
    lr_mult: 1
    decay_mult: 0
  }
  scale_param {
    bias_term: true
  }
}
layer {
  name: "conv5/incep1/relu2"
  type: "ReLU"
  bottom: "conv5/incep1/conv2"
  top: "conv5/incep1/conv2"
}
layer {
  name: "conv5/incep2/conv1"
  type: "Convolution"
  bottom: "conv3/incep"
  top: "conv5/incep2/conv1"
  param {
    lr_mult: 1
    decay_mult: 1
  }
  convolution_param {
    num_output: 16
    pad: 0
    kernel_size: 1
    stride: 1
    weight_filler {
      type: "xavier"
    }
    bias_filler {
      type: "constant"
      value: 0
    }
  }
}
layer {
  name: "conv5/incep2/bn1"
  type: "BatchNorm"
  bottom: "conv5/incep2/conv1"
  top: "conv5/incep2/conv1"
  batch_norm_param {
    use_global_stats: true
  }
}
layer {
  name: "conv5/incep2/bn_scale1"
  type: "Scale"
  bottom: "conv5/incep2/conv1"
  top: "conv5/incep2/conv1"
  param {
    lr_mult: 1
    decay_mult: 0
  }
  param {
    lr_mult: 1
    decay_mult: 0
  }
  scale_param {
    bias_term: true
  }
}
layer {
  name: "conv5/incep2/relu1"
  type: "ReLU"
  bottom: "conv5/incep2/conv1"
  top: "conv5/incep2/conv1"
}
layer {
  name: "conv5/incep2/conv2"
  type: "Convolution"
  bottom: "conv5/incep2/conv1"
  top: "conv5/incep2/conv2"
  param {
    lr_mult: 1
    decay_mult: 1
  }
  convolution_param {
    num_output: 24
    pad: 1
    kernel_size: 3
    stride: 1
    weight_filler {
      type: "xavier"
    }
    bias_filler {
      type: "constant"
      value: 0
    }
  }
}
layer {
  name: "conv5/incep2/bn2"
  type: "BatchNorm"
  bottom: "conv5/incep2/conv2"
  top: "conv5/incep2/conv2"
  batch_norm_param {
    use_global_stats: true
  }
}
layer {
  name: "conv5/incep2/bn_scale2"
  type: "Scale"
  bottom: "conv5/incep2/conv2"
  top: "conv5/incep2/conv2"
  param {
    lr_mult: 1
    decay_mult: 0
  }
  param {
    lr_mult: 1
    decay_mult: 0
  }
  scale_param {
    bias_term: true
  }
}
layer {
  name: "conv5/incep2/relu2"
  type: "ReLU"
  bottom: "conv5/incep2/conv2"
  top: "conv5/incep2/conv2"
}
layer {
  name: "conv5/incep2/conv3"
  type: "Convolution"
  bottom: "conv5/incep2/conv2"
  top: "conv5/incep2/conv3"
  param {
    lr_mult: 1
    decay_mult: 1
  }
  convolution_param {
    num_output: 24
    pad: 1
    kernel_size: 3
    stride: 1
    weight_filler {
      type: "xavier"
    }
    bias_filler {
      type: "constant"
      value: 0
    }
  }
}
layer {
  name: "conv5/incep2/bn3"
  type: "BatchNorm"
  bottom: "conv5/incep2/conv3"
  top: "conv5/incep2/conv3"
  batch_norm_param {
    use_global_stats: true
  }
}
layer {
  name: "conv5/incep2/bn_scale3"
  type: "Scale"
  bottom: "conv5/incep2/conv3"
  top: "conv5/incep2/conv3"
  param {
    lr_mult: 1
    decay_mult: 0
  }
  param {
    lr_mult: 1
    decay_mult: 0
  }
  scale_param {
    bias_term: true
  }
}
layer {
  name: "conv5/incep2/relu3"
  type: "ReLU"
  bottom: "conv5/incep2/conv3"
  top: "conv5/incep2/conv3"
}
layer {
  name: "conv5/incep"
  type: "Concat"
  bottom: "conv5/incep0/conv"
  bottom: "conv5/incep1/conv2"
  bottom: "conv5/incep2/conv3"
  top: "conv5/incep"
}
layer {
  name: "Inception3/conv/loc1"
  type: "Convolution"
  bottom: "conv5/incep"
  top: "Inception3/conv/loc1"
  param {
    lr_mult: 1
    decay_mult: 1
  }
  param {
    lr_mult: 2
    decay_mult: 0
  }
  convolution_param {
    num_output: 4
    pad: 1
    kernel_size: 3
    stride: 1
    weight_filler {
      type: "xavier"
    }
    bias_filler {
      type: "constant"
      value: 0
    }
  }
}
layer {
  name: "Inception3/conv/loc1/perm"
  type: "Permute"
  bottom: "Inception3/conv/loc1"
  top: "Inception3/conv/loc1/perm"
  permute_param {
    order: 0
    order: 2
    order: 3
    order: 1
  }
}
layer {
  name: "Inception3/conv/loc1/flat"
  type: "Flatten"
  bottom: "Inception3/conv/loc1/perm"
  top: "Inception3/conv/loc1/flat"
  flatten_param {
    axis: 1
  }
}
layer {
  name: "Inception3/conv/conf1"
  type: "Convolution"
  bottom: "conv5/incep"
  top: "Inception3/conv/conf1"
  param {
    lr_mult: 1
    decay_mult: 1
  }
  param {
    lr_mult: 2
    decay_mult: 0
  }
  convolution_param {
    num_output: 2
    pad: 1
    kernel_size: 3
    stride: 1
    weight_filler {
      type: "xavier"
    }
    bias_filler {
      type: "constant"
      value: 0
    }
  }
}
layer {
  name: "Inception3/conv/conf1/perm"
  type: "Permute"
  bottom: "Inception3/conv/conf1"
  top: "Inception3/conv/conf1/perm"
  permute_param {
    order: 0
    order: 2
    order: 3
    order: 1
  }
}
layer {
  name: "Inception3/conv/conf1/flat"
  type: "Flatten"
  bottom: "Inception3/conv/conf1/perm"
  top: "Inception3/conv/conf1/flat"
  flatten_param {
    axis: 1
  }
}
layer {
  name: "Inception3/conv/priorbox1"
  type: "PriorBox"
  bottom: "conv5/incep"
  bottom: "data"
  top: "Inception3/conv/priorbox1"
  prior_box_param {
    min_size: 12
    aspect_ratio: 1
    flip: true
    clip: true
    variance: 0.1
    variance: 0.1
    variance: 0.2
    variance: 0.2
  }
}
layer {
  name: "Inception3/conv/loc2"
  type: "Convolution"
  bottom: "conv5/incep"
  top: "Inception3/conv/loc2"
  param {
    lr_mult: 1
    decay_mult: 1
  }
  param {
    lr_mult: 2
    decay_mult: 0
  }
  convolution_param {
    num_output: 4
    pad: 1
    kernel_size: 3
    stride: 1
    weight_filler {
      type: "xavier"
    }
    bias_filler {
      type: "constant"
      value: 0
    }
  }
}
layer {
  name: "Inception3/conv/loc2/perm"
  type: "Permute"
  bottom: "Inception3/conv/loc2"
  top: "Inception3/conv/loc2/perm"
  permute_param {
    order: 0
    order: 2
    order: 3
    order: 1
  }
}
layer {
  name: "Inception3/conv/loc2/flat"
  type: "Flatten"
  bottom: "Inception3/conv/loc2/perm"
  top: "Inception3/conv/loc2/flat"
  flatten_param {
    axis: 1
  }
}
layer {
  name: "Inception3/conv/conf2"
  type: "Convolution"
  bottom: "conv5/incep"
  top: "Inception3/conv/conf2"
  param {
    lr_mult: 1
    decay_mult: 1
  }
  param {
    lr_mult: 2
    decay_mult: 0
  }
  convolution_param {
    num_output: 2
    pad: 1
    kernel_size: 3
    stride: 1
    weight_filler {
      type: "xavier"
    }
    bias_filler {
      type: "constant"
      value: 0
    }
  }
}
layer {
  name: "Inception3/conv/conf2/perm"
  type: "Permute"
  bottom: "Inception3/conv/conf2"
  top: "Inception3/conv/conf2/perm"
  permute_param {
    order: 0
    order: 2
    order: 3
    order: 1
  }
}
layer {
  name: "Inception3/conv/conf2/flat"
  type: "Flatten"
  bottom: "Inception3/conv/conf2/perm"
  top: "Inception3/conv/conf2/flat"
  flatten_param {
    axis: 1
  }
}
layer {
  name: "Inception3/conv/priorbox2"
  type: "PriorBox"
  bottom: "conv5/incep"
  bottom: "data"
  top: "Inception3/conv/priorbox2"
  prior_box_param {
    min_size: 24
    aspect_ratio: 1
    flip: true
    clip: true
    variance: 0.1
    variance: 0.1
    variance: 0.2
    variance: 0.2
  }
}
layer {
  name: "Inception3/conv/loc3"
  type: "Convolution"
  bottom: "conv5/incep"
  top: "Inception3/conv/loc3"
  param {
    lr_mult: 1
    decay_mult: 1
  }
  param {
    lr_mult: 2
    decay_mult: 0
  }
  convolution_param {
    num_output: 4
    pad: 1
    kernel_size: 3
    stride: 1
    weight_filler {
      type: "xavier"
    }
    bias_filler {
      type: "constant"
      value: 0
    }
  }
}
layer {
  name: "Inception3/conv/loc3/perm"
  type: "Permute"
  bottom: "Inception3/conv/loc3"
  top: "Inception3/conv/loc3/perm"
  permute_param {
    order: 0
    order: 2
    order: 3
    order: 1
  }
}
layer {
  name: "Inception3/conv/loc3/flat"
  type: "Flatten"
  bottom: "Inception3/conv/loc3/perm"
  top: "Inception3/conv/loc3/flat"
  flatten_param {
    axis: 1
  }
}
layer {
  name: "Inception3/conv/conf3"
  type: "Convolution"
  bottom: "conv5/incep"
  top: "Inception3/conv/conf3"
  param {
    lr_mult: 1
    decay_mult: 1
  }
  param {
    lr_mult: 2
    decay_mult: 0
  }
  convolution_param {
    num_output: 2
    pad: 1
    kernel_size: 3
    stride: 1
    weight_filler {
      type: "xavier"
    }
    bias_filler {
      type: "constant"
      value: 0
    }
  }
}
layer {
  name: "Inception3/conv/conf3/perm"
  type: "Permute"
  bottom: "Inception3/conv/conf3"
  top: "Inception3/conv/conf3/perm"
  permute_param {
    order: 0
    order: 2
    order: 3
    order: 1
  }
}
layer {
  name: "Inception3/conv/conf3/flat"
  type: "Flatten"
  bottom: "Inception3/conv/conf3/perm"
  top: "Inception3/conv/conf3/flat"
  flatten_param {
    axis: 1
  }
}
layer {
  name: "Inception3/conv/priorbox3"
  type: "PriorBox"
  bottom: "conv5/incep"
  bottom: "data"
  top: "Inception3/conv/priorbox3"
  prior_box_param {
    min_size: 48
    aspect_ratio: 1
    flip: true
    clip: true
    variance: 0.1
    variance: 0.1
    variance: 0.2
    variance: 0.2
  }
}
layer {
  name: "conv6_1"
  type: "Convolution"
  bottom: "conv5/incep"
  top: "conv6_1"
  param {
    lr_mult: 1
    decay_mult: 1
  }
  convolution_param {
    num_output: 24
    pad: 0
    kernel_size: 1
    stride: 1
    weight_filler {
      type: "xavier"
    }
    bias_filler {
      type: "constant"
      value: 0
    }
  }
}
layer {
  name: "conv6/bn1"
  type: "BatchNorm"
  bottom: "conv6_1"
  top: "conv6_1"
  batch_norm_param {
    use_global_stats: true
  }
}
layer {
  name: "conv6/bn_scale1"
  type: "Scale"
  bottom: "conv6_1"
  top: "conv6_1"
  param {
    lr_mult: 1
    decay_mult: 0
  }
  param {
    lr_mult: 1
    decay_mult: 0
  }
  scale_param {
    bias_term: true
  }
}
layer {
  name: "conv6/relu1"
  type: "ReLU"
  bottom: "conv6_1"
  top: "conv6_1"
}
layer {
  name: "conv6_2"
  type: "Convolution"
  bottom: "conv6_1"
  top: "conv6_2"
  param {
    lr_mult: 1
    decay_mult: 1
  }
  convolution_param {
    num_output: 48
    pad: 1
    kernel_size: 3
    stride: 2
    weight_filler {
      type: "xavier"
    }
    bias_filler {
      type: "constant"
      value: 0
    }
  }
}
layer {
  name: "conv6/bn2"
  type: "BatchNorm"
  bottom: "conv6_2"
  top: "conv6_2"
  batch_norm_param {
    use_global_stats: true
  }
}
layer {
  name: "conv6/bn_scale2"
  type: "Scale"
  bottom: "conv6_2"
  top: "conv6_2"
  param {
    lr_mult: 1
    decay_mult: 0
  }
  param {
    lr_mult: 1
    decay_mult: 0
  }
  scale_param {
    bias_term: true
  }
}
layer {
  name: "conv6/relu2"
  type: "ReLU"
  bottom: "conv6_2"
  top: "conv6_2"
}
layer {
  name: "conv6/loc"
  type: "Convolution"
  bottom: "conv6_2"
  top: "conv6/loc"
  param {
    lr_mult: 1
    decay_mult: 1
  }
  param {
    lr_mult: 2
    decay_mult: 0
  }
  convolution_param {
    num_output: 4
    pad: 1
    kernel_size: 3
    stride: 1
    weight_filler {
      type: "xavier"
    }
    bias_filler {
      type: "constant"
      value: 0
    }
  }
}
layer {
  name: "conv6/loc/perm"
  type: "Permute"
  bottom: "conv6/loc"
  top: "conv6/loc/perm"
  permute_param {
    order: 0
    order: 2
    order: 3
    order: 1
  }
}
layer {
  name: "conv6/loc/perm/flat"
  type: "Flatten"
  bottom: "conv6/loc/perm"
  top: "conv6/loc/perm/flat"
  flatten_param {
    axis: 1
  }
}
layer {
  name: "conv6/conf"
  type: "Convolution"
  bottom: "conv6_2"
  top: "conv6/conf"
  param {
    lr_mult: 1
    decay_mult: 1
  }
  param {
    lr_mult: 2
    decay_mult: 0
  }
  convolution_param {
    num_output: 2
    pad: 1
    kernel_size: 3
    stride: 1
    weight_filler {
      type: "xavier"
    }
    bias_filler {
      type: "constant"
      value: 0
    }
  }
}
layer {
  name: "conv6/conf/perm"
  type: "Permute"
  bottom: "conv6/conf"
  top: "conv6/conf/perm"
  permute_param {
    order: 0
    order: 2
    order: 3
    order: 1
  }
}
layer {
  name: "conv6/conf/perm/flat"
  type: "Flatten"
  bottom: "conv6/conf/perm"
  top: "conv6/conf/perm/flat"
  flatten_param {
    axis: 1
  }
}
layer {
  name: "conv6/priorbox"
  type: "PriorBox"
  bottom: "conv6_2"
  bottom: "data"
  top: "conv6/priorbox"
  prior_box_param {
    min_size: 96
    aspect_ratio: 1
    flip: true
    clip: true
    variance: 0.1
    variance: 0.1
    variance: 0.2
    variance: 0.2
  }
}
layer {
  name: "conv7_1"
  type: "Convolution"
  bottom: "conv6_2"
  top: "conv7_1"
  param {
    lr_mult: 1
    decay_mult: 1
  }
  convolution_param {
    num_output: 32
    pad: 0
    kernel_size: 1
    stride: 1
    weight_filler {
      type: "xavier"
    }
    bias_filler {
      type: "constant"
      value: 0
    }
  }
}
layer {
  name: "conv7/bn1"
  type: "BatchNorm"
  bottom: "conv7_1"
  top: "conv7_1"
  batch_norm_param {
    use_global_stats: true
  }
}
layer {
  name: "conv7/bn_scale1"
  type: "Scale"
  bottom: "conv7_1"
  top: "conv7_1"
  param {
    lr_mult: 1
    decay_mult: 0
  }
  param {
    lr_mult: 1
    decay_mult: 0
  }
  scale_param {
    bias_term: true
  }
}
layer {
  name: "conv7/relu1"
  type: "ReLU"
  bottom: "conv7_1"
  top: "conv7_1"
}
layer {
  name: "conv7_2"
  type: "Convolution"
  bottom: "conv7_1"
  top: "conv7_2"
  param {
    lr_mult: 1
    decay_mult: 1
  }
  convolution_param {
    num_output: 64
    pad: 1
    kernel_size: 3
    stride: 2
    weight_filler {
      type: "xavier"
    }
    bias_filler {
      type: "constant"
      value: 0
    }
  }
}
layer {
  name: "conv7/bn2"
  type: "BatchNorm"
  bottom: "conv7_2"
  top: "conv7_2"
  batch_norm_param {
    use_global_stats: true
  }
}
layer {
  name: "conv7/bn_scale2"
  type: "Scale"
  bottom: "conv7_2"
  top: "conv7_2"
  param {
    lr_mult: 1
    decay_mult: 0
  }
  param {
    lr_mult: 1
    decay_mult: 0
  }
  scale_param {
    bias_term: true
  }
}
layer {
  name: "conv7/relu2"
  type: "ReLU"
  bottom: "conv7_2"
  top: "conv7_2"
}
layer {
  name: "conv7/loc"
  type: "Convolution"
  bottom: "conv7_2"
  top: "conv7/loc"
  param {
    lr_mult: 1
    decay_mult: 1
  }
  param {
    lr_mult: 2
    decay_mult: 0
  }
  convolution_param {
    num_output: 4
    pad: 1
    kernel_size: 3
    stride: 1
    weight_filler {
      type: "xavier"
    }
    bias_filler {
      type: "constant"
      value: 0
    }
  }
}
layer {
  name: "conv7/loc/perm"
  type: "Permute"
  bottom: "conv7/loc"
  top: "conv7/loc/perm"
  permute_param {
    order: 0
    order: 2
    order: 3
    order: 1
  }
}
layer {
  name: "conv7/loc/perm/flat"
  type: "Flatten"
  bottom: "conv7/loc/perm"
  top: "conv7/loc/perm/flat"
  flatten_param {
    axis: 1
  }
}
layer {
  name: "conv7/conf"
  type: "Convolution"
  bottom: "conv7_2"
  top: "conv7/conf"
  param {
    lr_mult: 1
    decay_mult: 1
  }
  param {
    lr_mult: 2
    decay_mult: 0
  }
  convolution_param {
    num_output: 2
    pad: 1
    kernel_size: 3
    stride: 1
    weight_filler {
      type: "xavier"
    }
    bias_filler {
      type: "constant"
      value: 0
    }
  }
}
layer {
  name: "conv7/conf/perm"
  type: "Permute"
  bottom: "conv7/conf"
  top: "conv7/conf/perm"
  permute_param {
    order: 0
    order: 2
    order: 3
    order: 1
  }
}
layer {
  name: "conv7/conf/perm/flat"
  type: "Flatten"
  bottom: "conv7/conf/perm"
  top: "conv7/conf/perm/flat"
  flatten_param {
    axis: 1
  }
}
layer {
  name: "conv7/priorbox"
  type: "PriorBox"
  bottom: "conv7_2"
  bottom: "data"
  top: "conv7/priorbox"
  prior_box_param {
    min_size: 192
    aspect_ratio: 1
    flip: true
    clip: true
    variance: 0.1
    variance: 0.1
    variance: 0.2
    variance: 0.2
  }
}
layer {
  name: "mbox_loc"
  type: "Concat"
  bottom: "Inception3/conv/loc1/flat"
  bottom: "Inception3/conv/loc2/flat"
  bottom: "Inception3/conv/loc3/flat"
  bottom: "conv6/loc/perm/flat"
  bottom: "conv7/loc/perm/flat"
  top: "mbox_loc"
  concat_param {
    axis: 1
  }
}
layer {
  name: "mbox_conf"
  type: "Concat"
  bottom: "Inception3/conv/conf1/flat"
  bottom: "Inception3/conv/conf2/flat"
  bottom: "Inception3/conv/conf3/flat"
  bottom: "conv6/conf/perm/flat"
  bottom: "conv7/conf/perm/flat"
  top: "mbox_conf"
  concat_param {
    axis: 1
  }
}
layer {
  name: "mbox_priorbox"
  type: "Concat"
  bottom: "Inception3/conv/priorbox1"
  bottom: "Inception3/conv/priorbox2"
  bottom: "Inception3/conv/priorbox3"
  bottom: "conv6/priorbox"
  bottom: "conv7/priorbox"
  top: "mbox_priorbox"
  concat_param {
    axis: 2
  }
}
layer {
  name: "detection_out"
  type: "DetectionOutput"
  bottom: "mbox_loc"
  bottom: "mbox_conf"
  bottom: "mbox_priorbox"
  top: "detection_out"
  include {
    phase: TEST
  }
  detection_output_param {
    num_classes: 2
    share_location: true
    background_label_id: 0
    nms_param {
      nms_threshold: 0.45
      top_k: 100
    }
    save_output_param {
      output_directory: "models/faceboxes/umdface/SSD_300x300"
      output_name_prefix: "comp4_det_test_"
      output_format: "mbox_loc"
      label_map_file: "data/umdfaces_final/labelmap_face.prototxt"
      name_size_file: "data/umdfaces_final/test_name_size.txt"
      num_test_image: 2000
    }
    code_type: CENTER_SIZE
    keep_top_k: 100
    confidence_threshold: 0.01
  }
}
layer {
  name: "detection_eval"
  type: "DetectionEvaluate"
  bottom: "detection_out"
  bottom: "label"
  top: "detection_eval"
  include {
    phase: TEST
  }
  detection_evaluate_param {
    num_classes: 2
    background_label_id: 0
    overlap_threshold: 0.5
    evaluate_difficult_gt: true
    name_size_file: "data/umdfaces_final/test_name_size.txt"
  }
}
I1211 10:50:59.805227   574 layer_factory.hpp:77] Creating layer data
I1211 10:50:59.805325   574 net.cpp:100] Creating Layer data
I1211 10:50:59.805335   574 net.cpp:408] data -> data
I1211 10:50:59.805346   574 net.cpp:408] data -> label
I1211 10:50:59.834745   606 db_lmdb.cpp:35] Opened lmdb examples/umdfaces_final/umdfaces_final_test_lmdb
I1211 10:50:59.836194   574 annotated_data_layer.cpp:62] output data size: 4,3,324,324
I1211 10:50:59.853700   574 net.cpp:150] Setting up data
I1211 10:50:59.853731   574 net.cpp:157] Top shape: 4 3 324 324 (1259712)
I1211 10:50:59.853736   574 net.cpp:157] Top shape: 1 1 1 8 (8)
I1211 10:50:59.853739   574 net.cpp:165] Memory required for data: 5038880
I1211 10:50:59.853746   574 layer_factory.hpp:77] Creating layer data_data_0_split
I1211 10:50:59.853765   574 net.cpp:100] Creating Layer data_data_0_split
I1211 10:50:59.853770   574 net.cpp:434] data_data_0_split <- data
I1211 10:50:59.853778   574 net.cpp:408] data_data_0_split -> data_data_0_split_0
I1211 10:50:59.853791   574 net.cpp:408] data_data_0_split -> data_data_0_split_1
I1211 10:50:59.853826   574 net.cpp:408] data_data_0_split -> data_data_0_split_2
I1211 10:50:59.853834   574 net.cpp:408] data_data_0_split -> data_data_0_split_3
I1211 10:50:59.853842   574 net.cpp:408] data_data_0_split -> data_data_0_split_4
I1211 10:50:59.853847   574 net.cpp:408] data_data_0_split -> data_data_0_split_5
I1211 10:50:59.854030   574 net.cpp:150] Setting up data_data_0_split
I1211 10:50:59.854041   574 net.cpp:157] Top shape: 4 3 324 324 (1259712)
I1211 10:50:59.854046   574 net.cpp:157] Top shape: 4 3 324 324 (1259712)
I1211 10:50:59.854050   574 net.cpp:157] Top shape: 4 3 324 324 (1259712)
I1211 10:50:59.854053   574 net.cpp:157] Top shape: 4 3 324 324 (1259712)
I1211 10:50:59.854058   574 net.cpp:157] Top shape: 4 3 324 324 (1259712)
I1211 10:50:59.854061   574 net.cpp:157] Top shape: 4 3 324 324 (1259712)
I1211 10:50:59.854064   574 net.cpp:165] Memory required for data: 35271968
I1211 10:50:59.854068   574 layer_factory.hpp:77] Creating layer conv1
I1211 10:50:59.854082   574 net.cpp:100] Creating Layer conv1
I1211 10:50:59.854086   574 net.cpp:434] conv1 <- data_data_0_split_0
I1211 10:50:59.854094   574 net.cpp:408] conv1 -> conv1
I1211 10:50:59.863916   574 net.cpp:150] Setting up conv1
I1211 10:50:59.863935   574 net.cpp:157] Top shape: 4 8 161 161 (829472)
I1211 10:50:59.863940   574 net.cpp:165] Memory required for data: 38589856
I1211 10:50:59.863951   574 layer_factory.hpp:77] Creating layer conv1/bn
I1211 10:50:59.863960   574 net.cpp:100] Creating Layer conv1/bn
I1211 10:50:59.863965   574 net.cpp:434] conv1/bn <- conv1
I1211 10:50:59.863970   574 net.cpp:395] conv1/bn -> conv1 (in-place)
I1211 10:50:59.864270   574 net.cpp:150] Setting up conv1/bn
I1211 10:50:59.864282   574 net.cpp:157] Top shape: 4 8 161 161 (829472)
I1211 10:50:59.864285   574 net.cpp:165] Memory required for data: 41907744
I1211 10:50:59.864296   574 layer_factory.hpp:77] Creating layer conv1/scale
I1211 10:50:59.864306   574 net.cpp:100] Creating Layer conv1/scale
I1211 10:50:59.864310   574 net.cpp:434] conv1/scale <- conv1
I1211 10:50:59.864315   574 net.cpp:395] conv1/scale -> conv1 (in-place)
I1211 10:50:59.864365   574 layer_factory.hpp:77] Creating layer conv1/scale
I1211 10:50:59.864588   574 net.cpp:150] Setting up conv1/scale
I1211 10:50:59.864598   574 net.cpp:157] Top shape: 4 8 161 161 (829472)
I1211 10:50:59.864600   574 net.cpp:165] Memory required for data: 45225632
I1211 10:50:59.864608   574 layer_factory.hpp:77] Creating layer conv1/relu
I1211 10:50:59.864614   574 net.cpp:100] Creating Layer conv1/relu
I1211 10:50:59.864616   574 net.cpp:434] conv1/relu <- conv1
I1211 10:50:59.864622   574 net.cpp:395] conv1/relu -> conv1 (in-place)
I1211 10:50:59.864845   574 net.cpp:150] Setting up conv1/relu
I1211 10:50:59.864856   574 net.cpp:157] Top shape: 4 8 161 161 (829472)
I1211 10:50:59.864859   574 net.cpp:165] Memory required for data: 48543520
I1211 10:50:59.864862   574 layer_factory.hpp:77] Creating layer conv2-1
I1211 10:50:59.864872   574 net.cpp:100] Creating Layer conv2-1
I1211 10:50:59.864876   574 net.cpp:434] conv2-1 <- conv1
I1211 10:50:59.864882   574 net.cpp:408] conv2-1 -> conv2-1
I1211 10:50:59.870172   574 net.cpp:150] Setting up conv2-1
I1211 10:50:59.870188   574 net.cpp:157] Top shape: 4 16 80 80 (409600)
I1211 10:50:59.870191   574 net.cpp:165] Memory required for data: 50181920
I1211 10:50:59.870201   574 layer_factory.hpp:77] Creating layer conv2-1/bn
I1211 10:50:59.870210   574 net.cpp:100] Creating Layer conv2-1/bn
I1211 10:50:59.870214   574 net.cpp:434] conv2-1/bn <- conv2-1
I1211 10:50:59.870220   574 net.cpp:395] conv2-1/bn -> conv2-1 (in-place)
I1211 10:50:59.870488   574 net.cpp:150] Setting up conv2-1/bn
I1211 10:50:59.870498   574 net.cpp:157] Top shape: 4 16 80 80 (409600)
I1211 10:50:59.870501   574 net.cpp:165] Memory required for data: 51820320
I1211 10:50:59.870509   574 layer_factory.hpp:77] Creating layer conv2-1/scale
I1211 10:50:59.870519   574 net.cpp:100] Creating Layer conv2-1/scale
I1211 10:50:59.870523   574 net.cpp:434] conv2-1/scale <- conv2-1
I1211 10:50:59.870543   574 net.cpp:395] conv2-1/scale -> conv2-1 (in-place)
I1211 10:50:59.870597   574 layer_factory.hpp:77] Creating layer conv2-1/scale
I1211 10:50:59.870750   574 net.cpp:150] Setting up conv2-1/scale
I1211 10:50:59.870759   574 net.cpp:157] Top shape: 4 16 80 80 (409600)
I1211 10:50:59.870762   574 net.cpp:165] Memory required for data: 53458720
I1211 10:50:59.870769   574 layer_factory.hpp:77] Creating layer conv2-1/relu
I1211 10:50:59.870776   574 net.cpp:100] Creating Layer conv2-1/relu
I1211 10:50:59.870780   574 net.cpp:434] conv2-1/relu <- conv2-1
I1211 10:50:59.870785   574 net.cpp:395] conv2-1/relu -> conv2-1 (in-place)
I1211 10:50:59.872655   574 net.cpp:150] Setting up conv2-1/relu
I1211 10:50:59.872670   574 net.cpp:157] Top shape: 4 16 80 80 (409600)
I1211 10:50:59.872673   574 net.cpp:165] Memory required for data: 55097120
I1211 10:50:59.872678   574 layer_factory.hpp:77] Creating layer conv2-2
I1211 10:50:59.872690   574 net.cpp:100] Creating Layer conv2-2
I1211 10:50:59.872694   574 net.cpp:434] conv2-2 <- conv2-1
I1211 10:50:59.872701   574 net.cpp:408] conv2-2 -> conv2-2
I1211 10:50:59.880363   574 net.cpp:150] Setting up conv2-2
I1211 10:50:59.880390   574 net.cpp:157] Top shape: 4 32 39 39 (194688)
I1211 10:50:59.880394   574 net.cpp:165] Memory required for data: 55875872
I1211 10:50:59.880401   574 layer_factory.hpp:77] Creating layer conv2-2/bn
I1211 10:50:59.880409   574 net.cpp:100] Creating Layer conv2-2/bn
I1211 10:50:59.880414   574 net.cpp:434] conv2-2/bn <- conv2-2
I1211 10:50:59.880420   574 net.cpp:395] conv2-2/bn -> conv2-2 (in-place)
I1211 10:50:59.880686   574 net.cpp:150] Setting up conv2-2/bn
I1211 10:50:59.880694   574 net.cpp:157] Top shape: 4 32 39 39 (194688)
I1211 10:50:59.880697   574 net.cpp:165] Memory required for data: 56654624
I1211 10:50:59.880708   574 layer_factory.hpp:77] Creating layer conv2-2/scale
I1211 10:50:59.880717   574 net.cpp:100] Creating Layer conv2-2/scale
I1211 10:50:59.880719   574 net.cpp:434] conv2-2/scale <- conv2-2
I1211 10:50:59.880725   574 net.cpp:395] conv2-2/scale -> conv2-2 (in-place)
I1211 10:50:59.880777   574 layer_factory.hpp:77] Creating layer conv2-2/scale
I1211 10:50:59.880946   574 net.cpp:150] Setting up conv2-2/scale
I1211 10:50:59.880956   574 net.cpp:157] Top shape: 4 32 39 39 (194688)
I1211 10:50:59.880959   574 net.cpp:165] Memory required for data: 57433376
I1211 10:50:59.880965   574 layer_factory.hpp:77] Creating layer conv2-2/relu
I1211 10:50:59.880973   574 net.cpp:100] Creating Layer conv2-2/relu
I1211 10:50:59.880977   574 net.cpp:434] conv2-2/relu <- conv2-2
I1211 10:50:59.880981   574 net.cpp:395] conv2-2/relu -> conv2-2 (in-place)
I1211 10:50:59.882750   574 net.cpp:150] Setting up conv2-2/relu
I1211 10:50:59.882766   574 net.cpp:157] Top shape: 4 32 39 39 (194688)
I1211 10:50:59.882768   574 net.cpp:165] Memory required for data: 58212128
I1211 10:50:59.882771   574 layer_factory.hpp:77] Creating layer pool2
I1211 10:50:59.882779   574 net.cpp:100] Creating Layer pool2
I1211 10:50:59.882782   574 net.cpp:434] pool2 <- conv2-2
I1211 10:50:59.882792   574 net.cpp:408] pool2 -> pool2
I1211 10:50:59.882853   574 net.cpp:150] Setting up pool2
I1211 10:50:59.882859   574 net.cpp:157] Top shape: 4 32 19 19 (46208)
I1211 10:50:59.882861   574 net.cpp:165] Memory required for data: 58396960
I1211 10:50:59.882864   574 layer_factory.hpp:77] Creating layer pool2_pool2_0_split
I1211 10:50:59.882872   574 net.cpp:100] Creating Layer pool2_pool2_0_split
I1211 10:50:59.882875   574 net.cpp:434] pool2_pool2_0_split <- pool2
I1211 10:50:59.882881   574 net.cpp:408] pool2_pool2_0_split -> pool2_pool2_0_split_0
I1211 10:50:59.882889   574 net.cpp:408] pool2_pool2_0_split -> pool2_pool2_0_split_1
I1211 10:50:59.882894   574 net.cpp:408] pool2_pool2_0_split -> pool2_pool2_0_split_2
I1211 10:50:59.882956   574 net.cpp:150] Setting up pool2_pool2_0_split
I1211 10:50:59.882963   574 net.cpp:157] Top shape: 4 32 19 19 (46208)
I1211 10:50:59.882967   574 net.cpp:157] Top shape: 4 32 19 19 (46208)
I1211 10:50:59.882987   574 net.cpp:157] Top shape: 4 32 19 19 (46208)
I1211 10:50:59.882989   574 net.cpp:165] Memory required for data: 58951456
I1211 10:50:59.882992   574 layer_factory.hpp:77] Creating layer conv3/incep0/conv
I1211 10:50:59.883008   574 net.cpp:100] Creating Layer conv3/incep0/conv
I1211 10:50:59.883011   574 net.cpp:434] conv3/incep0/conv <- pool2_pool2_0_split_0
I1211 10:50:59.883018   574 net.cpp:408] conv3/incep0/conv -> conv3/incep0/conv
I1211 10:50:59.890609   574 net.cpp:150] Setting up conv3/incep0/conv
I1211 10:50:59.890625   574 net.cpp:157] Top shape: 4 24 19 19 (34656)
I1211 10:50:59.890630   574 net.cpp:165] Memory required for data: 59090080
I1211 10:50:59.890636   574 layer_factory.hpp:77] Creating layer conv3/incep0/bn
I1211 10:50:59.890645   574 net.cpp:100] Creating Layer conv3/incep0/bn
I1211 10:50:59.890648   574 net.cpp:434] conv3/incep0/bn <- conv3/incep0/conv
I1211 10:50:59.890655   574 net.cpp:395] conv3/incep0/bn -> conv3/incep0/conv (in-place)
I1211 10:50:59.890914   574 net.cpp:150] Setting up conv3/incep0/bn
I1211 10:50:59.890923   574 net.cpp:157] Top shape: 4 24 19 19 (34656)
I1211 10:50:59.890926   574 net.cpp:165] Memory required for data: 59228704
I1211 10:50:59.890933   574 layer_factory.hpp:77] Creating layer conv3/incep0/bn_scale
I1211 10:50:59.890939   574 net.cpp:100] Creating Layer conv3/incep0/bn_scale
I1211 10:50:59.890944   574 net.cpp:434] conv3/incep0/bn_scale <- conv3/incep0/conv
I1211 10:50:59.890952   574 net.cpp:395] conv3/incep0/bn_scale -> conv3/incep0/conv (in-place)
I1211 10:50:59.891005   574 layer_factory.hpp:77] Creating layer conv3/incep0/bn_scale
I1211 10:50:59.891158   574 net.cpp:150] Setting up conv3/incep0/bn_scale
I1211 10:50:59.891166   574 net.cpp:157] Top shape: 4 24 19 19 (34656)
I1211 10:50:59.891170   574 net.cpp:165] Memory required for data: 59367328
I1211 10:50:59.891175   574 layer_factory.hpp:77] Creating layer conv3/incep0/relu
I1211 10:50:59.891182   574 net.cpp:100] Creating Layer conv3/incep0/relu
I1211 10:50:59.891186   574 net.cpp:434] conv3/incep0/relu <- conv3/incep0/conv
I1211 10:50:59.891191   574 net.cpp:395] conv3/incep0/relu -> conv3/incep0/conv (in-place)
I1211 10:50:59.893045   574 net.cpp:150] Setting up conv3/incep0/relu
I1211 10:50:59.893059   574 net.cpp:157] Top shape: 4 24 19 19 (34656)
I1211 10:50:59.893061   574 net.cpp:165] Memory required for data: 59505952
I1211 10:50:59.893064   574 layer_factory.hpp:77] Creating layer conv3/incep1/conv1
I1211 10:50:59.893077   574 net.cpp:100] Creating Layer conv3/incep1/conv1
I1211 10:50:59.893081   574 net.cpp:434] conv3/incep1/conv1 <- pool2_pool2_0_split_1
I1211 10:50:59.893088   574 net.cpp:408] conv3/incep1/conv1 -> conv3/incep1/conv1
I1211 10:50:59.897549   574 net.cpp:150] Setting up conv3/incep1/conv1
I1211 10:50:59.897568   574 net.cpp:157] Top shape: 4 16 19 19 (23104)
I1211 10:50:59.897572   574 net.cpp:165] Memory required for data: 59598368
I1211 10:50:59.897579   574 layer_factory.hpp:77] Creating layer conv3/incep1/bn1
I1211 10:50:59.897586   574 net.cpp:100] Creating Layer conv3/incep1/bn1
I1211 10:50:59.897593   574 net.cpp:434] conv3/incep1/bn1 <- conv3/incep1/conv1
I1211 10:50:59.897599   574 net.cpp:395] conv3/incep1/bn1 -> conv3/incep1/conv1 (in-place)
I1211 10:50:59.897861   574 net.cpp:150] Setting up conv3/incep1/bn1
I1211 10:50:59.897869   574 net.cpp:157] Top shape: 4 16 19 19 (23104)
I1211 10:50:59.897872   574 net.cpp:165] Memory required for data: 59690784
I1211 10:50:59.897882   574 layer_factory.hpp:77] Creating layer conv3/incep1/bn_scale1
I1211 10:50:59.897891   574 net.cpp:100] Creating Layer conv3/incep1/bn_scale1
I1211 10:50:59.897895   574 net.cpp:434] conv3/incep1/bn_scale1 <- conv3/incep1/conv1
I1211 10:50:59.897902   574 net.cpp:395] conv3/incep1/bn_scale1 -> conv3/incep1/conv1 (in-place)
I1211 10:50:59.897972   574 layer_factory.hpp:77] Creating layer conv3/incep1/bn_scale1
I1211 10:50:59.898134   574 net.cpp:150] Setting up conv3/incep1/bn_scale1
I1211 10:50:59.898144   574 net.cpp:157] Top shape: 4 16 19 19 (23104)
I1211 10:50:59.898159   574 net.cpp:165] Memory required for data: 59783200
I1211 10:50:59.898166   574 layer_factory.hpp:77] Creating layer conv3/incep1/relu1
I1211 10:50:59.898175   574 net.cpp:100] Creating Layer conv3/incep1/relu1
I1211 10:50:59.898178   574 net.cpp:434] conv3/incep1/relu1 <- conv3/incep1/conv1
I1211 10:50:59.898183   574 net.cpp:395] conv3/incep1/relu1 -> conv3/incep1/conv1 (in-place)
I1211 10:50:59.898844   574 net.cpp:150] Setting up conv3/incep1/relu1
I1211 10:50:59.898859   574 net.cpp:157] Top shape: 4 16 19 19 (23104)
I1211 10:50:59.898861   574 net.cpp:165] Memory required for data: 59875616
I1211 10:50:59.898864   574 layer_factory.hpp:77] Creating layer conv3/incep1/conv2
I1211 10:50:59.898876   574 net.cpp:100] Creating Layer conv3/incep1/conv2
I1211 10:50:59.898880   574 net.cpp:434] conv3/incep1/conv2 <- conv3/incep1/conv1
I1211 10:50:59.898890   574 net.cpp:408] conv3/incep1/conv2 -> conv3/incep1/conv2
I1211 10:50:59.904743   574 net.cpp:150] Setting up conv3/incep1/conv2
I1211 10:50:59.904759   574 net.cpp:157] Top shape: 4 24 19 19 (34656)
I1211 10:50:59.904762   574 net.cpp:165] Memory required for data: 60014240
I1211 10:50:59.904769   574 layer_factory.hpp:77] Creating layer conv3/incep1/bn2
I1211 10:50:59.904778   574 net.cpp:100] Creating Layer conv3/incep1/bn2
I1211 10:50:59.904783   574 net.cpp:434] conv3/incep1/bn2 <- conv3/incep1/conv2
I1211 10:50:59.904788   574 net.cpp:395] conv3/incep1/bn2 -> conv3/incep1/conv2 (in-place)
I1211 10:50:59.905048   574 net.cpp:150] Setting up conv3/incep1/bn2
I1211 10:50:59.905056   574 net.cpp:157] Top shape: 4 24 19 19 (34656)
I1211 10:50:59.905059   574 net.cpp:165] Memory required for data: 60152864
I1211 10:50:59.905066   574 layer_factory.hpp:77] Creating layer conv3/incep1/bn_scale2
I1211 10:50:59.905074   574 net.cpp:100] Creating Layer conv3/incep1/bn_scale2
I1211 10:50:59.905078   574 net.cpp:434] conv3/incep1/bn_scale2 <- conv3/incep1/conv2
I1211 10:50:59.905083   574 net.cpp:395] conv3/incep1/bn_scale2 -> conv3/incep1/conv2 (in-place)
I1211 10:50:59.905134   574 layer_factory.hpp:77] Creating layer conv3/incep1/bn_scale2
I1211 10:50:59.905285   574 net.cpp:150] Setting up conv3/incep1/bn_scale2
I1211 10:50:59.905295   574 net.cpp:157] Top shape: 4 24 19 19 (34656)
I1211 10:50:59.905298   574 net.cpp:165] Memory required for data: 60291488
I1211 10:50:59.905304   574 layer_factory.hpp:77] Creating layer conv3/incep1/relu2
I1211 10:50:59.905310   574 net.cpp:100] Creating Layer conv3/incep1/relu2
I1211 10:50:59.905313   574 net.cpp:434] conv3/incep1/relu2 <- conv3/incep1/conv2
I1211 10:50:59.905318   574 net.cpp:395] conv3/incep1/relu2 -> conv3/incep1/conv2 (in-place)
I1211 10:50:59.906898   574 net.cpp:150] Setting up conv3/incep1/relu2
I1211 10:50:59.906911   574 net.cpp:157] Top shape: 4 24 19 19 (34656)
I1211 10:50:59.906915   574 net.cpp:165] Memory required for data: 60430112
I1211 10:50:59.906919   574 layer_factory.hpp:77] Creating layer conv3/incep2/conv1
I1211 10:50:59.906930   574 net.cpp:100] Creating Layer conv3/incep2/conv1
I1211 10:50:59.906934   574 net.cpp:434] conv3/incep2/conv1 <- pool2_pool2_0_split_2
I1211 10:50:59.906944   574 net.cpp:408] conv3/incep2/conv1 -> conv3/incep2/conv1
I1211 10:50:59.913105   574 net.cpp:150] Setting up conv3/incep2/conv1
I1211 10:50:59.913123   574 net.cpp:157] Top shape: 4 16 19 19 (23104)
I1211 10:50:59.913127   574 net.cpp:165] Memory required for data: 60522528
I1211 10:50:59.913134   574 layer_factory.hpp:77] Creating layer conv3/incep2/bn1
I1211 10:50:59.913141   574 net.cpp:100] Creating Layer conv3/incep2/bn1
I1211 10:50:59.913146   574 net.cpp:434] conv3/incep2/bn1 <- conv3/incep2/conv1
I1211 10:50:59.913152   574 net.cpp:395] conv3/incep2/bn1 -> conv3/incep2/conv1 (in-place)
I1211 10:50:59.913424   574 net.cpp:150] Setting up conv3/incep2/bn1
I1211 10:50:59.913434   574 net.cpp:157] Top shape: 4 16 19 19 (23104)
I1211 10:50:59.913436   574 net.cpp:165] Memory required for data: 60614944
I1211 10:50:59.913444   574 layer_factory.hpp:77] Creating layer conv3/incep2/bn_scale1
I1211 10:50:59.913465   574 net.cpp:100] Creating Layer conv3/incep2/bn_scale1
I1211 10:50:59.913470   574 net.cpp:434] conv3/incep2/bn_scale1 <- conv3/incep2/conv1
I1211 10:50:59.913475   574 net.cpp:395] conv3/incep2/bn_scale1 -> conv3/incep2/conv1 (in-place)
I1211 10:50:59.913530   574 layer_factory.hpp:77] Creating layer conv3/incep2/bn_scale1
I1211 10:50:59.913702   574 net.cpp:150] Setting up conv3/incep2/bn_scale1
I1211 10:50:59.913710   574 net.cpp:157] Top shape: 4 16 19 19 (23104)
I1211 10:50:59.913713   574 net.cpp:165] Memory required for data: 60707360
I1211 10:50:59.913719   574 layer_factory.hpp:77] Creating layer conv3/incep2/relu1
I1211 10:50:59.913725   574 net.cpp:100] Creating Layer conv3/incep2/relu1
I1211 10:50:59.913728   574 net.cpp:434] conv3/incep2/relu1 <- conv3/incep2/conv1
I1211 10:50:59.913736   574 net.cpp:395] conv3/incep2/relu1 -> conv3/incep2/conv1 (in-place)
I1211 10:50:59.919456   574 net.cpp:150] Setting up conv3/incep2/relu1
I1211 10:50:59.919473   574 net.cpp:157] Top shape: 4 16 19 19 (23104)
I1211 10:50:59.919476   574 net.cpp:165] Memory required for data: 60799776
I1211 10:50:59.919481   574 layer_factory.hpp:77] Creating layer conv3/incep2/conv2
I1211 10:50:59.919498   574 net.cpp:100] Creating Layer conv3/incep2/conv2
I1211 10:50:59.919503   574 net.cpp:434] conv3/incep2/conv2 <- conv3/incep2/conv1
I1211 10:50:59.919510   574 net.cpp:408] conv3/incep2/conv2 -> conv3/incep2/conv2
I1211 10:50:59.924758   574 net.cpp:150] Setting up conv3/incep2/conv2
I1211 10:50:59.924774   574 net.cpp:157] Top shape: 4 24 19 19 (34656)
I1211 10:50:59.924778   574 net.cpp:165] Memory required for data: 60938400
I1211 10:50:59.924785   574 layer_factory.hpp:77] Creating layer conv3/incep2/bn2
I1211 10:50:59.924793   574 net.cpp:100] Creating Layer conv3/incep2/bn2
I1211 10:50:59.924798   574 net.cpp:434] conv3/incep2/bn2 <- conv3/incep2/conv2
I1211 10:50:59.924805   574 net.cpp:395] conv3/incep2/bn2 -> conv3/incep2/conv2 (in-place)
I1211 10:50:59.925071   574 net.cpp:150] Setting up conv3/incep2/bn2
I1211 10:50:59.925081   574 net.cpp:157] Top shape: 4 24 19 19 (34656)
I1211 10:50:59.925084   574 net.cpp:165] Memory required for data: 61077024
…
I1211 10:50:59.944839   574 net.cpp:150] Setting up conv5/incep0/conv
I1211 10:50:59.944854   574 net.cpp:157] Top shape: 4 24 19 19 (34656)
I1211 10:50:59.944859   574 net.cpp:165] Memory required for data: 63710880
I1211 10:50:59.944876   574 layer_factory.hpp:77] Creating layer conv5/incep0/bn
I1211 10:50:59.944886   574 net.cpp:100] Creating Layer conv5/incep0/bn
I1211 10:50:59.944890   574 net.cpp:434] conv5/incep0/bn <- conv5/incep0/conv
I1211 10:50:59.944897   574 net.cpp:395] conv5/incep0/bn -> conv5/incep0/conv (in-place)
I1211 10:50:59.945176   574 net.cpp:150] Setting up conv5/incep0/bn
I1211 10:50:59.945186   574 net.cpp:157] Top shape: 4 24 19 19 (34656)
I1211 10:50:59.945189   574 net.cpp:165] Memory required for data: 63849504
I1211 10:50:59.945196   574 layer_factory.hpp:77] Creating layer conv5/incep0/bn_scale
I1211 10:50:59.945204   574 net.cpp:100] Creating Layer conv5/incep0/bn_scale
I1211 10:50:59.945206   574 net.cpp:434] conv5/incep0/bn_scale <- conv5/incep0/conv
I1211 10:50:59.945214   574 net.cpp:395] conv5/incep0/bn_scale -> conv5/incep0/conv (in-place)
I1211 10:50:59.945266   574 layer_factory.hpp:77] Creating layer conv5/incep0/bn_scale
I1211 10:50:59.945431   574 net.cpp:150] Setting up conv5/incep0/bn_scale
I1211 10:50:59.945441   574 net.cpp:157] Top shape: 4 24 19 19 (34656)
I1211 10:50:59.945442   574 net.cpp:165] Memory required for data: 63988128
I1211 10:50:59.945448   574 layer_factory.hpp:77] Creating layer conv5/incep0/relu
I1211 10:50:59.945454   574 net.cpp:100] Creating Layer conv5/incep0/relu
I1211 10:50:59.945457   574 net.cpp:434] conv5/incep0/relu <- conv5/incep0/conv
I1211 10:50:59.945464   574 net.cpp:395] conv5/incep0/relu -> conv5/incep0/conv (in-place)
I1211 10:50:59.947170   574 net.cpp:150] Setting up conv5/incep0/relu
I1211 10:50:59.947182   574 net.cpp:157] Top shape: 4 24 19 19 (34656)
I1211 10:50:59.947185   574 net.cpp:165] Memory required for data: 64126752
I1211 10:50:59.947190   574 layer_factory.hpp:77] Creating layer conv5/incep1/conv1
I1211 10:50:59.947201   574 net.cpp:100] Creating Layer conv5/incep1/conv1
I1211 10:50:59.947206   574 net.cpp:434] conv5/incep1/conv1 <- conv3/incep_conv3/incep_0_split_1
I1211 10:50:59.947216   574 net.cpp:408] conv5/incep1/conv1 -> conv5/incep1/conv1
I1211 10:50:59.951148   574 net.cpp:150] Setting up conv5/incep1/conv1
I1211 10:50:59.951174   574 net.cpp:157] Top shape: 4 16 19 19 (23104)
I1211 10:50:59.951179   574 net.cpp:165] Memory required for data: 64219168
I1211 10:50:59.951185   574 layer_factory.hpp:77] Creating layer conv5/incep1/bn1
I1211 10:50:59.951195   574 net.cpp:100] Creating Layer conv5/incep1/bn1
I1211 10:50:59.951200   574 net.cpp:434] conv5/incep1/bn1 <- conv5/incep1/conv1
I1211 10:50:59.951205   574 net.cpp:395] conv5/incep1/bn1 -> conv5/incep1/conv1 (in-place)
I1211 10:50:59.951476   574 net.cpp:150] Setting up conv5/incep1/bn1
I1211 10:50:59.951485   574 net.cpp:157] Top shape: 4 16 19 19 (23104)
I1211 10:50:59.951488   574 net.cpp:165] Memory required for data: 64311584
I1211 10:50:59.951495   574 layer_factory.hpp:77] Creating layer conv5/incep1/bn_scale1
I1211 10:50:59.951503   574 net.cpp:100] Creating Layer conv5/incep1/bn_scale1
I1211 10:50:59.951506   574 net.cpp:434] conv5/incep1/bn_scale1 <- conv5/incep1/conv1
I1211 10:50:59.951511   574 net.cpp:395] conv5/incep1/bn_scale1 -> conv5/incep1/conv1 (in-place)
I1211 10:50:59.951565   574 layer_factory.hpp:77] Creating layer conv5/incep1/bn_scale1
I1211 10:50:59.951728   574 net.cpp:150] Setting up conv5/incep1/bn_scale1
I1211 10:50:59.951737   574 net.cpp:157] Top shape: 4 16 19 19 (23104)
I1211 10:50:59.951740   574 net.cpp:165] Memory required for data: 64404000
I1211 10:50:59.951746   574 layer_factory.hpp:77] Creating layer conv5/incep1/relu1
I1211 10:50:59.951752   574 net.cpp:100] Creating Layer conv5/incep1/relu1
I1211 10:50:59.951756   574 net.cpp:434] conv5/incep1/relu1 <- conv5/incep1/conv1
I1211 10:50:59.951759   574 net.cpp:395] conv5/incep1/relu1 -> conv5/incep1/conv1 (in-place)
I1211 10:50:59.953230   574 net.cpp:150] Setting up conv5/incep1/relu1
I1211 10:50:59.953248   574 net.cpp:157] Top shape: 4 16 19 19 (23104)
I1211 10:50:59.953251   574 net.cpp:165] Memory required for data: 64496416
I1211 10:50:59.953254   574 layer_factory.hpp:77] Creating layer conv5/incep1/conv2
I1211 10:50:59.953267   574 net.cpp:100] Creating Layer conv5/incep1/conv2
I1211 10:50:59.953271   574 net.cpp:434] conv5/incep1/conv2 <- conv5/incep1/conv1
I1211 10:50:59.953277   574 net.cpp:408] conv5/incep1/conv2 -> conv5/incep1/conv2
I1211 10:50:59.959798   574 net.cpp:150] Setting up conv5/incep1/conv2
I1211 10:50:59.959830   574 net.cpp:157] Top shape: 4 24 19 19 (34656)
I1211 10:50:59.959836   574 net.cpp:165] Memory required for data: 64635040
I1211 10:50:59.959842   574 layer_factory.hpp:77] Creating layer conv5/incep1/bn2
I1211 10:50:59.959851   574 net.cpp:100] Creating Layer conv5/incep1/bn2
I1211 10:50:59.959856   574 net.cpp:434] conv5/incep1/bn2 <- conv5/incep1/conv2
I1211 10:50:59.959863   574 net.cpp:395] conv5/incep1/bn2 -> conv5/incep1/conv2 (in-place)
I1211 10:50:59.960144   574 net.cpp:150] Setting up conv5/incep1/bn2
I1211 10:50:59.960151   574 net.cpp:157] Top shape: 4 24 19 19 (34656)
I1211 10:50:59.960155   574 net.cpp:165] Memory required for data: 64773664
I1211 10:50:59.960162   574 layer_factory.hpp:77] Creating layer conv5/incep1/bn_scale2
I1211 10:50:59.960168   574 net.cpp:100] Creating Layer conv5/incep1/bn_scale2
I1211 10:50:59.960172   574 net.cpp:434] conv5/incep1/bn_scale2 <- conv5/incep1/conv2
I1211 10:50:59.960177   574 net.cpp:395] conv5/incep1/bn_scale2 -> conv5/incep1/conv2 (in-place)
I1211 10:50:59.960232   574 layer_factory.hpp:77] Creating layer conv5/incep1/bn_scale2
I1211 10:50:59.960412   574 net.cpp:150] Setting up conv5/incep1/bn_scale2
I1211 10:50:59.960420   574 net.cpp:157] Top shape: 4 24 19 19 (34656)
I1211 10:50:59.960423   574 net.cpp:165] Memory required for data: 64912288
I1211 10:50:59.960429   574 layer_factory.hpp:77] Creating layer conv5/incep1/relu2
I1211 10:50:59.960435   574 net.cpp:100] Creating Layer conv5/incep1/relu2
I1211 10:50:59.960439   574 net.cpp:434] conv5/incep1/relu2 <- conv5/incep1/conv2
I1211 10:50:59.960446   574 net.cpp:395] conv5/incep1/relu2 -> conv5/incep1/conv2 (in-place)
I1211 10:50:59.961565   574 net.cpp:150] Setting up conv5/incep1/relu2
I1211 10:50:59.961583   574 net.cpp:157] Top shape: 4 24 19 19 (34656)
I1211 10:50:59.961586   574 net.cpp:165] Memory required for data: 65050912
I1211 10:50:59.961591   574 layer_factory.hpp:77] Creating layer conv5/incep2/conv1
I1211 10:50:59.961602   574 net.cpp:100] Creating Layer conv5/incep2/conv1
I1211 10:50:59.961606   574 net.cpp:434] conv5/incep2/conv1 <- conv3/incep_conv3/incep_0_split_2
I1211 10:50:59.961613   574 net.cpp:408] conv5/incep2/conv1 -> conv5/incep2/conv1
I1211 10:50:59.969852   574 net.cpp:150] Setting up conv5/incep2/conv1
I1211 10:50:59.969871   574 net.cpp:157] Top shape: 4 16 19 19 (23104)
I1211 10:50:59.969874   574 net.cpp:165] Memory required for data: 65143328
I1211 10:50:59.969882   574 layer_factory.hpp:77] Creating layer conv5/incep2/bn1
I1211 10:50:59.969890   574 net.cpp:100] Creating Layer conv5/incep2/bn1
I1211 10:50:59.969897   574 net.cpp:434] conv5/incep2/bn1 <- conv5/incep2/conv1
I1211 10:50:59.969904   574 net.cpp:395] conv5/incep2/bn1 -> conv5/incep2/conv1 (in-place)
I1211 10:50:59.970182   574 net.cpp:150] Setting up conv5/incep2/bn1
I1211 10:50:59.970193   574 net.cpp:157] Top shape: 4 16 19 19 (23104)
I1211 10:50:59.970196   574 net.cpp:165] Memory required for data: 65235744
I1211 10:50:59.970203   574 layer_factory.hpp:77] Creating layer conv5/incep2/bn_scale1
I1211 10:50:59.970211   574 net.cpp:100] Creating Layer conv5/incep2/bn_scale1
I1211 10:50:59.970214   574 net.cpp:434] conv5/incep2/bn_scale1 <- conv5/incep2/conv1
I1211 10:50:59.970219   574 net.cpp:395] conv5/incep2/bn_scale1 -> conv5/incep2/conv1 (in-place)
I1211 10:50:59.970280   574 layer_factory.hpp:77] Creating layer conv5/incep2/bn_scale1
I1211 10:50:59.970466   574 net.cpp:150] Setting up conv5/incep2/bn_scale1
I1211 10:50:59.970476   574 net.cpp:157] Top shape: 4 16 19 19 (23104)
I1211 10:50:59.970479   574 net.cpp:165] Memory required for data: 65328160
I1211 10:50:59.970485   574 layer_factory.hpp:77] Creating layer conv5/incep2/relu1
I1211 10:50:59.970491   574 net.cpp:100] Creating Layer conv5/incep2/relu1
I1211 10:50:59.970495   574 net.cpp:434] conv5/incep2/relu1 <- conv5/incep2/conv1
I1211 10:50:59.970502   574 net.cpp:395] conv5/incep2/relu1 -> conv5/incep2/conv1 (in-place)
I1211 10:50:59.971303   574 net.cpp:150] Setting up conv5/incep2/relu1
I1211 10:50:59.971328   574 net.cpp:157] Top shape: 4 16 19 19 (23104)
I1211 10:50:59.971331   574 net.cpp:165] Memory required for data: 65420576
I1211 10:50:59.971335   574 layer_factory.hpp:77] Creating layer conv5/incep2/conv2
I1211 10:50:59.971348   574 net.cpp:100] Creating Layer conv5/incep2/conv2
I1211 10:50:59.971351   574 net.cpp:434] conv5/incep2/conv2 <- conv5/incep2/conv1
I1211 10:50:59.971359   574 net.cpp:408] conv5/incep2/conv2 -> conv5/incep2/conv2
I1211 10:50:59.977711   574 net.cpp:150] Setting up conv5/incep2/conv2
I1211 10:50:59.977725   574 net.cpp:157] Top shape: 4 24 19 19 (34656)
I1211 10:50:59.977738   574 net.cpp:165] Memory required for data: 65559200
I1211 10:50:59.977746   574 layer_factory.hpp:77] Creating layer conv5/incep2/bn2
I1211 10:50:59.977753   574 net.cpp:100] Creating Layer conv5/incep2/bn2
I1211 10:50:59.977757   574 net.cpp:434] conv5/incep2/bn2 <- conv5/incep2/conv2
I1211 10:50:59.977771   574 net.cpp:395] conv5/incep2/bn2 -> conv5/incep2/conv2 (in-place)
I1211 10:50:59.978021   574 net.cpp:150] Setting up conv5/incep2/bn2
I1211 10:50:59.978030   574 net.cpp:157] Top shape: 4 24 19 19 (34656)
I1211 10:50:59.978034   574 net.cpp:165] Memory required for data: 65697824
I1211 10:50:59.978040   574 layer_factory.hpp:77] Creating layer conv5/incep2/bn_scale2
I1211 10:50:59.978046   574 net.cpp:100] Creating Layer conv5/incep2/bn_scale2
I1211 10:50:59.978049   574 net.cpp:434] conv5/incep2/bn_scale2 <- conv5/incep2/conv2
I1211 10:50:59.978055   574 net.cpp:395] conv5/incep2/bn_scale2 -> conv5/incep2/conv2 (in-place)
I1211 10:50:59.978106   574 layer_factory.hpp:77] Creating layer conv5/incep2/bn_scale2
I1211 10:50:59.978256   574 net.cpp:150] Setting up conv5/incep2/bn_scale2
I1211 10:50:59.978263   574 net.cpp:157] Top shape: 4 24 19 19 (34656)
I1211 10:50:59.978266   574 net.cpp:165] Memory required for data: 65836448
I1211 10:50:59.978271   574 layer_factory.hpp:77] Creating layer conv5/incep2/relu2
I1211 10:50:59.978276   574 net.cpp:100] Creating Layer conv5/incep2/relu2
I1211 10:50:59.978279   574 net.cpp:434] conv5/incep2/relu2 <- conv5/incep2/conv2
I1211 10:50:59.978283   574 net.cpp:395] conv5/incep2/relu2 -> conv5/incep2/conv2 (in-place)
I1211 10:50:59.980150   574 net.cpp:150] Setting up conv5/incep2/relu2
I1211 10:50:59.980175   574 net.cpp:157] Top shape: 4 24 19 19 (34656)
I1211 10:50:59.980177   574 net.cpp:165] Memory required for data: 65975072
I1211 10:50:59.980181   574 layer_factory.hpp:77] Creating layer conv5/incep2/conv3
I1211 10:50:59.980195   574 net.cpp:100] Creating Layer conv5/incep2/conv3
I1211 10:50:59.980197   574 net.cpp:434] conv5/incep2/conv3 <- conv5/incep2/conv2
I1211 10:50:59.980203   574 net.cpp:408] conv5/incep2/conv3 -> conv5/incep2/conv3
I1211 10:50:59.987613   574 net.cpp:150] Setting up conv5/incep2/conv3
I1211 10:50:59.987639   574 net.cpp:157] Top shape: 4 24 19 19 (34656)
I1211 10:50:59.987643   574 net.cpp:165] Memory required for data: 66113696
I1211 10:50:59.987648   574 layer_factory.hpp:77] Creating layer conv5/incep2/bn3
I1211 10:50:59.987658   574 net.cpp:100] Creating Layer conv5/incep2/bn3
I1211 10:50:59.987661   574 net.cpp:434] conv5/incep2/bn3 <- conv5/incep2/conv3
I1211 10:50:59.987668   574 net.cpp:395] conv5/incep2/bn3 -> conv5/incep2/conv3 (in-place)
I1211 10:50:59.987903   574 net.cpp:150] Setting up conv5/incep2/bn3
I1211 10:50:59.987912   574 net.cpp:157] Top shape: 4 24 19 19 (34656)
I1211 10:50:59.987915   574 net.cpp:165] Memory required for data: 66252320
I1211 10:50:59.987921   574 layer_factory.hpp:77] Creating layer conv5/incep2/bn_scale3
I1211 10:50:59.987941   574 net.cpp:100] Creating Layer conv5/incep2/bn_scale3
I1211 10:50:59.987944   574 net.cpp:434] conv5/incep2/bn_scale3 <- conv5/incep2/conv3
I1211 10:50:59.987949   574 net.cpp:395] conv5/incep2/bn_scale3 -> conv5/incep2/conv3 (in-place)
I1211 10:50:59.987995   574 layer_factory.hpp:77] Creating layer conv5/incep2/bn_scale3
I1211 10:50:59.988142   574 net.cpp:150] Setting up conv5/incep2/bn_scale3
I1211 10:50:59.988149   574 net.cpp:157] Top shape: 4 24 19 19 (34656)
I1211 10:50:59.988163   574 net.cpp:165] Memory required for data: 66390944
I1211 10:50:59.988169   574 layer_factory.hpp:77] Creating layer conv5/incep2/relu3
I1211 10:50:59.988175   574 net.cpp:100] Creating Layer conv5/incep2/relu3
I1211 10:50:59.988178   574 net.cpp:434] conv5/incep2/relu3 <- conv5/incep2/conv3
I1211 10:50:59.988183   574 net.cpp:395] conv5/incep2/relu3 -> conv5/incep2/conv3 (in-place)
I1211 10:50:59.990070   574 net.cpp:150] Setting up conv5/incep2/relu3
I1211 10:50:59.990083   574 net.cpp:157] Top shape: 4 24 19 19 (34656)
I1211 10:50:59.990097   574 net.cpp:165] Memory required for data: 66529568
I1211 10:50:59.990099   574 layer_factory.hpp:77] Creating layer conv5/incep
I1211 10:50:59.990105   574 net.cpp:100] Creating Layer conv5/incep
I1211 10:50:59.990110   574 net.cpp:434] conv5/incep <- conv5/incep0/conv
I1211 10:50:59.990114   574 net.cpp:434] conv5/incep <- conv5/incep1/conv2
I1211 10:50:59.990118   574 net.cpp:434] conv5/incep <- conv5/incep2/conv3
I1211 10:50:59.990124   574 net.cpp:408] conv5/incep -> conv5/incep
I1211 10:50:59.990160   574 net.cpp:150] Setting up conv5/incep
I1211 10:50:59.990165   574 net.cpp:157] Top shape: 4 72 19 19 (103968)
I1211 10:50:59.990169   574 net.cpp:165] Memory required for data: 66945440
I1211 10:50:59.990170   574 layer_factory.hpp:77] Creating layer conv5/incep_conv5/incep_0_split
I1211 10:50:59.990180   574 net.cpp:100] Creating Layer conv5/incep_conv5/incep_0_split
I1211 10:50:59.990183   574 net.cpp:434] conv5/incep_conv5/incep_0_split <- conv5/incep
I1211 10:50:59.990190   574 net.cpp:408] conv5/incep_conv5/incep_0_split -> conv5/incep_conv5/incep_0_split_0
…
I1211 10:50:59.990228   574 net.cpp:408] conv5/incep_conv5/incep_0_split -> conv5/incep_conv5/incep_0_split_5
I1211 10:50:59.990236   574 net.cpp:408] conv5/incep_conv5/incep_0_split -> conv5/incep_conv5/incep_0_split_6
I1211 10:50:59.990242   574 net.cpp:408] conv5/incep_conv5/incep_0_split -> conv5/incep_conv5/incep_0_split_7
I1211 10:50:59.990247   574 net.cpp:408] conv5/incep_conv5/incep_0_split -> conv5/incep_conv5/incep_0_split_8
I1211 10:50:59.990252   574 net.cpp:408] conv5/incep_conv5/incep_0_split -> conv5/incep_conv5/incep_0_split_9
I1211 10:50:59.990406   574 net.cpp:150] Setting up conv5/incep_conv5/incep_0_split
I1211 10:50:59.990414   574 net.cpp:157] Top shape: 4 72 19 19 (103968)
I1211 10:50:59.990418   574 net.cpp:157] Top shape: 4 72 19 19 (103968)
I1211 10:50:59.990422   574 net.cpp:157] Top shape: 4 72 19 19 (103968)
I1211 10:50:59.990424   574 net.cpp:157] Top shape: 4 72 19 19 (103968)
I1211 10:50:59.990427   574 net.cpp:157] Top shape: 4 72 19 19 (103968)
I1211 10:50:59.990430   574 net.cpp:157] Top shape: 4 72 19 19 (103968)
I1211 10:50:59.990433   574 net.cpp:157] Top shape: 4 72 19 19 (103968)
I1211 10:50:59.990437   574 net.cpp:157] Top shape: 4 72 19 19 (103968)
I1211 10:50:59.990439   574 net.cpp:157] Top shape: 4 72 19 19 (103968)
I1211 10:50:59.990442   574 net.cpp:157] Top shape: 4 72 19 19 (103968)
I1211 10:50:59.990445   574 net.cpp:165] Memory required for data: 71104160
I1211 10:50:59.990447   574 layer_factory.hpp:77] Creating layer Inception3/conv/loc1
I1211 10:50:59.990458   574 net.cpp:100] Creating Layer Inception3/conv/loc1
I1211 10:50:59.990460   574 net.cpp:434] Inception3/conv/loc1 <- conv5/incep_conv5/incep_0_split_0
I1211 10:50:59.990466   574 net.cpp:408] Inception3/conv/loc1 -> Inception3/conv/loc1
I1211 10:50:59.997587   574 net.cpp:150] Setting up Inception3/conv/loc1
I1211 10:50:59.997601   574 net.cpp:157] Top shape: 4 4 19 19 (5776)
I1211 10:50:59.997614   574 net.cpp:165] Memory required for data: 71127264
I1211 10:50:59.997632   574 layer_factory.hpp:77] Creating layer Inception3/conv/loc1/perm
I1211 10:50:59.997642   574 net.cpp:100] Creating Layer Inception3/conv/loc1/perm
I1211 10:50:59.997647   574 net.cpp:434] Inception3/conv/loc1/perm <- Inception3/conv/loc1
I1211 10:50:59.997651   574 net.cpp:408] Inception3/conv/loc1/perm -> Inception3/conv/loc1/perm
I1211 10:50:59.997779   574 net.cpp:150] Setting up Inception3/conv/loc1/perm
I1211 10:50:59.997787   574 net.cpp:157] Top shape: 4 19 19 4 (5776)
I1211 10:50:59.997789   574 net.cpp:165] Memory required for data: 71150368
I1211 10:50:59.997792   574 layer_factory.hpp:77] Creating layer Inception3/conv/loc1/flat
I1211 10:50:59.997800   574 net.cpp:100] Creating Layer Inception3/conv/loc1/flat
I1211 10:50:59.997803   574 net.cpp:434] Inception3/conv/loc1/flat <- Inception3/conv/loc1/perm
I1211 10:50:59.997807   574 net.cpp:408] Inception3/conv/loc1/flat -> Inception3/conv/loc1/flat
I1211 10:50:59.997836   574 net.cpp:150] Setting up Inception3/conv/loc1/flat
I1211 10:50:59.997841   574 net.cpp:157] Top shape: 4 1444 (5776)
I1211 10:50:59.997843   574 net.cpp:165] Memory required for data: 71173472
I1211 10:50:59.997846   574 layer_factory.hpp:77] Creating layer Inception3/conv/conf1
I1211 10:50:59.997856   574 net.cpp:100] Creating Layer Inception3/conv/conf1
I1211 10:50:59.997860   574 net.cpp:434] Inception3/conv/conf1 <- conv5/incep_conv5/incep_0_split_1
I1211 10:50:59.997865   574 net.cpp:408] Inception3/conv/conf1 -> Inception3/conv/conf1
I1211 10:51:00.001785   574 net.cpp:150] Setting up Inception3/conv/conf1
I1211 10:51:00.001798   574 net.cpp:157] Top shape: 4 2 19 19 (2888)
I1211 10:51:00.001811   574 net.cpp:165] Memory required for data: 71185024
I1211 10:51:00.001817   574 layer_factory.hpp:77] Creating layer Inception3/conv/conf1/perm
I1211 10:51:00.001824   574 net.cpp:100] Creating Layer Inception3/conv/conf1/perm
I1211 10:51:00.001827   574 net.cpp:434] Inception3/conv/conf1/perm <- Inception3/conv/conf1
I1211 10:51:00.001835   574 net.cpp:408] Inception3/conv/conf1/perm -> Inception3/conv/conf1/perm
I1211 10:51:00.001958   574 net.cpp:150] Setting up Inception3/conv/conf1/perm
I1211 10:51:00.001965   574 net.cpp:157] Top shape: 4 19 19 2 (2888)
I1211 10:51:00.001968   574 net.cpp:165] Memory required for data: 71196576
I1211 10:51:00.001971   574 layer_factory.hpp:77] Creating layer Inception3/conv/conf1/flat
I1211 10:51:00.001976   574 net.cpp:100] Creating Layer Inception3/conv/conf1/flat
I1211 10:51:00.001978   574 net.cpp:434] Inception3/conv/conf1/flat <- Inception3/conv/conf1/perm
I1211 10:51:00.001984   574 net.cpp:408] Inception3/conv/conf1/flat -> Inception3/conv/conf1/flat
I1211 10:51:00.002012   574 net.cpp:150] Setting up Inception3/conv/conf1/flat
I1211 10:51:00.002017   574 net.cpp:157] Top shape: 4 722 (2888)
I1211 10:51:00.002019   574 net.cpp:165] Memory required for data: 71208128
I1211 10:51:00.002022   574 layer_factory.hpp:77] Creating layer Inception3/conv/priorbox1
I1211 10:51:00.002028   574 net.cpp:100] Creating Layer Inception3/conv/priorbox1
I1211 10:51:00.002032   574 net.cpp:434] Inception3/conv/priorbox1 <- conv5/incep_conv5/incep_0_split_2
I1211 10:51:00.002035   574 net.cpp:434] Inception3/conv/priorbox1 <- data_data_0_split_1
I1211 10:51:00.002043   574 net.cpp:408] Inception3/conv/priorbox1 -> Inception3/conv/priorbox1
I1211 10:51:00.002073   574 net.cpp:150] Setting up Inception3/conv/priorbox1
I1211 10:51:00.002077   574 net.cpp:157] Top shape: 1 2 1444 (2888)
I1211 10:51:00.002080   574 net.cpp:165] Memory required for data: 71219680
I1211 10:51:00.002082   574 layer_factory.hpp:77] Creating layer Inception3/conv/loc2
I1211 10:51:00.002091   574 net.cpp:100] Creating Layer Inception3/conv/loc2
I1211 10:51:00.002094   574 net.cpp:434] Inception3/conv/loc2 <- conv5/incep_conv5/incep_0_split_3
I1211 10:51:00.002102   574 net.cpp:408] Inception3/conv/loc2 -> Inception3/conv/loc2
I1211 10:51:00.006901   574 net.cpp:150] Setting up Inception3/conv/loc2
I1211 10:51:00.006916   574 net.cpp:157] Top shape: 4 4 19 19 (5776)
I1211 10:51:00.006940   574 net.cpp:165] Memory required for data: 71242784
I1211 10:51:00.006947   574 layer_factory.hpp:77] Creating layer Inception3/conv/loc2/perm
I1211 10:51:00.006955   574 net.cpp:100] Creating Layer Inception3/conv/loc2/perm
I1211 10:51:00.006959   574 net.cpp:434] Inception3/conv/loc2/perm <- Inception3/conv/loc2
I1211 10:51:00.006966   574 net.cpp:408] Inception3/conv/loc2/perm -> Inception3/conv/loc2/perm
I1211 10:51:00.007091   574 net.cpp:150] Setting up Inception3/conv/loc2/perm
I1211 10:51:00.007099   574 net.cpp:157] Top shape: 4 19 19 4 (5776)
I1211 10:51:00.007102   574 net.cpp:165] Memory required for data: 71265888
I1211 10:51:00.007104   574 layer_factory.hpp:77] Creating layer Inception3/conv/loc2/flat
I1211 10:51:00.007109   574 net.cpp:100] Creating Layer Inception3/conv/loc2/flat
I1211 10:51:00.007113   574 net.cpp:434] Inception3/conv/loc2/flat <- Inception3/conv/loc2/perm
I1211 10:51:00.007117   574 net.cpp:408] Inception3/conv/loc2/flat -> Inception3/conv/loc2/flat
I1211 10:51:00.007146   574 net.cpp:150] Setting up Inception3/conv/loc2/flat
I1211 10:51:00.007153   574 net.cpp:157] Top shape: 4 1444 (5776)
I1211 10:51:00.007155   574 net.cpp:165] Memory required for data: 71288992
I1211 10:51:00.007158   574 layer_factory.hpp:77] Creating layer Inception3/conv/conf2
I1211 10:51:00.007169   574 net.cpp:100] Creating Layer Inception3/conv/conf2
I1211 10:51:00.007172   574 net.cpp:434] Inception3/conv/conf2 <- conv5/incep_conv5/incep_0_split_4
I1211 10:51:00.007179   574 net.cpp:408] Inception3/conv/conf2 -> Inception3/conv/conf2
I1211 10:51:00.013366   574 net.cpp:150] Setting up Inception3/conv/conf2
I1211 10:51:00.013378   574 net.cpp:157] Top shape: 4 2 19 19 (2888)
I1211 10:51:00.013392   574 net.cpp:165] Memory required for data: 71300544
I1211 10:51:00.013398   574 layer_factory.hpp:77] Creating layer Inception3/conv/conf2/perm
I1211 10:51:00.013406   574 net.cpp:100] Creating Layer Inception3/conv/conf2/perm
I1211 10:51:00.013409   574 net.cpp:434] Inception3/conv/conf2/perm <- Inception3/conv/conf2
I1211 10:51:00.013414   574 net.cpp:408] Inception3/conv/conf2/perm -> Inception3/conv/conf2/perm
I1211 10:51:00.013548   574 net.cpp:150] Setting up Inception3/conv/conf2/perm
I1211 10:51:00.013556   574 net.cpp:157] Top shape: 4 19 19 2 (2888)
I1211 10:51:00.013558   574 net.cpp:165] Memory required for data: 71312096
I1211 10:51:00.013561   574 layer_factory.hpp:77] Creating layer Inception3/conv/conf2/flat
I1211 10:51:00.013566   574 net.cpp:100] Creating Layer Inception3/conv/conf2/flat
I1211 10:51:00.013568   574 net.cpp:434] Inception3/conv/conf2/flat <- Inception3/conv/conf2/perm
I1211 10:51:00.013576   574 net.cpp:408] Inception3/conv/conf2/flat -> Inception3/conv/conf2/flat
I1211 10:51:00.013604   574 net.cpp:150] Setting up Inception3/conv/conf2/flat
I1211 10:51:00.013615   574 net.cpp:157] Top shape: 4 722 (2888)
I1211 10:51:00.013617   574 net.cpp:165] Memory required for data: 71323648
I1211 10:51:00.013620   574 layer_factory.hpp:77] Creating layer Inception3/conv/priorbox2
I1211 10:51:00.013626   574 net.cpp:100] Creating Layer Inception3/conv/priorbox2
I1211 10:51:00.013638   574 net.cpp:434] Inception3/conv/priorbox2 <- conv5/incep_conv5/incep_0_split_5
I1211 10:51:00.013646   574 net.cpp:434] Inception3/conv/priorbox2 <- data_data_0_split_2
I1211 10:51:00.013656   574 net.cpp:408] Inception3/conv/priorbox2 -> Inception3/conv/priorbox2
I1211 10:51:00.013691   574 net.cpp:150] Setting up Inception3/conv/priorbox2
I1211 10:51:00.013698   574 net.cpp:157] Top shape: 1 2 1444 (2888)
I1211 10:51:00.013700   574 net.cpp:165] Memory required for data: 71335200
I1211 10:51:00.013703   574 layer_factory.hpp:77] Creating layer Inception3/conv/loc3
I1211 10:51:00.013716   574 net.cpp:100] Creating Layer Inception3/conv/loc3
I1211 10:51:00.013720   574 net.cpp:434] Inception3/conv/loc3 <- conv5/incep_conv5/incep_0_split_6
I1211 10:51:00.013726   574 net.cpp:408] Inception3/conv/loc3 -> Inception3/conv/loc3
I1211 10:51:00.020167   574 net.cpp:150] Setting up Inception3/conv/loc3
I1211 10:51:00.020190   574 net.cpp:157] Top shape: 4 4 19 19 (5776)
I1211 10:51:00.020205   574 net.cpp:165] Memory required for data: 71358304
I1211 10:51:00.020211   574 layer_factory.hpp:77] Creating layer Inception3/conv/loc3/perm
I1211 10:51:00.020217   574 net.cpp:100] Creating Layer Inception3/conv/loc3/perm
I1211 10:51:00.020220   574 net.cpp:434] Inception3/conv/loc3/perm <- Inception3/conv/loc3
I1211 10:51:00.020227   574 net.cpp:408] Inception3/conv/loc3/perm -> Inception3/conv/loc3/perm
I1211 10:51:00.020383   574 net.cpp:150] Setting up Inception3/conv/loc3/perm
I1211 10:51:00.020395   574 net.cpp:157] Top shape: 4 19 19 4 (5776)
I1211 10:51:00.020397   574 net.cpp:165] Memory required for data: 71381408
I1211 10:51:00.020401   574 layer_factory.hpp:77] Creating layer Inception3/conv/loc3/flat
I1211 10:51:00.020406   574 net.cpp:100] Creating Layer Inception3/conv/loc3/flat
I1211 10:51:00.020408   574 net.cpp:434] Inception3/conv/loc3/flat <- Inception3/conv/loc3/perm
I1211 10:51:00.020416   574 net.cpp:408] Inception3/conv/loc3/flat -> Inception3/conv/loc3/flat
I1211 10:51:00.020445   574 net.cpp:150] Setting up Inception3/conv/loc3/flat
I1211 10:51:00.020454   574 net.cpp:157] Top shape: 4 1444 (5776)
I1211 10:51:00.020457   574 net.cpp:165] Memory required for data: 71404512
I1211 10:51:00.020458   574 layer_factory.hpp:77] Creating layer Inception3/conv/conf3
I1211 10:51:00.020470   574 net.cpp:100] Creating Layer Inception3/conv/conf3
I1211 10:51:00.020473   574 net.cpp:434] Inception3/conv/conf3 <- conv5/incep_conv5/incep_0_split_7
I1211 10:51:00.020481   574 net.cpp:408] Inception3/conv/conf3 -> Inception3/conv/conf3
I1211 10:51:00.025935   574 net.cpp:150] Setting up Inception3/conv/conf3
I1211 10:51:00.025948   574 net.cpp:157] Top shape: 4 2 19 19 (2888)
I1211 10:51:00.025961   574 net.cpp:165] Memory required for data: 71416064
I1211 10:51:00.025967   574 layer_factory.hpp:77] Creating layer Inception3/conv/conf3/perm
I1211 10:51:00.025974   574 net.cpp:100] Creating Layer Inception3/conv/conf3/perm
I1211 10:51:00.025979   574 net.cpp:434] Inception3/conv/conf3/perm <- Inception3/conv/conf3
I1211 10:51:00.025984   574 net.cpp:408] Inception3/conv/conf3/perm -> Inception3/conv/conf3/perm
I1211 10:51:00.026113   574 net.cpp:150] Setting up Inception3/conv/conf3/perm
I1211 10:51:00.026121   574 net.cpp:157] Top shape: 4 19 19 2 (2888)
I1211 10:51:00.026124   574 net.cpp:165] Memory required for data: 71427616
I1211 10:51:00.026126   574 layer_factory.hpp:77] Creating layer Inception3/conv/conf3/flat
I1211 10:51:00.026134   574 net.cpp:100] Creating Layer Inception3/conv/conf3/flat
I1211 10:51:00.026137   574 net.cpp:434] Inception3/conv/conf3/flat <- Inception3/conv/conf3/perm
I1211 10:51:00.026142   574 net.cpp:408] Inception3/conv/conf3/flat -> Inception3/conv/conf3/flat
I1211 10:51:00.026170   574 net.cpp:150] Setting up Inception3/conv/conf3/flat
I1211 10:51:00.026183   574 net.cpp:157] Top shape: 4 722 (2888)
I1211 10:51:00.026185   574 net.cpp:165] Memory required for data: 71439168
I1211 10:51:00.026188   574 layer_factory.hpp:77] Creating layer Inception3/conv/priorbox3
I1211 10:51:00.026196   574 net.cpp:100] Creating Layer Inception3/conv/priorbox3
I1211 10:51:00.026198   574 net.cpp:434] Inception3/conv/priorbox3 <- conv5/incep_conv5/incep_0_split_8
I1211 10:51:00.026202   574 net.cpp:434] Inception3/conv/priorbox3 <- data_data_0_split_3
I1211 10:51:00.026207   574 net.cpp:408] Inception3/conv/priorbox3 -> Inception3/conv/priorbox3
I1211 10:51:00.026238   574 net.cpp:150] Setting up Inception3/conv/priorbox3
I1211 10:51:00.026248   574 net.cpp:157] Top shape: 1 2 1444 (2888)
I1211 10:51:00.026250   574 net.cpp:165] Memory required for data: 71450720
I1211 10:51:00.026252   574 layer_factory.hpp:77] Creating layer conv6_1
I1211 10:51:00.026262   574 net.cpp:100] Creating Layer conv6_1
I1211 10:51:00.026265   574 net.cpp:434] conv6_1 <- conv5/incep_conv5/incep_0_split_9
I1211 10:51:00.026273   574 net.cpp:408] conv6_1 -> conv6_1
I1211 10:51:00.033900   574 net.cpp:150] Setting up conv6_1
I1211 10:51:00.033921   574 net.cpp:157] Top shape: 4 24 19 19 (34656)
I1211 10:51:00.033936   574 net.cpp:165] Memory required for data: 71589344
I1211 10:51:00.033941   574 layer_factory.hpp:77] Creating layer conv6/bn1
I1211 10:51:00.033947   574 net.cpp:100] Creating Layer conv6/bn1
I1211 10:51:00.033951   574 net.cpp:434] conv6/bn1 <- conv6_1
I1211 10:51:00.033958   574 net.cpp:395] conv6/bn1 -> conv6_1 (in-place)
I1211 10:51:00.034231   574 net.cpp:150] Setting up conv6/bn1
I1211 10:51:00.034240   574 net.cpp:157] Top shape: 4 24 19 19 (34656)
I1211 10:51:00.034243   574 net.cpp:165] Memory required for data: 71727968
I1211 10:51:00.034250   574 layer_factory.hpp:77] Creating layer conv6/bn_scale1
I1211 10:51:00.034257   574 net.cpp:100] Creating Layer conv6/bn_scale1
I1211 10:51:00.034261   574 net.cpp:434] conv6/bn_scale1 <- conv6_1
I1211 10:51:00.034265   574 net.cpp:395] conv6/bn_scale1 -> conv6_1 (in-place)
I1211 10:51:00.034314   574 layer_factory.hpp:77] Creating layer conv6/bn_scale1
I1211 10:51:00.034459   574 net.cpp:150] Setting up conv6/bn_scale1
I1211 10:51:00.034467   574 net.cpp:157] Top shape: 4 24 19 19 (34656)
I1211 10:51:00.034469   574 net.cpp:165] Memory required for data: 71866592
I1211 10:51:00.034474   574 layer_factory.hpp:77] Creating layer conv6/relu1
I1211 10:51:00.034479   574 net.cpp:100] Creating Layer conv6/relu1
I1211 10:51:00.034482   574 net.cpp:434] conv6/relu1 <- conv6_1
I1211 10:51:00.034487   574 net.cpp:395] conv6/relu1 -> conv6_1 (in-place)
I1211 10:51:00.036000   574 net.cpp:150] Setting up conv6/relu1
I1211 10:51:00.036010   574 net.cpp:157] Top shape: 4 24 19 19 (34656)
I1211 10:51:00.036022   574 net.cpp:165] Memory required for data: 72005216
I1211 10:51:00.036026   574 layer_factory.hpp:77] Creating layer conv6_2
I1211 10:51:00.036036   574 net.cpp:100] Creating Layer conv6_2
I1211 10:51:00.036038   574 net.cpp:434] conv6_2 <- conv6_1
I1211 10:51:00.036046   574 net.cpp:408] conv6_2 -> conv6_2
I1211 10:51:00.043661   574 net.cpp:150] Setting up conv6_2
I1211 10:51:00.043673   574 net.cpp:157] Top shape: 4 48 10 10 (19200)
I1211 10:51:00.043687   574 net.cpp:165] Memory required for data: 72082016
I1211 10:51:00.043694   574 layer_factory.hpp:77] Creating layer conv6/bn2
I1211 10:51:00.043700   574 net.cpp:100] Creating Layer conv6/bn2
I1211 10:51:00.043704   574 net.cpp:434] conv6/bn2 <- conv6_2
I1211 10:51:00.043709   574 net.cpp:395] conv6/bn2 -> conv6_2 (in-place)
I1211 10:51:00.043958   574 net.cpp:150] Setting up conv6/bn2
I1211 10:51:00.043965   574 net.cpp:157] Top shape: 4 48 10 10 (19200)
I1211 10:51:00.043968   574 net.cpp:165] Memory required for data: 72158816
I1211 10:51:00.043992   574 layer_factory.hpp:77] Creating layer conv6/bn_scale2
I1211 10:51:00.044004   574 net.cpp:100] Creating Layer conv6/bn_scale2
I1211 10:51:00.044008   574 net.cpp:434] conv6/bn_scale2 <- conv6_2
I1211 10:51:00.044013   574 net.cpp:395] conv6/bn_scale2 -> conv6_2 (in-place)
I1211 10:51:00.044064   574 layer_factory.hpp:77] Creating layer conv6/bn_scale2
I1211 10:51:00.044203   574 net.cpp:150] Setting up conv6/bn_scale2
I1211 10:51:00.044210   574 net.cpp:157] Top shape: 4 48 10 10 (19200)
I1211 10:51:00.044214   574 net.cpp:165] Memory required for data: 72235616
I1211 10:51:00.044219   574 layer_factory.hpp:77] Creating layer conv6/relu2
I1211 10:51:00.044224   574 net.cpp:100] Creating Layer conv6/relu2
I1211 10:51:00.044226   574 net.cpp:434] conv6/relu2 <- conv6_2
I1211 10:51:00.044230   574 net.cpp:395] conv6/relu2 -> conv6_2 (in-place)
I1211 10:51:00.046099   574 net.cpp:150] Setting up conv6/relu2
I1211 10:51:00.046110   574 net.cpp:157] Top shape: 4 48 10 10 (19200)
I1211 10:51:00.046123   574 net.cpp:165] Memory required for data: 72312416
I1211 10:51:00.046126   574 layer_factory.hpp:77] Creating layer conv6_2_conv6/relu2_0_split
I1211 10:51:00.046133   574 net.cpp:100] Creating Layer conv6_2_conv6/relu2_0_split
I1211 10:51:00.046138   574 net.cpp:434] conv6_2_conv6/relu2_0_split <- conv6_2
I1211 10:51:00.046144   574 net.cpp:408] conv6_2_conv6/relu2_0_split -> conv6_2_conv6/relu2_0_split_0
I1211 10:51:00.046162   574 net.cpp:408] conv6_2_conv6/relu2_0_split -> conv6_2_conv6/relu2_0_split_1
I1211 10:51:00.046169   574 net.cpp:408] conv6_2_conv6/relu2_0_split -> conv6_2_conv6/relu2_0_split_2
I1211 10:51:00.046174   574 net.cpp:408] conv6_2_conv6/relu2_0_split -> conv6_2_conv6/relu2_0_split_3
I1211 10:51:00.046255   574 net.cpp:150] Setting up conv6_2_conv6/relu2_0_split
I1211 10:51:00.046263   574 net.cpp:157] Top shape: 4 48 10 10 (19200)
I1211 10:51:00.046267   574 net.cpp:157] Top shape: 4 48 10 10 (19200)
I1211 10:51:00.046269   574 net.cpp:157] Top shape: 4 48 10 10 (19200)
I1211 10:51:00.046272   574 net.cpp:157] Top shape: 4 48 10 10 (19200)
I1211 10:51:00.046274   574 net.cpp:165] Memory required for data: 72619616
I1211 10:51:00.046277   574 layer_factory.hpp:77] Creating layer conv6/loc
I1211 10:51:00.046286   574 net.cpp:100] Creating Layer conv6/loc
I1211 10:51:00.046290   574 net.cpp:434] conv6/loc <- conv6_2_conv6/relu2_0_split_0
I1211 10:51:00.046298   574 net.cpp:408] conv6/loc -> conv6/loc
I1211 10:51:00.051506   574 net.cpp:150] Setting up conv6/loc
I1211 10:51:00.051520   574 net.cpp:157] Top shape: 4 4 10 10 (1600)
I1211 10:51:00.051533   574 net.cpp:165] Memory required for data: 72626016
I1211 10:51:00.051539   574 layer_factory.hpp:77] Creating layer conv6/loc/perm
I1211 10:51:00.051545   574 net.cpp:100] Creating Layer conv6/loc/perm
I1211 10:51:00.051548   574 net.cpp:434] conv6/loc/perm <- conv6/loc
I1211 10:51:00.051555   574 net.cpp:408] conv6/loc/perm -> conv6/loc/perm
I1211 10:51:00.051687   574 net.cpp:150] Setting up conv6/loc/perm
I1211 10:51:00.051697   574 net.cpp:157] Top shape: 4 10 10 4 (1600)
I1211 10:51:00.051699   574 net.cpp:165] Memory required for data: 72632416
I1211 10:51:00.051702   574 layer_factory.hpp:77] Creating layer conv6/loc/perm/flat
I1211 10:51:00.051707   574 net.cpp:100] Creating Layer conv6/loc/perm/flat
I1211 10:51:00.051710   574 net.cpp:434] conv6/loc/perm/flat <- conv6/loc/perm
I1211 10:51:00.051715   574 net.cpp:408] conv6/loc/perm/flat -> conv6/loc/perm/flat
I1211 10:51:00.051743   574 net.cpp:150] Setting up conv6/loc/perm/flat
I1211 10:51:00.051748   574 net.cpp:157] Top shape: 4 400 (1600)
I1211 10:51:00.051749   574 net.cpp:165] Memory required for data: 72638816
I1211 10:51:00.051753   574 layer_factory.hpp:77] Creating layer conv6/conf
I1211 10:51:00.051762   574 net.cpp:100] Creating Layer conv6/conf
I1211 10:51:00.051766   574 net.cpp:434] conv6/conf <- conv6_2_conv6/relu2_0_split_1
I1211 10:51:00.051771   574 net.cpp:408] conv6/conf -> conv6/conf
I1211 10:51:00.056288   574 net.cpp:150] Setting up conv6/conf
I1211 10:51:00.056301   574 net.cpp:157] Top shape: 4 2 10 10 (800)
I1211 10:51:00.056315   574 net.cpp:165] Memory required for data: 72642016
I1211 10:51:00.056321   574 layer_factory.hpp:77] Creating layer conv6/conf/perm
I1211 10:51:00.056329   574 net.cpp:100] Creating Layer conv6/conf/perm
I1211 10:51:00.056332   574 net.cpp:434] conv6/conf/perm <- conv6/conf
I1211 10:51:00.056339   574 net.cpp:408] conv6/conf/perm -> conv6/conf/perm
I1211 10:51:00.056483   574 net.cpp:150] Setting up conv6/conf/perm
I1211 10:51:00.056493   574 net.cpp:157] Top shape: 4 10 10 2 (800)
I1211 10:51:00.056495   574 net.cpp:165] Memory required for data: 72645216
I1211 10:51:00.056499   574 layer_factory.hpp:77] Creating layer conv6/conf/perm/flat
I1211 10:51:00.056504   574 net.cpp:100] Creating Layer conv6/conf/perm/flat
I1211 10:51:00.056506   574 net.cpp:434] conv6/conf/perm/flat <- conv6/conf/perm
I1211 10:51:00.056511   574 net.cpp:408] conv6/conf/perm/flat -> conv6/conf/perm/flat
I1211 10:51:00.056553   574 net.cpp:150] Setting up conv6/conf/perm/flat
I1211 10:51:00.056561   574 net.cpp:157] Top shape: 4 200 (800)
I1211 10:51:00.056565   574 net.cpp:165] Memory required for data: 72648416
I1211 10:51:00.056566   574 layer_factory.hpp:77] Creating layer conv6/priorbox
I1211 10:51:00.056572   574 net.cpp:100] Creating Layer conv6/priorbox
I1211 10:51:00.056576   574 net.cpp:434] conv6/priorbox <- conv6_2_conv6/relu2_0_split_2
I1211 10:51:00.056591   574 net.cpp:434] conv6/priorbox <- data_data_0_split_4
I1211 10:51:00.056597   574 net.cpp:408] conv6/priorbox -> conv6/priorbox
I1211 10:51:00.056638   574 net.cpp:150] Setting up conv6/priorbox
I1211 10:51:00.056644   574 net.cpp:157] Top shape: 1 2 400 (800)
I1211 10:51:00.056646   574 net.cpp:165] Memory required for data: 72651616
I1211 10:51:00.056649   574 layer_factory.hpp:77] Creating layer conv7_1
I1211 10:51:00.056658   574 net.cpp:100] Creating Layer conv7_1
I1211 10:51:00.056660   574 net.cpp:434] conv7_1 <- conv6_2_conv6/relu2_0_split_3
I1211 10:51:00.056668   574 net.cpp:408] conv7_1 -> conv7_1
I1211 10:51:00.063066   574 net.cpp:150] Setting up conv7_1
I1211 10:51:00.063091   574 net.cpp:157] Top shape: 4 32 10 10 (12800)
I1211 10:51:00.063093   574 net.cpp:165] Memory required for data: 72702816
I1211 10:51:00.063099   574 layer_factory.hpp:77] Creating layer conv7/bn1
I1211 10:51:00.063104   574 net.cpp:100] Creating Layer conv7/bn1
I1211 10:51:00.063108   574 net.cpp:434] conv7/bn1 <- conv7_1
I1211 10:51:00.063114   574 net.cpp:395] conv7/bn1 -> conv7_1 (in-place)
I1211 10:51:00.063366   574 net.cpp:150] Setting up conv7/bn1
I1211 10:51:00.063374   574 net.cpp:157] Top shape: 4 32 10 10 (12800)
I1211 10:51:00.063376   574 net.cpp:165] Memory required for data: 72754016
I1211 10:51:00.063383   574 layer_factory.hpp:77] Creating layer conv7/bn_scale1
I1211 10:51:00.063388   574 net.cpp:100] Creating Layer conv7/bn_scale1
I1211 10:51:00.063391   574 net.cpp:434] conv7/bn_scale1 <- conv7_1
I1211 10:51:00.063397   574 net.cpp:395] conv7/bn_scale1 -> conv7_1 (in-place)
I1211 10:51:00.063446   574 layer_factory.hpp:77] Creating layer conv7/bn_scale1
I1211 10:51:00.063601   574 net.cpp:150] Setting up conv7/bn_scale1
I1211 10:51:00.063611   574 net.cpp:157] Top shape: 4 32 10 10 (12800)
I1211 10:51:00.063612   574 net.cpp:165] Memory required for data: 72805216
I1211 10:51:00.063617   574 layer_factory.hpp:77] Creating layer conv7/relu1
I1211 10:51:00.063623   574 net.cpp:100] Creating Layer conv7/relu1
I1211 10:51:00.063627   574 net.cpp:434] conv7/relu1 <- conv7_1
I1211 10:51:00.063630   574 net.cpp:395] conv7/relu1 -> conv7_1 (in-place)
I1211 10:51:00.065234   574 net.cpp:150] Setting up conv7/relu1
I1211 10:51:00.065245   574 net.cpp:157] Top shape: 4 32 10 10 (12800)
I1211 10:51:00.065259   574 net.cpp:165] Memory required for data: 72856416
I1211 10:51:00.065263   574 layer_factory.hpp:77] Creating layer conv7_2
I1211 10:51:00.065273   574 net.cpp:100] Creating Layer conv7_2
I1211 10:51:00.065285   574 net.cpp:434] conv7_2 <- conv7_1
I1211 10:51:00.065294   574 net.cpp:408] conv7_2 -> conv7_2
I1211 10:51:00.071492   574 net.cpp:150] Setting up conv7_2
I1211 10:51:00.071517   574 net.cpp:157] Top shape: 4 64 5 5 (6400)
I1211 10:51:00.071521   574 net.cpp:165] Memory required for data: 72882016
I1211 10:51:00.071527   574 layer_factory.hpp:77] Creating layer conv7/bn2
I1211 10:51:00.071532   574 net.cpp:100] Creating Layer conv7/bn2
I1211 10:51:00.071535   574 net.cpp:434] conv7/bn2 <- conv7_2
I1211 10:51:00.071540   574 net.cpp:395] conv7/bn2 -> conv7_2 (in-place)
I1211 10:51:00.071795   574 net.cpp:150] Setting up conv7/bn2
I1211 10:51:00.071802   574 net.cpp:157] Top shape: 4 64 5 5 (6400)
I1211 10:51:00.071805   574 net.cpp:165] Memory required for data: 72907616
I1211 10:51:00.071811   574 layer_factory.hpp:77] Creating layer conv7/bn_scale2
I1211 10:51:00.071817   574 net.cpp:100] Creating Layer conv7/bn_scale2
I1211 10:51:00.071821   574 net.cpp:434] conv7/bn_scale2 <- conv7_2
I1211 10:51:00.071825   574 net.cpp:395] conv7/bn_scale2 -> conv7_2 (in-place)
I1211 10:51:00.071873   574 layer_factory.hpp:77] Creating layer conv7/bn_scale2
I1211 10:51:00.072018   574 net.cpp:150] Setting up conv7/bn_scale2
I1211 10:51:00.072026   574 net.cpp:157] Top shape: 4 64 5 5 (6400)
I1211 10:51:00.072027   574 net.cpp:165] Memory required for data: 72933216
I1211 10:51:00.072032   574 layer_factory.hpp:77] Creating layer conv7/relu2
I1211 10:51:00.072036   574 net.cpp:100] Creating Layer conv7/relu2
I1211 10:51:00.072051   574 net.cpp:434] conv7/relu2 <- conv7_2
I1211 10:51:00.072057   574 net.cpp:395] conv7/relu2 -> conv7_2 (in-place)
I1211 10:51:00.072877   574 net.cpp:150] Setting up conv7/relu2
I1211 10:51:00.072890   574 net.cpp:157] Top shape: 4 64 5 5 (6400)
I1211 10:51:00.072902   574 net.cpp:165] Memory required for data: 72958816
I1211 10:51:00.072906   574 layer_factory.hpp:77] Creating layer conv7_2_conv7/relu2_0_split
I1211 10:51:00.072913   574 net.cpp:100] Creating Layer conv7_2_conv7/relu2_0_split
I1211 10:51:00.072918   574 net.cpp:434] conv7_2_conv7/relu2_0_split <- conv7_2
I1211 10:51:00.072924   574 net.cpp:408] conv7_2_conv7/relu2_0_split -> conv7_2_conv7/relu2_0_split_0
I1211 10:51:00.072932   574 net.cpp:408] conv7_2_conv7/relu2_0_split -> conv7_2_conv7/relu2_0_split_1
I1211 10:51:00.072937   574 net.cpp:408] conv7_2_conv7/relu2_0_split -> conv7_2_conv7/relu2_0_split_2
I1211 10:51:00.073009   574 net.cpp:150] Setting up conv7_2_conv7/relu2_0_split
I1211 10:51:00.073020   574 net.cpp:157] Top shape: 4 64 5 5 (6400)
I1211 10:51:00.073024   574 net.cpp:157] Top shape: 4 64 5 5 (6400)
I1211 10:51:00.073026   574 net.cpp:157] Top shape: 4 64 5 5 (6400)
I1211 10:51:00.073029   574 net.cpp:165] Memory required for data: 73035616
I1211 10:51:00.073030   574 layer_factory.hpp:77] Creating layer conv7/loc
I1211 10:51:00.073040   574 net.cpp:100] Creating Layer conv7/loc
I1211 10:51:00.073043   574 net.cpp:434] conv7/loc <- conv7_2_conv7/relu2_0_split_0
I1211 10:51:00.073050   574 net.cpp:408] conv7/loc -> conv7/loc
I1211 10:51:00.081115   574 net.cpp:150] Setting up conv7/loc
I1211 10:51:00.081130   574 net.cpp:157] Top shape: 4 4 5 5 (400)
I1211 10:51:00.081132   574 net.cpp:165] Memory required for data: 73037216
I1211 10:51:00.081138   574 layer_factory.hpp:77] Creating layer conv7/loc/perm
I1211 10:51:00.081146   574 net.cpp:100] Creating Layer conv7/loc/perm
I1211 10:51:00.081151   574 net.cpp:434] conv7/loc/perm <- conv7/loc
I1211 10:51:00.081157   574 net.cpp:408] conv7/loc/perm -> conv7/loc/perm
I1211 10:51:00.081972   574 net.cpp:150] Setting up conv7/loc/perm
I1211 10:51:00.081984   574 net.cpp:157] Top shape: 4 5 5 4 (400)
I1211 10:51:00.081997   574 net.cpp:165] Memory required for data: 73038816
I1211 10:51:00.082000   574 layer_factory.hpp:77] Creating layer conv7/loc/perm/flat
I1211 10:51:00.082016   574 net.cpp:100] Creating Layer conv7/loc/perm/flat
I1211 10:51:00.082021   574 net.cpp:434] conv7/loc/perm/flat <- conv7/loc/perm
I1211 10:51:00.082028   574 net.cpp:408] conv7/loc/perm/flat -> conv7/loc/perm/flat
I1211 10:51:00.082065   574 net.cpp:150] Setting up conv7/loc/perm/flat
I1211 10:51:00.082069   574 net.cpp:157] Top shape: 4 100 (400)
I1211 10:51:00.082072   574 net.cpp:165] Memory required for data: 73040416
I1211 10:51:00.082074   574 layer_factory.hpp:77] Creating layer conv7/conf
I1211 10:51:00.082085   574 net.cpp:100] Creating Layer conv7/conf
I1211 10:51:00.082089   574 net.cpp:434] conv7/conf <- conv7_2_conv7/relu2_0_split_1
I1211 10:51:00.082094   574 net.cpp:408] conv7/conf -> conv7/conf
I1211 10:51:00.087980   574 net.cpp:150] Setting up conv7/conf
I1211 10:51:00.087991   574 net.cpp:157] Top shape: 4 2 5 5 (200)
I1211 10:51:00.088006   574 net.cpp:165] Memory required for data: 73041216
I1211 10:51:00.088011   574 layer_factory.hpp:77] Creating layer conv7/conf/perm
I1211 10:51:00.088018   574 net.cpp:100] Creating Layer conv7/conf/perm
I1211 10:51:00.088022   574 net.cpp:434] conv7/conf/perm <- conv7/conf
I1211 10:51:00.088027   574 net.cpp:408] conv7/conf/perm -> conv7/conf/perm
I1211 10:51:00.088125   574 net.cpp:150] Setting up conv7/conf/perm
I1211 10:51:00.088131   574 net.cpp:157] Top shape: 4 5 5 2 (200)
I1211 10:51:00.088135   574 net.cpp:165] Memory required for data: 73042016
I1211 10:51:00.088136   574 layer_factory.hpp:77] Creating layer conv7/conf/perm/flat
I1211 10:51:00.088143   574 net.cpp:100] Creating Layer conv7/conf/perm/flat
I1211 10:51:00.088147   574 net.cpp:434] conv7/conf/perm/flat <- conv7/conf/perm
I1211 10:51:00.088163   574 net.cpp:408] conv7/conf/perm/flat -> conv7/conf/perm/flat
I1211 10:51:00.088187   574 net.cpp:150] Setting up conv7/conf/perm/flat
I1211 10:51:00.088191   574 net.cpp:157] Top shape: 4 50 (200)
I1211 10:51:00.088194   574 net.cpp:165] Memory required for data: 73042816
I1211 10:51:00.088196   574 layer_factory.hpp:77] Creating layer conv7/priorbox
I1211 10:51:00.088203   574 net.cpp:100] Creating Layer conv7/priorbox
I1211 10:51:00.088207   574 net.cpp:434] conv7/priorbox <- conv7_2_conv7/relu2_0_split_2
I1211 10:51:00.088212   574 net.cpp:434] conv7/priorbox <- data_data_0_split_5
I1211 10:51:00.088217   574 net.cpp:408] conv7/priorbox -> conv7/priorbox
I1211 10:51:00.088238   574 net.cpp:150] Setting up conv7/priorbox
I1211 10:51:00.088243   574 net.cpp:157] Top shape: 1 2 100 (200)
I1211 10:51:00.088245   574 net.cpp:165] Memory required for data: 73043616
I1211 10:51:00.088248   574 layer_factory.hpp:77] Creating layer mbox_loc
I1211 10:51:00.088253   574 net.cpp:100] Creating Layer mbox_loc
I1211 10:51:00.088255   574 net.cpp:434] mbox_loc <- Inception3/conv/loc1/flat
I1211 10:51:00.088259   574 net.cpp:434] mbox_loc <- Inception3/conv/loc2/flat
I1211 10:51:00.088266   574 net.cpp:434] mbox_loc <- Inception3/conv/loc3/flat
I1211 10:51:00.088270   574 net.cpp:434] mbox_loc <- conv6/loc/perm/flat
I1211 10:51:00.088274   574 net.cpp:434] mbox_loc <- conv7/loc/perm/flat
I1211 10:51:00.088279   574 net.cpp:408] mbox_loc -> mbox_loc
I1211 10:51:00.088299   574 net.cpp:150] Setting up mbox_loc
I1211 10:51:00.088304   574 net.cpp:157] Top shape: 4 4832 (19328)
I1211 10:51:00.088305   574 net.cpp:165] Memory required for data: 73120928
I1211 10:51:00.088309   574 layer_factory.hpp:77] Creating layer mbox_conf
I1211 10:51:00.088313   574 net.cpp:100] Creating Layer mbox_conf
I1211 10:51:00.088316   574 net.cpp:434] mbox_conf <- Inception3/conv/conf1/flat
I1211 10:51:00.088320   574 net.cpp:434] mbox_conf <- Inception3/conv/conf2/flat
I1211 10:51:00.088323   574 net.cpp:434] mbox_conf <- Inception3/conv/conf3/flat
I1211 10:51:00.088326   574 net.cpp:434] mbox_conf <- conv6/conf/perm/flat
I1211 10:51:00.088340   574 net.cpp:434] mbox_conf <- conv7/conf/perm/flat
I1211 10:51:00.088346   574 net.cpp:408] mbox_conf -> mbox_conf
I1211 10:51:00.088369   574 net.cpp:150] Setting up mbox_conf
I1211 10:51:00.088373   574 net.cpp:157] Top shape: 4 2416 (9664)
I1211 10:51:00.088379   574 net.cpp:165] Memory required for data: 73159584
I1211 10:51:00.088393   574 layer_factory.hpp:77] Creating layer mbox_priorbox
I1211 10:51:00.088399   574 net.cpp:100] Creating Layer mbox_priorbox
I1211 10:51:00.088403   574 net.cpp:434] mbox_priorbox <- Inception3/conv/priorbox1
I1211 10:51:00.088407   574 net.cpp:434] mbox_priorbox <- Inception3/conv/priorbox2
I1211 10:51:00.088410   574 net.cpp:434] mbox_priorbox <- Inception3/conv/priorbox3
I1211 10:51:00.088413   574 net.cpp:434] mbox_priorbox <- conv6/priorbox
I1211 10:51:00.088416   574 net.cpp:434] mbox_priorbox <- conv7/priorbox
I1211 10:51:00.088428   574 net.cpp:408] mbox_priorbox -> mbox_priorbox
I1211 10:51:00.088448   574 net.cpp:150] Setting up mbox_priorbox
I1211 10:51:00.088451   574 net.cpp:157] Top shape: 1 2 4832 (9664)
I1211 10:51:00.088454   574 net.cpp:165] Memory required for data: 73198240
I1211 10:51:00.088456   574 layer_factory.hpp:77] Creating layer detection_out
I1211 10:51:00.088470   574 net.cpp:100] Creating Layer detection_out
I1211 10:51:00.088474   574 net.cpp:434] detection_out <- mbox_loc
I1211 10:51:00.088479   574 net.cpp:434] detection_out <- mbox_conf
I1211 10:51:00.088481   574 net.cpp:434] detection_out <- mbox_priorbox
I1211 10:51:00.088487   574 net.cpp:408] detection_out -> detection_out
I1211 10:51:00.161901   574 net.cpp:150] Setting up detection_out
I1211 10:51:00.161922   574 net.cpp:157] Top shape: 1 1 1 7 (7)
I1211 10:51:00.161926   574 net.cpp:165] Memory required for data: 73198268
I1211 10:51:00.161931   574 layer_factory.hpp:77] Creating layer detection_eval
I1211 10:51:00.161942   574 net.cpp:100] Creating Layer detection_eval
I1211 10:51:00.161964   574 net.cpp:434] detection_eval <- detection_out
I1211 10:51:00.161972   574 net.cpp:434] detection_eval <- label
I1211 10:51:00.161978   574 net.cpp:408] detection_eval -> detection_eval
I1211 10:51:00.162672   574 net.cpp:150] Setting up detection_eval
I1211 10:51:00.162683   574 net.cpp:157] Top shape: 1 1 2 5 (10)
I1211 10:51:00.162686   574 net.cpp:165] Memory required for data: 73198308
I1211 10:51:00.162690   574 net.cpp:228] detection_eval does not need backward computation.
I1211 10:51:00.162695   574 net.cpp:228] detection_out does not need backward computation.
I1211 10:51:00.162700   574 net.cpp:228] mbox_priorbox does not need backward computation.
I1211 10:51:00.162706   574 net.cpp:228] mbox_conf does not need backward computation.
…
